results/cnn_model_8feat.pt (torch, 101136 bytes, 16 tensors)

conv1.weight f4 [32, 1, 3]
00000000: 3016 97bd 6382 8a3e fea5 a13e de15 cebe
00000010: 7d58 ffbe cc00 4b3e c8e2 4b3e 61ec bbbe
00000020: 1344 f23d e608 d23d 3375 e3be e882 8bb9
00000030: 93a9 c0be 29e2 9d3e 2e65 03bf b551 ef3d
00000040: c230 edbe 90ce b9be 5d41 fdbe 3c20 6a3e
00000050: 7c0e cdbc 77b8 863e a67f a83d b8f9 823d
00000060: 3c8a 003e 918d a13e 10cb 9dbe 7563 a5be
00000070: c233 e93d c6f7 79be a1ff 8fbe a231 02bf
00000080: 975f 95bd 3f21 fd3e b010 d33e 6254 643d
00000090: 8b5f 0c3f a798 083f 7840 083e 6aa7 aebe
000000a0: 225d 5fbe 51c3 133e 0af9 82be 0372 2bbd
000000b0: 6596 0ebf bfa5 0ebf 74cb ed3e 15ce 1b3d
000000c0: 162e 123f c781 d03d 16d4 bbbe 5200 01bf
000000d0: 06f5 6ebe 6a18 6f3e d1e3 2abe 334b 68be
000000e0: 488b dd3e 3297 31bd 6a34 373e f4c3 04bf
000000f0: 784a 823d b769 a7be 401d 143e e711 e43e
00000100: 7bff bf3e 2a6e d8be 109e 13bf 1014 7e3e
00000110: 26c7 8d3c 4a2f 00be 7e65 88be 92ca 9abd
00000120: 02fe f73e e706 f4be 6b93 a0bd 384d ab3d
00000130: c488 d4be 1050 0abf 87bd d63e 2e6d c5be
00000140: 98bd ec3e 6bf6 fbbe 7f84 3c3e 9af5 9d3e
00000150: 10c1 8bbe 4cfd a83e f655 a93e 2766 393e
00000160: 9987 4f3e 3baa 903e 0569 87bd aa32 19be
00000170: 0539 b0be a69b 81be f892 3fbe 76e5 cabd
-0.07377279 0.27052602 0.31571954 -0.40251058 -0.498722 0.19824523 0.19910729 -0.3670378
0.118293904 0.102556035 -0.44425353 -0.0002660968 -0.37629375 0.3083661 -0.5132626 0.11685506
-0.46326262 -0.36290407 -0.4946393 0.22863859 -0.02503132 0.2631261 0.08227472 0.06395286
0.12552732 0.3155332 -0.30818987 -0.32302442 0.11386825 -0.24410924 -0.28124717 -0.50856984
-0.07293623 0.49439427 0.4122367 0.055744536 0.54833287 0.5335793 0.13305843 -0.34112102
-0.21812871 0.14429976 -0.25580627 -0.041856777 -0.55698234 -0.5572166 0.46444285 0.038038332
0.5710157 0.10181003 -0.36685246 -0.50391114 -0.23335657 0.23349157 -0.16688468 -0.22684936
0.43270326 -0.04335708 0.17891088 -0.518615 0.0636186 -0.32697842 0.14464283 0.44544908
0.37499604 -0.42271549 -0.5766306 0.2481234 0.017306875 -0.1251804 -0.26639932 -0.075581685
0.4843598 -0.47661516 -0.07840618 0.08364338 -0.41510594 -0.54028416 0.41941473 -0.3855986
0.462384 -0.4921144 0.18409918 0.30851442 -0.27295732 0.3300575 0.33073395 0.18105374
0.2026657 0.28254876 -0.06611828 -0.14960733 -0.34418502 -0.25314063 -0.18708408 -0.099070475

conv1.bias f4 [32]
00000000: f04f 8bbe 4fb1 ce3e dab4 363e c97c 33be
00000010: 8bca c53e c39d 6cbe c74c f1be 1ad7 b13d
00000020: aa87 b63e a2bc a33e 2e1d edbe 0a16 093f
00000030: 736b e4be 5e0b a33e 7a2b 54be 4ca6 99be
00000040: 205b 31be 2b67 e4be 7ff8 e4be e8db 103f
00000050: befd 85be f45a da3e 266e 9b3d b6b6 7f3e
00000060: 6877 ac3d daa4 0ebf 3d0c 9538 8bdf 0e3e
00000070: 4afb b5be 6526 0cbf 5fba 9a3e b145 dfbe
-0.27209425 0.4036965 0.17842427 -0.1752807 0.3863109 -0.23107056 -0.4712889 0.086836055
0.35650378 0.31979853 -0.46311325 0.53549254 -0.44613227 0.3184461 -0.2071971 -0.30009687
-0.17319918 -0.4460996 -0.44720837 0.5658555 -0.26170152 0.42647517 0.075893685 0.24972042
0.084212124 -0.55720294 7.107153e-05 0.13952462 -0.3554328 -0.54746085 0.30220315 -0.43607858

bn1.weight f4 [32]
00000000: 3a14 783f 670a 853f 47b8 8c3f 05f7 813f
00000010: 585d 843f 9a5e 823f 8e48 833f 5bf0 763f
00000020: 9d64 7c3f c140 833f 9eac 773f b794 713f
00000030: ee93 7a3f 1929 833f 5abe 8a3f d5b1 773f
00000040: 1fd3 6d3f 8046 813f 5bea 7a3f d8b6 823f
00000050: 9538 7f3f 1874 753f 80d6 813f 2188 7a3f
00000060: 99c4 803f db40 773f 7891 853f ff1c 823f
00000070: 27fd 803f f1ad 7b3f fc2d 843f 61dd 823f
0.96905863 1.03938 1.0993737 1.0153509 1.0340986 1.018512 1.0256517 0.96460503
0.98591024 1.0254136 0.9674777 0.94367546 0.9788197 1.0246917 1.0839341 0.96755725
0.9290027 1.009964 0.9801385 1.021205 0.9969571 0.9588027 1.0143585 0.97863966
1.0059997 0.96583337 1.0435019 1.0165099 1.0077256 0.9831229 1.0326533 1.022381

bn1.bias f4 [32]
00000000: 33ce df3c 596f 35bd efd6 8b3c 8f21 953c
00000010: 7e0a 253c bd26 4cbd e776 85bc 22a7 26bd
00000020: f8a5 28bc ab20 a1bc 3aaa 6fbd 7287 04bd
00000030: 07f1 54bd ee9f 00bc b4bb 33bd 3880 2d3c
00000040: c843 8ebd 188a 50bd 0cd5 313d dad3 25bc
00000050: 7b69 75bc 6159 04be 1093 703d 3cd8 efbc
00000060: daa8 d7bd 74d5 1cbd dea6 2ebd ff6a bd3c
00000070: 873e 39bd 40c5 95bd 5137 77bc 85b4 113c
0.027320003 -0.044295643 0.017070262 0.018204479 0.010073302 -0.04984163 -0.016292049 -0.040686734
-0.010293476 -0.019668898 -0.05851195 -0.032355733 -0.051987674 -0.00785063 -0.04388018 0.010589652
-0.06946522 -0.050912946 0.043416068 -0.01012131 -0.014978762 -0.1292472 0.058734 -0.029277913
-0.10530253 -0.038289502 -0.042639606 0.023122309 -0.045225646 -0.07313013 -0.015088872 0.008893137

bn1.running_mean f4 [32]
00000000: 6d09 8ebe db2c d73e f2ea 3a3e 4214 2bbe
00000010: d386 c63e d253 63be 30be efbe b52b a63d
00000020: 4bbf b23e 7ba7 a53e 4e1b e5be 22c3 043f
00000030: d836 efbe 3dda a73e fa4b 4ebe 006d 9abe
00000040: 3b2c 3cbe 50f5 ddbe 9cc0 e1be be67 103f
00000050: ee17 83be 5557 d33e 7e6a a33d 369d 833e
00000060: 1a6a b23d 264a 0cbf e6dd d038 36c6 123e
00000070: 25b0 b7be a631 0ebf 595b 9d3e e8c4 dabe
-0.27741566 0.4202641 0.18253687 -0.16706946 0.38774738 -0.22199944 -0.4682479 0.08113805
0.3491157 0.3235434 -0.44747394 0.5186025 -0.4672153 0.3278369 -0.2014617 -0.30161285
-0.18376248 -0.4335122 -0.44092262 0.564083 -0.25604194 0.41277567 0.07979296 0.2570588
0.087116435 -0.5480064 9.959545e-05 0.14333424 -0.35876575 -0.5554451 0.30733755 -0.42728353

bn1.running_var f4 [32]
00000000: 934e 1c3e 3448 e93e b3c9 4d3e 0b41 533e
00000010: 663a f43e a55c 9d3e a336 9d3e e475 7c3d
00000020: 0d15 7d3e b6fa 1b3e 7ee1 863e 0581 a73e
00000030: 9f40 e23e 9a5f 473e ae82 913e 5aa7 103f
00000040: 0b82 0d3f b758 cb3e cae3 a33e a4e1 a33e
00000050: 9e2e 123e 034f 1b3f 278e d33e a451 873d
00000060: fa26 003f 7e22 c83e f40d 083f 4b9f da3e
00000070: 4dd2 993e 204e bc3d 47a5 d63d d689 973d
0.15264349 0.455629 0.20096473 0.2063028 0.47700804 0.30734745 0.30705747 0.061635867
0.24715061 0.15232357 0.26343912 0.32715622 0.44189927 0.19470063 0.28420013 0.5650536
0.55276555 0.39716122 0.32009727 0.32008088 0.14275596 0.6066744 0.4131939 0.066073686
0.50059474 0.39088815 0.5314629 0.42699656 0.3004326 0.09194589 0.10480743 0.07399337

conv2.weight f4 [64, 32, 3]
00000000: 9cb5 493d 3490 3ebd 8e10 15bd 4182 f33b
00000010: 5b4d ebbd bf1a 8fbd 60b0 2dbe 9580 bfbc
00000020: ba75 313d 907d ddbd feb6 b0bd 1a0c 38bd
00000030: f17b 853d e0bd 51bc e4df b83c ffee 113c
00000040: 21a7 c53d 0f51 43bc 992e 82bd 239c d23b
00000050: 721a cf3c 1eee d4bd 4ba1 463d c85d 0dbd
00000060: 6584 b63d 1d16 84bd 7d54 aa3d 44a3 4e3b
00000070: 639c 83bd 160d afbc 5858 a3bd 0803 0dbd
00000080: ac1c 25bc eea4 5d3d 5e28 99bc 9d18 e6bc
00000090: 9257 dc3d 7203 9a3d 5c33 c9bb 31c6 75bd
000000a0: 0e60 3f3c 9849 4e3d 9758 b1bd 7a3f 93bd
000000b0: 595d 873d 82b5 ddbb 88ee c5bb a428 02bd
000000c0: 3838 b3bd f5f8 f4bc a849 8e3d e8a4 a33d
000000d0: 6b70 d1bc c905 313d ccbc debd bd6c d83d
000000e0: 9ca8 bd3c 686c 39bc e3f2 b03d a07b 2fbd
000000f0: 6963 7bbd e03d 8c3d e41e cc3d e167 a53c
00000100: 4d17 10bd f173 7ebd 3990 963c 44b5 12bd
00000110: fbb0 b23c 01ac 13bc 7b51 133d bdf8 1dbd
00000120: 3ad8 01bd 9a22 003e e336 b23c 0b79 e13c
00000130: 9ffc c53c e207 093d aa0e 47bd 0bfb 87bd
00000140: 1212 a2bb 49cf 69bd a7fe 0bbd c4c1 f33c
00000150: 2dbc 0ebd 2f4b 75bd 7d06 183d 3e47 abbd
00000160: 3b39 623c b657 b03d 821f b03a c014 68bd
00000170: 1910 8dbd d1a0 23bd 453c 22be e835 d93d
00000180: c9c2 acbd dfcc 8ebd c565 6d39 89ea fb3c
00000190: 79e2 083e dc71 4fbd 563a deba 25f4 0f3c
000001a0: 3b69 a1bd 5af0 a6bd 457e 2e3b e994 0ebd
000001b0: e72a 8c3c 1753 613b 74af d33d e507 98bd
000001c0: 2284 6cbd c36a b5bd 022a a9bc 8cb7 5e3d
000001d0: dfe6 ed3c a26a 10bd 5cc8 5bbd 4501 18bc
000001e0: bc1d 89bc 2b9d 153d ac93 1abc 1419 bc3d
000001f0: 4df3 dfbd ea70 de3d d306 6bbd 74a5 273c
00000200: fc8c 52ba a679 8fbc 32ec d8bd 623f 773d
00000210: 33df 32bc 963a b9bd 9496 783c 34ba c03d
00000220: 8786 073c d3b6 00be c41a 1dbc 6c36 c7bd
00000230: 81dc a13b 506b cd3d 44a9 72bd 0043 0ebd
00000240: 2279 3e3d d1f5 d7bd 6369 ccbd 703e 933c
00000250: fca9 093e 6952 8b3c 399c acbd 0bcb d63d
00000260: b80d 97bd 985e 1d3b 15ca 08bd 7161 85bc
00000270: c80a 153d cdf3 2e3d 0615 893c c8e0 ba3c
00000280: 9322 893d 89a1 bd3c 935a 003d df01 5abd
00000290: 02a4 423d df9b d13b 3d28 593b 50e3 e0bd
000002a0: c635 7d3d e2b1 603d 37a8 6f3d 7373 11bc
000002b0: eadc 1ebe 8d61 773d 6fe3 bfbd 9a93 573d
000002c0: 381e 91bd 7dd8 663a ba91 84bd 7ff7 99bd
000002d0: 2c5c f33c 2276 5c3d 9148 213d 1e8b 5ebd
000002e0: 0a89 56bc 2a53 8a3d d1e6 fd3d a698 16be
000002f0: bc30 c4bd 4242 123d 2cd9 49bd 4988 24bd
00000300: cb48 cdbd e041 a33d 7cfa 013e 6759 833d
00000310: bf61 b23d f978 003c 17b4 99bc 1d85 cebd
00000320: 339a e83d 4765 163d c037 963d 8a35 babc
00000330: b525 a3bc 44d1 803d 8f6b 833d 92a2 e6bd
00000340: cdbd febd 7f06 973b ff68 d1bd aab6 903c
00000350: 7b27 9dbb 0657 65bc 1433 11bd c61e 753c
00000360: 7f22 113c 9b5c c73d 8082 81bd fd22 823d
00000370: e40d 9cbd b7c6 a0bd 4dbf dd3d 2a74 c83b
00000380: 775e 10be 2372 eabb 46d9 c8bb 7c7c 23bd
00000390: 407a e7bd d878 633c 32af 8f3d a3b6 80bd
000003a0: 16d3 a13d c108 883d 5793 7bbc 2476 88bc
000003b0: 72c7 0e3c 0840 76bd 2948 9abd ccad 3d3d
000003c0: ccb5 f1b8 a30c 3d3d f286 70bc 8580 3c3d
000003d0: 5e3a f93d 8467 943c 9459 ddbd c4be ed3d
000003e0: eaff 873d c348 8abd 4bf0 8a3d 1552 af3d
000003f0: 4b52 a0bc 0cae 3cba 0324 913d b717 5e3b
0.04924546 -0.04652424 -0.03639274 0.007431299 -0.11489364 -0.06987523 -0.16961813 -0.023376742
0.043325163 -0.10814965 -0.08628653 -0.044933416 0.065177806 -0.012801617 0.022567697 0.008907079
0.09651018 -0.011921181 -0.06356544 0.0064273044 0.025281165 -0.1039698 0.048493665 -0.034513265
0.08911971 -0.0644953 0.08316896 0.003153042 -0.06426313 -0.021368545 -0.079758346 -0.03442672
-0.010077637 0.054112367 -0.018696006 -0.028087908 0.1075889 0.075201884 -0.0061401557 -0.060003463
0.011680616 0.050363153 -0.08659475 -0.071898416 0.066096015 -0.006766022 -0.006040398 -0.03177704
-0.08750957 -0.029903868 0.069476426 0.07990438 -0.0255663 0.043218408 -0.10875854 0.10567615
0.023151688 -0.01131735 0.08640077 -0.042842507 -0.0613741 0.06847739 0.099668294 0.020191135
-0.03517847 -0.06212229 0.018379318 -0.0358174 0.021812906 -0.009013177 0.035966378 -0.038567293
-0.03170035 0.125132 0.021754688 0.027523538 0.02416831 0.033454783 -0.04859797 -0.066396795
-0.004946002 -0.05708245 -0.034178402 0.02975548 -0.034847427 -0.059886154 0.037115563 -0.08363198
0.01380759 0.086104795 0.0013437124 -0.056660414 -0.06887836 -0.03994829 -0.15843304 0.10605985
-0.0843559 -0.0697267 0.00022639993 0.030751484 0.13367642 -0.050645694 -0.0016954641 0.008786236
-0.07881399 -0.08151312 0.0026625555 -0.03480998 0.017110301 0.00343818 0.103361994 -0.07423381
-0.0577432 -0.08858254 -0.020649914 0.054374263 0.029040752 -0.035257943 -0.053657874 -0.009277646
-0.016737811 0.03652684 -0.009434622 0.09184471 -0.10935078 0.108613804 -0.057379555 0.010232318
-0.00080318726 -0.017514061 -0.10591926 0.06036318 -0.010917473 -0.090443775 0.015172619 0.094105154
0.00827182 -0.12569742 -0.009588901 -0.09727177 0.004939616 0.10030234 -0.059243456 -0.034731865
0.04650224 -0.10544933 -0.099810384 0.017974108 0.1344375 0.01700707 -0.084282346 0.10487946
-0.073756635 0.002401268 -0.033395845 -0.016281815 0.036387235 0.042712975 0.016733658 0.022812262
0.06696048 0.023148315 0.03133638 -0.05322444 0.04751969 0.006396755 0.0033135556 -0.109808564
0.06181886 0.054857142 0.05851003 -0.008877623 -0.1551396 0.060395766 -0.093695514 0.052631
-0.07085842 0.0008806063 -0.06473108 -0.07517909 0.029707037 0.053823598 0.039375845 -0.05433189
-0.013094196 0.067541435 0.1239754 -0.14706668 -0.09579608 0.03570772 -0.049279377 -0.040169034
-0.1002365 0.07971549 0.12693208 0.064135365 0.0871005 0.007841342 -0.018762631 -0.10083983
0.11357536 0.03671768 0.07334852 -0.022730608 -0.019915441 0.06289914 0.064169995 -0.112614766
-0.124385454 0.0046089287 -0.102251045 0.017665226 -0.004795966 -0.013997799 -0.035449103 0.01496095
0.008858322 0.0973446 -0.06323719 0.0635433 -0.07619837 -0.07850402 0.10827503 0.0061173635
-0.14098535 -0.0071547194 -0.0061294166 -0.03991364 -0.11302614 0.013883792 0.07015838 -0.06284835
0.079015896 0.06642295 -0.015354953 -0.016657896 0.008714544 -0.06011966 -0.07533295 0.046308324
-0.00011525638 0.04615463 -0.014680611 0.046021003 0.12169336 0.018115766 -0.10808101 0.11608651
0.066406086 -0.067521594 0.067841135 0.08560578 -0.01957049 -0.0007197566 0.07086947 0.0033888647

conv2.bias f4 [64]
00000000: e73f 21bd 00af 85bc 7ac5 3ebc 2716 aa3d
00000010: bd6c 3d3d fe76 6cbd 48f1 65bd 5013 5abd
00000020: 2784 c4bd ba27 a03d 89c9 88bd 6ec7 44bd
00000030: d9c7 033d 3d31 85bd 8556 0e3c 3623 a6bd
00000040: 293d d23c 2dc7 70bd fbf5 e23d 1485 32bc
00000050: 7122 acbd b5de 99bd bd13 8f3d 8c5e 5ebc
00000060: c938 6b3d 4322 ffbb e4b4 183d 138e 893c
00000070: 04f9 b23d 2835 9abd a89f aebd bee8 1c3d
00000080: 426a babd c60d dd3c 0588 2b3d 7086 29bd
00000090: 4dfc 103d b7ac e2bb d91e b3bc 2f24 f9bb
000000a0: 3907 83bc 6a91 42bc 2ee3 bbbd 2a76 9e3d
000000b0: cfe1 86bd 4ac6 ac3d c1b5 8d3d 285a 0ebd
000000c0: bb51 053d 1a06 40bd dc4c 93bd 2490 ab3d
000000d0: 9512 d2bc e813 07bc 809e b23d 14b5 81bc
000000e0: f33e ca3d a009 3fbd 30c7 66ba 3ea8 5b3c
000000f0: 9c1f 853c 5c0d b23d da1e 8c3c 6983 a53d
-0.039367583 -0.016318798 -0.011643762 0.083050065 0.04624628 -0.057730667 -0.056138307 -0.053241074
-0.095955186 0.07820077 -0.06679065 -0.048041753 0.03217301 -0.06503532 0.00868762 -0.08112185
0.025663929 -0.0587837 0.11082073 -0.010895986 -0.08405007 -0.07513181 0.06986187 -0.013572346
0.0574272 -0.0077860667 0.037281886 0.01679138 0.08738902 -0.0752967 -0.08526546 0.038307898
-0.09102298 0.026984107 0.041877765 -0.041387975 0.035396863 -0.006917562 -0.021865295 -0.0076031904
-0.015994655 -0.01187549 -0.091741905 0.07737382 -0.06586038 0.08436258 0.069194324 -0.03475395
0.032548647 -0.04688082 -0.07192394 0.08377102 -0.025643626 -0.008244492 0.08721638 -0.015833415
0.09875288 -0.04664004 -0.0008803485 0.013406811 0.016250424 0.08693954 0.017104555 0.08081705

bn2.weight f4 [64]
00000000: bba3 783f a240 823f e191 813f 5f67 813f
00000010: 9f2d 783f ffda 7e3f d6b1 7f3f 7951 8e3f
00000020: ca99 853f 3892 893f a830 8a3f 8dc8 903f
00000030: 5a23 893f c6f7 703f 8477 863f ccf3 823f
00000040: 1320 863f 654f 7b3f a36d 8c3f 84f9 833f
00000050: 3b73 873f 069e 813f 0255 7f3f 902d 833f
00000060: d9ff 7c3f c792 8a3f 79de 843f 2f7d 843f
00000070: bdbe 733f 36e5 773f d531 7c3f e615 823f
00000080: c2c3 823f 9e24 8b3f 43bb 7a3f 6a1b 823f
00000090: 9470 8a3f dca9 7d3f cc38 843f eac1 8b3f
000000a0: c930 893f 37fa 7c3f b7f2 7d3f 6b40 7b3f
000000b0: 9c38 7d3f c895 853f c9a0 723f 7bfc 883f
000000c0: c7f2 833f 9488 883f a737 703f 27ff 7e3f
000000d0: 5930 7e3f 4270 783f 0103 883f e047 8e3f
000000e0: 83a9 753f c305 7b3f 2b0e 723f 8982 803f
000000f0: 6220 8b3f da73 853f 3e67 863f 74aa 813f
0.9712483 1.0175974 1.0122644 1.0109671 0.9694461 0.9955291 0.9988073 1.1118613
1.0437558 1.0747747 1.0796099 1.1311203 1.0713913 0.9412807 1.0505223 1.0230651
1.0478538 0.9816802 1.0970958 1.0310521 1.058204 1.012635 0.99739087 1.024828
0.9882789 1.0826043 1.0380393 1.0350703 0.9521292 0.96834123 0.9851354 1.0162933
1.021599 1.087055 0.9794199 1.0164616 1.0815606 0.9908731 1.0329833 1.0918553
1.0718013 0.988193 0.9919848 0.9814517 0.98914504 1.0436335 0.9477659 1.0702051
1.0308465 1.066668 0.9383492 0.9960808 0.9929252 0.9704629 1.0625917 1.1115685
0.9596178 0.98055667 0.9455287 1.0039836 1.0869257 1.042598 1.0500257 1.0130143

bn2.bias f4 [64]
00000000: c3d4 48bd cc20 03bd 4797 08bd fee8 53bd
00000010: c422 7abd 496d 2ebd d336 1abd 6556 77bb
00000020: 2e91 9bbb 0454 073d b569 d73c 3919 f7bc
00000030: 24f5 113d 1ef3 76bd 25a5 30bd e432 a5bd
00000040: aa63 b2bc d4e8 1a3a 4853 18bd dc32 e1bc
00000050: a831 a6bc 4608 c3bd f77c d0bc 2ce3 92bc
00000060: d6a9 88bd 06be e13b 5b00 ffbc ca18 0ebd
00000070: 307c 7fbd c847 acbd 28f5 32bc 2885 cebc
00000080: 4036 d4bc af81 003c 206e 50bd 6fb8 8fbd
00000090: f798 8fbd e944 7fbd 9923 62bd 173e 6bbc
000000a0: 85e6 d23c 1f6a 59bd 7832 9fbc 437e 85bd
000000b0: ced9 8dbd bd30 15bc 726f d2bd fbe4 363d
000000c0: 9531 2ebd 2bd7 ad3c e28a 6fbd 6b51 93bd
000000d0: a9ba 2cbd 4b72 2dbd a373 3abd 72c5 9dbc
000000e0: 7ef2 1cbd 232e 22bd 6b2d 2ebd 9234 d0bd
000000f0: 4259 8dbc 9ec9 5cbd e33f 043c a03c c1bd
-0.04903103 -0.0320137 -0.033347394 -0.05173587 -0.06106831 -0.04258469 -0.03764994 -0.0037740704
-0.0047475314 0.033039108 0.026295522 -0.030163394 0.035634175 -0.06029045 -0.043126244 -0.08066347
-0.02177604 0.0005909328 -0.0371888 -0.027490072 -0.02028735 -0.095230624 -0.025450213 -0.01793059
-0.06673019 0.0068891076 -0.0311281 -0.03469161 -0.062374294 -0.08412129 -0.010922708 -0.025209978
-0.025904775 0.007843419 -0.050886273 -0.070176 -0.070115976 -0.062321577 -0.05520973 -0.014358065
0.025744686 -0.05307972 -0.019433245 -0.06518223 -0.069263086 -0.009105858 -0.10275163 0.044651967
-0.042527754 0.021220764 -0.05848206 -0.071932636 -0.0421702 -0.042345326 -0.045520436 -0.019259188
-0.038317196 -0.03959478 -0.042523783 -0.10166277 -0.017254476 -0.053903215 0.008071872 -0.094353914

bn2.running_mean f4 [64]
00000000: c383 b0be 4539 9fbe 1ece 693e c7ad 76be
00000010: 6b45 bc3e ee3c 083f a42c 9ebe 89a7 89bf
00000020: 5f30 47bf dd66 333e adcd 79be 24f1 22bf
00000030: 535c 79be 928f a9be 9ef1 cebe becb 92be
00000040: 6f9a 313d f15c 0fbf 4bc5 51be a2d4 80bf
00000050: 1dfb c2be 1982 2d3f c4fb 3d3e be84 62bd
00000060: f73a cdbd 5791 80bf 07b4 a1bb 0f4e ca3e
00000070: de0c 7a3e f040 b73d 6f28 e73d 8997 61bf
00000080: 4a16 cebd 4612 a6be a243 9ebe 139a c63e
00000090: ad2f 3bbe 9e32 0e3d 3dd4 2b3f 6274 88be
000000a0: 4b6a 6a3e 786a 00be 7abb 89bd d77c 363e
000000b0: 76a7 68be 2519 88bf c547 123e 6030 4bbf
000000c0: d690 9e3e 1c8d 87be 2862 36bc 12c2 9d3e
000000d0: 8c63 e73c e239 90bf faf5 62bd b6a9 1bbf
000000e0: 60ba 93be 0cbe a03d 984b fdbd 3251 0e3e
000000f0: 6289 40bf b8c9 82bf 165c d8be 265a 9d3e
-0.34475526 -0.3109838 0.22832534 -0.24089728 0.36771712 0.5321797 -0.30893433 -1.0754253
-0.77808183 0.17519708 -0.24394865 -0.636492 -0.24351625 -0.33117348 -0.40418714 -0.28671068
0.04336017 -0.5600119 -0.20485418 -1.006489 -0.3808221 0.6777664 0.18553072 -0.055302374
-0.10021012 -1.0044354 -0.004934791 0.3951268 0.24418971 0.08947933 0.11287009 -0.8812185
-0.10062845 -0.32435817 -0.30910975 0.38789424 -0.18279906 0.03471624 0.67120725 -0.26651293
0.2289211 -0.12540615 -0.067252114 0.1782106 -0.22720131 -1.0632674 0.1428519 -0.7937069
0.30969876 -0.26474845 -0.011131801 0.30812126 0.02824571 -1.1267664 -0.055410363 -0.60805833
-0.2885313 0.078487486 -0.12367934 0.13898161 -0.7520963 -1.021781 -0.42257756 0.3073284

bn2.running_var f4 [64]
00000000: 9303 813e 4fff 013f 61fe e03e 172f cb3d
00000010: 6d4a c03e cc45 083e 1e0a 473e be47 9f3e
00000020: 9195 073f adbf 4b3e f3b5 e33d 971e dc3d
00000030: dade 413e 8026 c53e 002a 2b3e 9ed2 9b3e
00000040: 750d 183e 0264 773e 1a39 ee3d 3162 6f3e
00000050: 6b0c 543e 0abe 813e 373a 6e3e 39b9 9d3e
00000060: 5f15 f73d 40e2 1f3e a36c 823e 2375 503e
00000070: 0296 e93e b529 b83e 37f3 8a3e 7131 523e
00000080: 1ceb 143e f95f b73e 9ad0 b63e fac0 9a3e
00000090: c7dd 2f3e 1b51 573e bc64 333e edb0 673e
000000a0: 9fc8 a83e c249 203e f515 7a3e 9c2c c23e
000000b0: 48b4 c53e afed ee3e 2785 d13e 00fd 803e
000000c0: 98b1 003f 74cc ab3e 260c a93e e217 503e
000000d0: 395b 233f 5643 a13e 1c96 da3d 6a6b 3e3e
000000e0: dab4 563e 1c17 ac3e 6bf6 083f c844 a73e
000000f0: e3b6 4a3e 3a95 cc3e f954 083e 5407 2a3e
0.2519804 0.50780195 0.43944076 0.09921091 0.37556782 0.13307875 0.19437453 0.31109422
0.52962595 0.19897337 0.111186884 0.10748022 0.18932667 0.38505936 0.1671524 0.30434126
0.14848883 0.24159244 0.11631985 0.23377301 0.20707862 0.253403 0.23264395 0.30805376
0.12064623 0.15613651 0.25473508 0.20357184 0.4562226 0.3596932 0.27138683 0.20526673
0.14542812 0.3581541 0.35706025 0.30225354 0.17174445 0.21027033 0.17518896 0.22626086
0.32965562 0.15653136 0.24422438 0.3792466 0.38614106 0.46665713 0.409219 0.25193024
0.50270987 0.33554423 0.3301708 0.2032161 0.6381107 0.31496686 0.10673162 0.18595663
0.20967427 0.3361138 0.53501004 0.32669663 0.19796328 0.399576 0.13313664 0.16604358

fc1.weight f4 [64, 256]
00000000: 1dba 8cbd 472c 9f3d 8716 36ba 1c9f 0bbb
00000010: d5e3 69bd 0c6e 1ebd d135 603c 4957 10be
00000020: 7dfb 503d 4c75 a4bc ed2c fbbc 220f e5bd
00000030: 94cc 5c3c dcca 813b 0783 51bd 8765 5ebc
00000040: a222 5a3c 9033 b1bd ded5 c2bd cd05 8abd
00000050: 4bde 593d f0e3 bdbb d4d8 20be 3222 14bc
00000060: aae9 84bc 60c9 0dbd 683c b5bc a359 6dbd
00000070: c3b4 a03d fdf6 ad3b dad2 83bd bf93 8f3d
00000080: 33ba 90bd e8ac 003d cbc4 a5bd e428 99bd
00000090: c08b 24bc 320b 483c 51dc 813d f8a2 28be
000000a0: 9bec e93c 8b00 573d 646a bbb9 5c89 4b3d
000000b0: 2bbb a4bd 04ff 84bc 4b25 60bd e33e 1cbe
000000c0: bc50 80bd c607 27bd b10c 073d 1f40 4dbe
000000d0: 9e8a b1bd 24f0 61bd bacb 75bd 4b85 64bc
000000e0: af95 963c 15f9 bbbc 674b e0bb 64cc 05be
000000f0: c593 e63b 5c67 62bd 1a0b 9ebd d570 8abd
00000100: 2660 dfbc 4aaf 88bd 3206 b4bb 75fd 833d
00000110: 5fdb 8f3d 5779 d13c 5f82 e73c 1ab5 bc3c
00000120: 7640 d4bb 565d a8bc e421 87bc 7bbe e13c
00000130: 388a 453d 9193 f13c f90b b93b 61eb 863c
00000140: 48a7 c3bc 599b 263d 0daa 1f3b 1c8f 2abe
00000150: 77ea 8ebb 6862 503b 142d a1bd 7bdc 06bc
00000160: c51e c4bc 2090 333d 8dff d73c dac7 08be
00000170: 35bb d03b 1daa 57bc db5e 993d 3a50 d5bc
00000180: cdc8 a8ba 8d8c 52bd 35a1 15bd 6fb5 aabd
00000190: eea5 4dbc c9a7 d4bc 9722 933d 32bf 7fbd
000001a0: 5f47 54bd f923 e53c 4de8 933d 8534 9cbd
000001b0: 6572 053c 0292 5ebd 4147 da3b b09a 23bd
000001c0: 656f 0fbd 2479 23bd 23ff 933c 1853 f4bd
000001d0: ef50 a0bd 7136 94bc fe66 273d 47e8 a0bd
000001e0: 96cc 6ebd 8bf0 60bd 2827 2cbd a10d 5c3d
000001f0: d299 11bd 311b 9abc ecd8 303d 6025 cdbb
00000200: 1fa4 5f3d 921c 893c 8771 fb3c f622 ca3c
00000210: 2e09 413c 4fa2 f0bc 6e16 973c 4024 58bd
00000220: f3b3 7bbd b4b5 0dbb e578 97bd fae4 543c
00000230: c4b6 06bd a3fb aebd 9910 b8bd 9202 d0bd
00000240: 272b 96bd 361f 2cbd 3dcb 923c c3dd 513c
00000250: e4d3 d73c 3835 1cbd 719a 8abc f150 cebd
00000260: ad11 773b 5595 69bb e816 853a 2ebe a23b
00000270: 63cb a8bb 3764 903c 95c0 e4bc 957b 863d
00000280: a67f 1f3b 9970 3b3b dd18 00ba cc27 f7bd
00000290: 9fd6 f4ba bfe7 39bd 5145 113c 6d98 3dbe
000002a0: 2e23 6c3d 2817 843b b5b0 94bd 2d75 2bbe
000002b0: 9664 2c3d ce7a d1bc 3337 c8bb 327e 133c
000002c0: 5525 83bd 98cd a6bc 2bb1 d8bd 3453 933d
000002d0: f86d a43d 985f d33b 2422 2e3d 4f15 443b
000002e0: 3f0e 2cbc fa1a 66bc 7912 ffbc ac52 43ba
000002f0: f9ce 63bb 3bce 8d3d e0ae e7bd ee92 3fbe
00000300: 3afd 42bd 5340 afbd a2df 8dbd 6eaa 4bbe
00000310: 9c8e 99bc 59f2 793d ac38 953c 0b95 5c3d
00000320: 4479 3c3d e213 343d 1d81 9a3a 3813 b63c
00000330: 8ed5 743d 1c4f b3bd 7b70 babc bfa4 bbbd
00000340: 8ca9 413c 9d5c a8bd 329d 5f3c e988 bebd
00000350: 5ddc 32bd 42d7 703d 8860 f43c a336 8c3c
00000360: 3067 0c3d bd1c 093d 7d8f 03be a834 d2bd
00000370: da13 c93c fa24 b2bc c9a2 543c 9184 f6bc
00000380: c96c 973d 2284 93bd 6505 a0bd 39c8 0dbe
00000390: 5c22 a0bc 187e e1bc a80e 1cbc 64ad 92bc
000003a0: 9c05 01bc d0da 5d3d cf2e fdbc f3a0 053d
000003b0: e0cf 48bd 317c 79bd 2a11 9bbb a760 2ebd
000003c0: ef4b b83c 9c5a 143d 0751 6e3d 3d18 2bbd
000003d0: d83d 3e3d a04b 46bd 5cb3 f9ba 3a68 8fbd
000003e0: d487 b6bd ca19 1c3d 9412 313b 2bc9 88bd
000003f0: f49e 173b cb95 5b3d 0470 86bd 39a2 03be
-0.06871436 0.07772117 -0.0006946106 -0.0021304553 -0.057102043 -0.038679168 0.013684706 -0.14095797
0.051021088 -0.020075463 -0.03066107 -0.11184527 0.01347651 0.0039609503 -0.051150348 -0.013574011
0.013313921 -0.08652413 -0.09513448 -0.06739388 0.05319051 -0.0057949945 -0.15707713 -0.009041356
-0.016224701 -0.034615874 -0.02212353 -0.057946812 0.078469776 0.0053089843 -0.06436701 0.07010602
-0.07066765 0.031414896 -0.08094176 -0.074785024 -0.010043085 0.0122097 0.0634085 -0.16468418
0.028555205 0.052490752 -0.00035746687 0.049691543 -0.08043512 -0.016234882 -0.054723065 -0.15258364
-0.06265399 -0.040778898 0.032971088 -0.20043992 -0.08669017 -0.055160657 -0.060008742 -0.013947795
0.018381922 -0.02294592 -0.006844926 -0.1306625 0.0070366585 -0.055274352 -0.07716961 -0.06759802
-0.027267527 -0.06674059 -0.0054939026 0.064448275 0.070242636 0.025570555 0.028260408 0.023035575
-0.006477411 -0.020552319 -0.016495652 0.027556648 0.04822752 0.02948931 0.005647179 0.01646966
-0.023883477 0.040675495 0.0024362833 -0.16656154 -0.0043614465 0.0031796936 -0.07869926 -0.008231278
-0.023940453 0.04383862 0.026366973 -0.13357487 0.006369973 -0.013163117 0.07488795 -0.026039232
-0.0012877226 -0.05140357 -0.036530692 -0.08335387 -0.012551768 -0.025958912 0.07184332 -0.062438197
-0.051825877 0.027971255 0.07222042 -0.07627205 0.00814495 -0.054338463 0.006661326 -0.039942443
-0.035018343 -0.03991045 0.018065995 -0.119299114 -0.07827937 -0.018092366 0.040869705 -0.078568034
-0.058300577 -0.0549169 -0.04202953 0.053723935 -0.035547085 -0.018811794 0.043175623 -0.006260559
0.054599877 0.016737256 0.030693782 0.024674874 0.011781974 -0.02937427 0.018443312 -0.052768946
-0.06145091 -0.0021623196 -0.07396106 0.012994045 -0.032889143 -0.0854409 -0.08987541 -0.1015674
-0.073324494 -0.042021953 0.017919177 0.01280922 0.026346155 -0.03813669 -0.016919347 -0.10074032
0.0037699745 -0.0035641987 0.0010153921 0.004966519 -0.0051511987 0.017625911 -0.027923862 0.0656654
0.002433756 0.002860105 -0.00048865174 -0.120681375 -0.0018679685 -0.045387026 0.008866624 -0.18515177
0.057650737 0.0040310808 -0.07260267 -0.16743918 0.042088114 -0.025571253 -0.006110096 0.009002255
-0.06403605 -0.020361707 -0.10580667 0.07193604 0.080287874 0.0064506046 0.042513028 0.0029919927
-0.010501443 -0.014044518 -0.031136738 -0.0007450979 -0.0034760816 0.06924101 -0.11312652 -0.18708393
-0.047604777 -0.08557191 -0.0692742 -0.19889233 -0.01874476 0.061022136 0.0182155 0.053853076
0.046014085 0.043964274 0.0011787746 0.022225961 0.059773974 -0.08755323 -0.022758713 -0.09162282
0.011820208 -0.082207896 0.013648318 -0.09303457 -0.043667186 0.058799036 0.029831186 0.017115897
0.034278095 0.033474673 -0.12847705 -0.1026395 0.024545599 -0.021746147 0.012978264 -0.03009251
0.07393796 -0.07202937 -0.07813529 -0.1384591 -0.019547634 -0.027525946 -0.009524979 -0.017904945
-0.007874873 0.054163754 -0.03090611 0.032624196 -0.04902637 -0.060909454 -0.0047322707 -0.042572644
0.022497145 0.036219224 0.058182742 -0.041771162 0.046445698 -0.048411965 -0.0019050646 -0.070023015
-0.08912626 0.038110532 0.002701913 -0.06678995 0.0023135515 0.05360965 -0.06564334 -0.12854852

fc1.bias f4 [64]
00000000: 130f 5dbd 6d18 b53a 5eb3 7ebd 6ab3 de3c
00000010: dcc6 043d e4ef 4abc 0c88 95bd 9ef8 69bd
00000020: ff9c c4bd 40f5 73bd f3de 83bb 292e 133d
00000030: 88ca 48bd 0585 cdbb f95f 63bc 4a78 baba
00000040: dc30 b03c 741f 78bd d390 d0bc 6ac7 95bd
00000050: fbc2 5fbd 133f 01bd 8273 6d3c d542 d03c
00000060: c921 363d 1c0e 10bd 3c39 4bbd fd1b 7dbd
00000070: dad9 32bb d951 2abd 6d04 0c3c 049b 12bd
00000080: 70c1 8fbd b0aa b83b e268 453c 5cc5 d43c
00000090: dc27 1cbd 49b5 903c 9a3f 3b3d c32b f53c
000000a0: 12ad 3ebd e1c8 6b3b f94e 02bd 728d 2bbd
000000b0: 0ba8 dd3c 2d77 02bd 4623 c9bc 80d5 76bc
000000c0: ad64 1bbd 1aba c93c feb5 55bd aa98 86bd
000000d0: e379 2f3d a89d 0c3d 223e 993b 11d1 40bb
000000e0: ef0e 73bc 91e6 f5bb 0091 5bbd 53cd 10bc
000000f0: efe9 233c 3e4f 9bbc 8329 043d 19b2 573d
-0.053969454 0.0013816484 -0.062182777 0.02718516 0.03241621 -0.012386296 -0.073013395 -0.057121865
-0.09600257 -0.05956006 -0.0040243804 0.035932694 -0.049021274 -0.0062719607 -0.013877862 -0.0014226523
0.021507673 -0.06057687 -0.025459683 -0.07313426 -0.054629307 -0.031554293 0.014492871 0.025422493
0.044465814 -0.035169706 -0.04961513 -0.06179427 -0.0027290494 -0.041581962 0.008545977 -0.035792366
-0.07019317 0.005635582 0.012048932 0.025973015 -0.03812395 0.017664568 0.045714952 0.029928094
-0.04655177 0.0035977887 -0.031813595 -0.04188294 0.027057668 -0.031851936 -0.024552952 -0.015065551
-0.03793781 0.024624873 -0.052175514 -0.06572087 0.04284085 0.03433004 0.0046765963 -0.0029421488
-0.014835103 -0.0075042923 -0.05360508 -0.008838016 0.010004505 -0.018958684 0.03226615 0.05266008

fc2.weight f4 [5, 64]
00000000: ed69 6dbd 1222 97bd 77ad a4bd 18b3 34be
00000010: 2ab7 33bd 2505 0ebd 1904 193e 4421 c8bc
00000020: 7d51 bc3d c042 0a3d ae8e c2bc a97a 9fbc
00000030: 01e8 92bd 9ad0 1ebe 8ffd c6bd b56e b4bc
00000040: 8437 133e 50a1 ccbd 0d5d de3d 074b 50bd
00000050: 50eb f1bd 0ee2 6a3c 124a 93bd 12bf efbc
00000060: 1197 ba3d db12 99bd 0809 9cbd 022a a33d
00000070: 046a 393d d02b 463c 0c77 693d 5f09 bd3d
00000080: 243c da3c 2f4f 873d 1c69 b4bd f99a 1bbc
00000090: 9cb7 1e3d e91f dfbc 71c6 e2bd 287d be3d
000000a0: 700c 20bd b1f2 fbbd aadb 493c f6aa 7cbd
000000b0: 5f61 703d a2f7 903d febb 04be f969 d43d
000000c0: 8ff4 bc3d 1403 acbc ab22 fcbd 97ef 81bc
000000d0: b127 f3bd 3aa2 83bd 53e9 913d e6cd b4bb
000000e0: 6a93 993d 4103 adbb 91b5 c1bd 7f6e 9d3d
000000f0: cc68 db3d e099 203d a12d 4e3d 8081 adbc
00000100: 147d 503d 466d e83d 83a8 09bd bbc5 dfbc
00000110: 5976 20bd a785 b43d 4af8 dcbc cebd c63d
00000120: 6c84 693d 4f98 d1bd 9a35 8dbd 29e1 c23d
00000130: d434 943d cd4e 8fbd bde9 2f3d 99ad 943d
00000140: 5520 b03d 5ad8 81bd 1902 9cbc ee9d 473c
00000150: 4d1c 9c3d ad3b adbd e069 36bd c540 283d
00000160: 28ac 08be 9883 ea3c ef9a 0f3e f30b 183d
00000170: 5f3c 8c3c d587 dbbd cef6 733d fbf9 8dbd
00000180: 2407 b6bc 063c 3abe ceb7 91bb 827a c6bd
00000190: c057 143e 8cd8 0fbe 85c3 07bd 1f72 f2bb
000001a0: bfb2 06be 9344 c2bd de36 96bc 5f7d 0d3d
000001b0: 5388 a43c b6ad bf3c 8c56 773d 9d27 a0bd
000001c0: 3c84 82bc daac 17be 2c10 5b3d e707 a3bc
000001d0: 0d16 1d3d 6853 b6bc 97f2 643c 6eb5 fab7
000001e0: 2c3b b9bd e347 c63b c8b6 d93c fda0 7dbc
000001f0: 89cf 86be a5cc 1cbd e92b c93d cd09 8b3d
00000200: e114 3dbe 390c c23d 9770 a03d ed6a 253e
00000210: 87d5 7abd bec9 5dbc f384 1cbc 3c69 933d
00000220: c963 1b3e a549 f53c aa90 55bd 96a4 38bc
00000230: 67f1 483d 2dca 66be 1942 ecbd e54e b4be
00000240: 9e6d e4bc dd90 acbd b645 28be 611a fabb
00000250: 5868 213d 1fb6 cfbd 5937 04bd 7e49 633b
00000260: b15b c4bc c7de cd3d b479 8e3c e597 8d3d
00000270: 5680 f93c 0ff6 b43d dc2e 20bd c466 e33d
00000280: e553 61bc 1849 aabd 2a86 bbbd 8713 b13d
00000290: 3fc8 033d e530 d63d a8cb fbbd 16e8 02be
000002a0: 5a30 70bc bbf0 bd3d 58f9 2f3e aec4 04bd
000002b0: 209a 67bc 963d 89bd 465b c0bd da3d f83d
000002c0: 5c0d c43d 9813 60bd 3c97 60be da6e 023d
000002d0: 5ce7 6cba a20f 45be ebce f7bc 2f84 3a3c
000002e0: 28f1 823d d435 b73d a4fe b93d fee4 80be
000002f0: 8ad3 393d 1246 34be 4fbe 88bd d6e3 fbbb
00000300: 7b3d b33d d981 093c b336 8a3d 4fd8 9f3d
00000310: db62 823d d1a0 923d deb2 99bd 6e26 d43d
00000320: c68d b6bd 4369 25bd 1477 86bb 5543 b6bd
00000330: dc84 e9bd 7855 77bd 2306 28bc 6a10 a7bb
00000340: a5f3 9dbd 86ef 813c 90f3 d33d af7e 9d3c
00000350: ec9e d2bb 7602 c43d ed7e 0cbc 5904 4bbb
00000360: e851 623d fe1d d13d b73a 053e d754 1bbe
00000370: 3f7a 31bc 5c38 8a3d a32c fbbd f6c2 5ebd
00000380: 64fa 8fbd cc07 aabb 50f7 acbd f2c3 2bbb
00000390: 6fa6 c6bd db5f 5e3d f2f4 9bbd 9bf5 f73d
000003a0: a5a4 bb3d 8ec4 b6bd 8a05 09bc 34e5 c5bd
000003b0: 3a45 023e 9bce 003e 57cf 773d ff8d cbbd
000003c0: d3e6 19bd cc7d e03c bc12 f3bd 8f92 bf3d
000003d0: 9a88 e93c 591f 963d 7e22 2ebd b880 ddbd
000003e0: 2b4e 4abd 7714 13be 6648 42bc 61d8 1b3d
000003f0: e799 a3bd 25bd d4bc 1ebd 6ebd 6d54 82bd
-0.057962347 -0.07379545 -0.08040898 -0.17646444 -0.04387585 -0.034672875 0.1494297 -0.024429925
0.0919523 0.033755064 -0.023749676 -0.019467669 -0.071731575 -0.15509263 -0.09716331 -0.022025445
0.14376646 -0.099917054 0.10857592 -0.0508528 -0.118124604 0.014336122 -0.07191862 -0.029265914
0.09110845 -0.074742995 -0.0761891 0.07966997 0.04526712 0.012095407 0.056998298 0.09230303
0.026640005 0.066069 -0.088091105 -0.009497398 0.038749322 -0.027236896 -0.11073006 0.093012154
-0.03907436 -0.12302149 0.012320438 -0.06168648 0.05868661 0.07078482 -0.12962338 0.10371775
0.09226333 -0.020997562 -0.123113 -0.015861316 -0.11872805 -0.06427427 0.07124581 -0.005517709
0.0749882 -0.005279929 -0.09458459 0.07687091 0.10713348 0.039209247 0.050336484 -0.021179914
0.050900534 0.11348967 -0.03360797 -0.027315965 -0.039175365 0.08814555 -0.026973862 0.09704171
0.057011053 -0.10234129 -0.06894989 0.09515602 0.07236639 -0.06997452 0.04294752 0.072596736
0.08599917 -0.06340094 -0.019043969 0.012183649 0.076225854 -0.08458648 -0.044534564 0.041077394
-0.13346922 0.028627202 0.14023946 0.03712077 0.01711863 -0.10719267 0.059561543 -0.069324456
-0.022220202 -0.1818696 -0.00444696 -0.09691335 0.14486599 -0.1404745 -0.033145446 -0.007398858
-0.13154124 -0.09485736 -0.01833671 0.03454339 0.020084536 0.023398262 0.060385272 -0.07820056
-0.015932195 -0.14812031 0.05348222 -0.019901229 0.038351107 -0.022256568 0.013973854 -2.9886807e-05
-0.09044489 0.00605105 0.026576415 -0.015480277 -0.26330212 -0.0382811 0.09822828 0.06788979
-0.18464996 0.094749875 0.07833975 0.1615407 -0.06123879 -0.013536869 -0.009553182 0.07197806
0.15174784 0.029942343 -0.052139916 -0.011269709 0.049058344 -0.22538061 -0.115360446 -0.35216442
-0.0278843 -0.08426068 -0.16432843 -0.007632539 0.03940615 -0.10142159 -0.032279346 0.0034681256
-0.023969503 0.10052257 0.017392017 0.06913737 0.030456703 0.088359945 -0.03910719 0.11103585
-0.013752912 -0.08314723 -0.09156449 0.08646303 0.03217339 0.10458545 -0.12294704 -0.12783846
-0.014659965 0.09274431 0.17184961 -0.03241413 -0.014135867 -0.067012 -0.09392409 0.12121172
0.095728606 -0.054706186 -0.21932691 0.031843998 -0.0009037161 -0.19244245 -0.030250033 0.011384054
0.06393653 0.08945814 0.09081772 -0.25174707 0.045367755 -0.17604855 -0.066769235 -0.0076870723
0.08751961 0.0083927745 0.06748714 0.078049295 0.063665114 0.071595795 -0.07504819 0.103588924
-0.0891376 -0.04038359 -0.0041035507 -0.08899561 -0.11402294 -0.060384244 -0.010255369 -0.0050983923
-0.07712487 0.015861284 0.1034919 0.019225447 -0.0064276364 0.09570782 -0.008575183 -0.0030977933
0.055253893 0.10210799 0.13010679 -0.15169083 -0.010832368 0.06749031 -0.12264373 -0.054385148
-0.0703018 -0.0051889177 -0.084456086 -0.0026209322 -0.096997134 0.054290634 -0.07615079 0.121073924
0.09162263 -0.089242086 -0.008363137 -0.09662858 0.1272172 0.12578814 0.06050047 -0.09939193
-0.037573647 0.027403735 -0.11868808 0.09354126 0.02850752 0.07330198 -0.042513363 -0.10815567
-0.049390953 -0.14363275 -0.011858081 0.038048152 -0.07988339 -0.025969097 -0.058285825 -0.06363759

fc2.bias f4 [5]
00000000: 9bdc 51bd 922d 10bc 6dca c2bd c4b8 68bd
00000010: cee6 ffbd
-0.051235776 -0.008799927 -0.09511266 -0.05681683 -0.124951944
