results/eeg_classifier.pth (torch, 21454 bytes, 6 tensors)

model.0.weight f4 [64, 4]
0	0x3ea7ffe1	0.32812408
1	0x3ef1fb2a	0.47261935
2	0xbe1a75e1	-0.1508403
3	0x3e8d2c73	0.27572975
4	0x3f08ff54	0.535146
5	0xbf08508e	-0.53247917
6	0xbe03c73a	-0.12868968
7	0x3e9f01cd	0.3105606
8	0xbed0cc22	-0.4078074
9	0x3ee2ad28	0.44272733
10	0xbe8cd6a7	-0.27507517
11	0x3ee68bb7	0.4502847
12	0x3d2997b8	0.041404456
13	0xbf1181eb	-0.56838864
14	0x3e854097	0.2602584
15	0x3d3113d7	0.04323181
16	0x3e25142e	0.16120979
17	0x3f0cf2a5	0.55057746
18	0x3d3841f1	0.04498476
19	0xbe03cd3f	-0.12871264
20	0x3f0d9bfb	0.5531613
21	0x3e255457	0.16145454
22	0xbef7c189	-0.48389843
23	0xbec9584d	-0.3932518
24	0x3ef77670	0.48332548
25	0x3dc86fec	0.097869724
26	0xbf030071	-0.5117255
27	0x3ecee8d3	0.40412006
28	0x3de6e4e1	0.11274124
29	0xbe842f00	-0.25817108
30	0x3eb207b8	0.34771514
31	0x3ec80fdf	0.3907461
32	0x3eb20a77	0.3477361
33	0x3dcfa5ed	0.1013907
34	0x3e898aa0	0.26863575
35	0x3d88ed65	0.066859044
36	0xbe95c50e	-0.29251903
37	0xbe01feb3	-0.12694816
38	0xbed04bf9	-0.40682963
39	0x3b16768e	0.0022958848
40	0xbeedd2a6	-0.46449775
41	0xbeada00f	-0.33911178
42	0x3ad543d4	0.0016270825
43	0xbf276a58	-0.6539664
44	0xbef8251d	-0.48465815
45	0xbdb86049	-0.0900274
46	0x3ecec16e	0.4038195
47	0x3e4b8471	0.19874741
48	0xbd3ce164	-0.046113387
49	0x3e7a5b07	0.24448787
50	0xbd089f24	-0.033354893
51	0x3ec18d5b	0.37803158
52	0x3f26d0bf	0.6516227
53	0x3e5e49b0	0.21707797
54	0x3ee75a18	0.45185924
55	0xbea389bf	-0.3194103
56	0xbec2fba4	-0.38082612
57	0xbde8c06a	-0.11364825
58	0x3e356692	0.17714909
59	0x3daa5ced	0.083185054
60	0x3eb1128b	0.3458446
61	0xbea9d0dd	-0.33167163
62	0x3d0e1cdf	0.034695502
63	0x3ec588b4	0.3858086
64	0xbf2de53b	-0.679279
65	0xbe67a355	-0.226209
66	0xbe429c14	-0.19004852
67	0x3b416619	0.0029510318
68	0xbe6b4606	-0.2297593
69	0xbea9d790	-0.33172274
70	0xbe959fa5	-0.29223362
71	0x3eaacffb	0.33361802
72	0xbece31db	-0.40272412
73	0xbe5b9efc	-0.21447366
74	0xbf129ca3	-0.5727026
75	0xbdafa286	-0.08575921
76	0xbd1179d0	-0.03551656
77	0x3e9e26f1	0.30889085
78	0x3ed4778c	0.41497457
79	0xbeb52c60	-0.35385418
80	0x3ecfd375	0.40591016
81	0x3ccf901d	0.025337273
82	0x3ea0edb0	0.3143134
83	0x3eeff537	0.46866772
84	0xbf0be430	-0.5464506
85	0x3ed36d7b	0.41294464
86	0xbe114532	-0.14186552
87	0x3ebe6767	0.37188265
88	0x3d5bc870	0.05365795
89	0x3d60b9bd	0.054864634
90	0x3e16325c	0.14667648
91	0x3ee3aa37	0.444658
92	0xbf07b24e	-0.53006446
93	0x3ed6c87e	0.41949838
94	0x3cd8574c	0.026408814
95	0xbe566bcc	-0.20939559
96	0x3e5a0f0d	0.21294804
97	0x3eb4fa80	0.35347366
98	0x3ec2e95d	0.38068667
99	0x3ed0f8da	0.4081486
100	0xbeee8db7	-0.46592495
101	0xbe17531e	-0.147778
102	0xbd6f2f18	-0.05839452
103	0x3e7e29bd	0.2482061
104	0xbe19a622	-0.15004781
105	0x3e8e94ab	0.278478
106	0xbee231fc	-0.4417876
107	0x3e2b23af	0.16712831
108	0x3e1f6d81	0.15569116
109	0x3ea69979	0.32538965
110	0x3e8719cb	0.26386866
111	0xbf0a8ff2	-0.54125893
112	0x3f004ef6	0.50120485
113	0x3e373bed	0.17893954
114	0xbce73a7b	-0.028226128
115	0xbeb33133	-0.34998474
116	0xbcf8dfc1	-0.030380132
117	0xbf172e27	-0.590548
118	0x3e85ea80	0.26155472
119	0x3db0b20d	0.086277105
120	0xbf112314	-0.5669415
121	0xbebed267	-0.372699
122	0xbd3c3226	-0.045946263
123	0x3f042300	0.51615906
124	0xbd3cd81b	-0.04610453
125	0x3dcb2675	0.099194445
126	0xbef87fe3	-0.4853507
127	0xbec17c51	-0.37790158
128	0x3dfebbfd	0.124382
129	0xbedbe62d	-0.42949048
130	0xbe4ec9b2	-0.20194128
131	0xbe60c27d	-0.21949191
132	0x3e91109f	0.28332993
133	0x3eadde2b	0.33958563
134	0xbe78860c	-0.24269885
135	0x3e8658bf	0.26239583
136	0xbe2bd2ab	-0.16779582
137	0xbf02dcb3	-0.5111801
138	0x3eb263bf	0.34841725
139	0xbef35360	-0.47524548
140	0x3e2c7bf6	0.16844162
141	0xbf1a7379	-0.6033245
142	0x3ebb118b	0.36536822
143	0x3e3d4dbf	0.18486689
144	0x3e4d5b62	0.20054391
145	0x3eab4364	0.33449852
146	0xbd80e694	-0.06293979
147	0xbf25c376	-0.64751375
148	0x3f026ee3	0.5095045
149	0xbee7d1d2	-0.45277268
150	0xbc8e971f	-0.017406045
151	0xbd88a229	-0.066715546
152	0xbf08a6eb	-0.53379697
153	0xbef39aaa	-0.47578937
154	0x3ef20844	0.4727193
155	0xbe47f334	-0.19526368
156	0x3e8bd23d	0.27308837
157	0xbedc8b8b	-0.43075213
158	0xbea1eb3c	-0.31624782
159	0xbdca0b61	-0.098654516
160	0x3d671dba	0.056424834
161	0xbeccb534	-0.39981997
162	0x3efad8d2	0.48993546
163	0xbe4f8c6d	-0.20268412
164	0x3e8ebe04	0.27879345
165	0xbe4f7e92	-0.20263126
166	0xbea0cb7f	-0.31405255
167	0xbe7024c8	-0.23451531
168	0xbf25bcf7	-0.6474146
169	0xbe4ea75c	-0.2018103
170	0xbe94618d	-0.28980675
171	0x3e02aed3	0.12762003
172	0x3f094a01	0.53628546
173	0xbe56058b	-0.20900552
174	0x3e69da86	0.22837266
175	0xbec42941	-0.38312724
176	0xbf1115d6	-0.56673944
177	0x3f313e61	0.6923581
178	0xbdd5b624	-0.10435131
179	0x3eeefda0	0.46677876
180	0xbd81a601	-0.06330491
181	0xbe3aa93b	-0.18228619
182	0x3e7f62a9	0.2493998
183	0x3e80ef70	0.25182676
184	0x3f0a79ea	0.54092276
185	0xbf2d58e8	-0.67713785
186	0xbdedb031	-0.116058715
187	0xba3262dc	-0.00068048923
188	0x3f0a1248	0.53934145
189	0xbef254f6	-0.47330445
190	0xbd84d069	-0.064850636
191	0x3ec68a39	0.3877733
192	0x3f179f0e	0.59227073
193	0x3e32a3ac	0.17445248
194	0xbe98769d	-0.29777995
195	0xbee240d9	-0.441901
196	0x3f08f102	0.5349275
197	0x3e7ee5c5	0.24892338
198	0xbea9e07e	-0.33179086
199	0x3e58d4eb	0.21174972
200	0xbece5227	-0.40297052
201	0xbdd24e8f	-0.1026889
202	0xbf0759e3	-0.5287153
203	0x3e9d4ff5	0.30725065
204	0x3e948981	0.29011157
205	0xbe0828e7	-0.13296853
206	0xbc2ca069	-0.010536292
207	0xbe8bd487	-0.27310583
208	0x3eae9e3f	0.34105107
209	0xbbeb228c	-0.007175749
210	0xbed081e0	-0.40724087
211	0x3e013e61	0.12621452
212	0x3d66bf69	0.056334887
213	0xbe426e2e	-0.18987343
214	0x3ee733c7	0.4515669
215	0xbdf420d3	-0.11920323
216	0xbd386776	-0.045020543
217	0x3e8b80ff	0.27246854
218	0x3e8912ad	0.2677206
219	0x3eddf68b	0.4335216
220	0x3f0b7943	0.54481906
221	0xbedfd9da	-0.43720895
222	0xbe65b22a	-0.22431245
223	0xbe961216	-0.29310673
224	0x3d338842	0.043831117
225	0x3f2253fd	0.63409406
226	0x3ebc4db5	0.36778036
227	0x3e31d035	0.17364581
228	0xbeb6b89a	-0.35687715
229	0x3e7d44c9	0.2473327
230	0x3e489319	0.19587363
231	0xbe1d52eb	-0.15363662
232	0x3e8b8533	0.2725006
233	0x3e0e9159	0.13922633
234	0x3f19bcc7	0.60053676
235	0x3e962428	0.2932446
236	0xbf20dc20	-0.62835884
237	0x3efc1223	0.49232587
238	0xbeec7ff3	-0.46191368
239	0xbecf0e50	-0.40440607
240	0x3e97b0e0	0.29627132
241	0x3ec2702a	0.379762
242	0xbe37f062	-0.17962793
243	0xbede72a2	-0.43446833
244	0x3ebf423b	0.37355217
245	0xbf243029	-0.64135987
246	0xbe0c35be	-0.13692376
247	0x3d104790	0.035224497
248	0xbeab46bc	-0.33452404
249	0x3dbf3cf1	0.093377955
250	0x3eb72a8d	0.3577465
251	0x3ebbd1ff	0.36683652
252	0x3e8ae29c	0.27126014
253	0xbf11c1d8	-0.5693641
254	0x3ea28d01	0.31748202
255	0x3d8de228	0.069279015

model.0.bias f4 [64]
0	0x3e094207	0.13404094
1	0x3e20435e	0.15650699
2	0xbdd1dbd1	-0.10247005
3	0xbedeb3f7	-0.43496677
4	0xbe1f1f58	-0.155393
5	0x3eeba07b	0.46020874
6	0xbd799c59	-0.06094012
7	0x3e22d123	0.15900092
8	0x3ea769f7	0.32698032
9	0x3db03af4	0.086049944
10	0xbeac70c6	-0.3367979
11	0xbe38295c	-0.17984527
12	0xbc308f12	-0.010776298
13	0xbe9355c1	-0.28776363
14	0xbcd25525	-0.025675366
15	0x3e52d2b8	0.20588195
16	0xbe8bb9b0	-0.27290106
17	0x3ddbf5bb	0.10740229
18	0x3e30e6f1	0.17275597
19	0x3ee8ecd4	0.45493186
20	0x3e0cfcb2	0.1376827
21	0xbe6e9fa7	-0.2330309
22	0x3f097461	0.53693205
23	0xbea92374	-0.3303486
24	0xbe2b1c89	-0.16710104
25	0x3d82dba6	0.06389551
26	0x3f1a0fcc	0.60180354
27	0xbd34f354	-0.04417737
28	0x3f18fe24	0.5976279
29	0xbed05de8	-0.40696645
30	0xbec0e785	-0.37676635
31	0x3ed260f7	0.41089603
32	0x3e9e3cc2	0.3090573
33	0x3ef9fe04	0.4882661
34	0x3d9d7853	0.07688966
35	0xbec720f8	-0.3889234
36	0xbd6aa12c	-0.05728261
37	0x3ee6a923	0.45050916
38	0xbe9752a4	-0.29555237
39	0xbe98d13f	-0.29847142
40	0xbe1e1272	-0.15436724
41	0x3e9fae5b	0.3118771
42	0x3e2324ec	0.15932053
43	0x3f09336a	0.53594077
44	0x3c3329d1	0.010935263
45	0x3d9cdc25	0.07659177
46	0x3f1249a9	0.57143646
47	0x3c59c444	0.013291422
48	0x3f1e0194	0.6172116
49	0x3e8a77b5	0.27044454
50	0xbbcd3ef4	-0.006263608
51	0xbe85f343	-0.26162156
52	0xbe241908	-0.16025174
53	0xbe812b2a	-0.25228244
54	0x3e9834c5	0.2972776
55	0xbe951b12	-0.29122216
56	0x3ef6eb88	0.4822657
57	0x3f13c36b	0.5772006
58	0x3f18f2d1	0.5974551
59	0x3e5e13cc	0.2168724
60	0xbe8c501d	-0.27404872
61	0x3efae2fe	0.49001306
62	0x3f0e683b	0.55627793
63	0x3ede3d10	0.43405962

model.2.weight f4 [64, 64]
0	0x3daadd75	0.08343021
1	0xbdd9f21d	-0.106418826
2	0x3da1f1fd	0.07907484
3	0xbe7baaf9	-0.2457694
4	0x3dd8fe28	0.105953515
5	0xbd363b1e	-0.044489972
6	0x3cd9bd41	0.026579501
7	0x3e016a24	0.12638146
8	0x3c8b04be	0.016970035
9	0xbe73431a	-0.23756066
10	0x3d605146	0.05476501
11	0xbd084ad3	-0.033274483
12	0xbcbfb2d9	-0.02340071
13	0xbdc2a084	-0.09503272
14	0xbd9cd0bd	-0.07657001
15	0x3de1dc45	0.11028341
16	0xbec9520a	-0.39320403
17	0xbb9aed48	-0.004727993
18	0xbe2bf3d4	-0.16792232
19	0x3e6aae8a	0.22918144
20	0x3daa1f1b	0.08306714
21	0xbe386c3a	-0.18010035
22	0x3dc8129a	0.09769173
23	0xbe0aae5c	-0.13543075
24	0x3d8dee0b	0.06930169
25	0xbda21bc0	-0.07915449
26	0x3e263d80	0.16234398
27	0x3d3735e4	0.04472913
28	0x3dde936a	0.10867961
29	0xbdfa2400	-0.12213898
30	0xbe1c4412	-0.15260342
31	0xbd30a600	-0.04312706
32	0x3da4d506	0.080484435
33	0x3e3c115a	0.18365994
34	0xbc5a8466	-0.01333723
35	0xbd9f6cfe	-0.077844605
36	0x3e1aee07	0.15129863
37	0xbeaa5675	-0.33269086
38	0xbdd67a24	-0.10472515
39	0xbde2a505	-0.11066631
40	0x3e087d29	0.13328995
41	0x3da64db2	0.08120288
42	0xbe072ce0	-0.13200712
43	0xbc9da733	-0.019244766
44	0x3d5b7112	0.05357463
45	0x3d082b63	0.0332445
46	0xbe6923e7	-0.22767602
47	0xbe34ae0a	-0.17644516
48	0x3d6bad01	0.057538036
49	0x3e0841ac	0.13306302
50	0xbdf0e2a2	-0.11761977
51	0xbe409a0d	-0.18808766
52	0x3e69c5a5	0.22829302
53	0x3dc23361	0.09482456
54	0x3d7964ae	0.06088703
55	0xbe487587	-0.19576083
56	0x3d2740bb	0.040833216
57	0x3bf95ecd	0.007610178
58	0x3d88e997	0.06685179
59	0x3d958e31	0.073025115
60	0x3e5fe50c	0.21864718
61	0xbec528be	-0.38507646
62	0xbd6c8196	-0.05774077
63	0xbc8e3030	-0.017356962
64	0xbc9e2410	-0.019304305
65	0xbdf4bad8	-0.119497
66	0x3a977a00	0.0011556745
67	0x3d4e2158	0.050324768
68	0x3cae08e0	0.021244466
69	0xbddf783c	-0.10911605
70	0x3dc27030	0.09494054
71	0xbce853c0	-0.028360248
72	0x3dd13774	0.10215655
73	0xbd9d0df2	-0.076686755
74	0xbb27a380	-0.0025579631
75	0xbd981428	-0.074257195
76	0xbcaf6d88	-0.021414533
77	0x3d9e8b04	0.07741359
78	0x3d550ed4	0.052016094
79	0xbd9161b8	-0.070987165
80	0x3c46c190	0.01213111
81	0xbc896728	-0.016772822
82	0xbd457e30	-0.048216045
83	0x3d230558	0.039800018
84	0xbd954da8	-0.072902024
85	0x3d7dd03c	0.061966166
86	0xbd01aa00	-0.031656265
87	0xbc824108	-0.01590015
88	0x3d1649d0	0.036691487
89	0xbdd4066c	-0.103527874
90	0xbdb084b0	-0.08619058
91	0x3de5e69e	0.11225627
92	0xbdc6c4fe	-0.09705542
93	0x3dba56d4	0.090985924
94	0xbdca839a	-0.09888382
95	0x3c40aa40	0.011759341
96	0x3b5d9740	0.0033812076
97	0x3d8c07de	0.06837438
98	0xbdfb9704	-0.12284663
99	0x3dddc3ee	0.10828386
100	0xbce463b0	-0.027879566
101	0xbbd0e940	-0.006375462
102	0xbd225e28	-0.039640576
103	0x3bf75020	0.0075473934
104	0xbd627034	-0.055282786
105	0xbc9b6560	-0.018969238
106	0xbd9e47c4	-0.07728532
107	0x3ce4f608	0.027949348
108	0xbd938d80	-0.07204723
109	0xbdcd53ea	-0.10025771
110	0x3d846428	0.06464416
111	0xbde2dc2e	-0.11077152
112	0xbab95480	-0.0014139563
113	0xbdf2afcc	-0.11849937
114	0x3cb15338	0.021646127
115	0x3d73b948	0.05950287
116	0xbdbaa292	-0.09113039
117	0xbd861cec	-0.06548485
118	0xbde3ec2e	-0.11129032
119	0xbde07f6e	-0.10961805
120	0xbde90146	-0.11377196
121	0x3dca2342	0.09870006
122	0xbd8065fa	-0.062694505
123	0x3d245448	0.04011944
124	0x3d4ae324	0.049533024
125	0xbca026c8	-0.019549742
126	0x3c4b6630	0.0124145
127	0x3dbc86b2	0.092053786
128	0x3e33772b	0.17525928
129	0xbdf7745b	-0.1208274
130	0x3d194552	0.037419625
131	0xbe78639e	-0.24256751
132	0x3ddd75c1	0.108134754
133	0x3e3a265e	0.18178698
134	0x3e39717a	0.18109694
135	0x3d1f1d35	0.038846213
136	0x3dc92a15	0.0982248
137	0xbdc2cc20	-0.0951159
138	0xbe1e1735	-0.1543854
139	0x3df4386f	0.11924826
140	0x3dd7f39b	0.10544511
141	0x3e3da4a1	0.18519832
142	0x3cae7f90	0.02130106
143	0xbd7ab0b0	-0.06120366
144	0x3cbfc4a1	0.02340919
145	0xbdfc4791	-0.12318338
146	0xbd2ae13e	-0.041718714
147	0x3e8f6938	0.28009963
148	0x3e58ae2a	0.21160188
149	0x3dfa3bc9	0.12218434
150	0x3e89eb38	0.2693727
151	0xbc927bb1	-0.017881246
152	0x3d9099d2	0.07060589
153	0xbd96e1e2	-0.073673025
154	0x3bafe035	0.0053673037
155	0x3e5a1fed	0.21301241
156	0x3dd3bc40	0.1033864
157	0xbe3067b6	-0.17227063
158	0xbdf85ab0	-0.12126672
159	0x3e0e2ae6	0.13883552
160	0xbc952b97	-0.018209262
161	0x3cddf3c9	0.027093785
162	0xbd3f4c16	-0.04670342
163	0xbe1b7af8	-0.15183628
164	0x3e5985a3	0.21242385
165	0xbe0d73ba	-0.13813677
166	0xbdf851fb	-0.121250115
167	0xbc668863	-0.014070603
168	0x3c842263	0.016129678
169	0x3d49c67c	0.049261555
170	0xbcf0d786	-0.029399645
171	0x3e239934	0.15976411
172	0x3d2a1a06	0.041528724
173	0xbc26e403	-0.010186198
174	0xbc76f900	-0.015074015
175	0xbe435135	-0.19073947
176	0x3e17769a	0.14791337
177	0x3e0a5298	0.1350807
178	0x3dfcbf32	0.12341155
179	0xbe34820d	-0.17627735
180	0x3e5adce2	0.21373323
181	0x3d838006	0.06420903
182	0x3e783da3	0.24242263
183	0xbe0cc98c	-0.13748759
184	0x3e489a67	0.1959015
185	0x3db17b50	0.08666098
186	0x3d6669e4	0.05625333
187	0x3dc0e695	0.0941898
188	0x3e6ed342	0.23322776
189	0xbcc6c721	-0.024264874
190	0x3deec32f	0.11658322
191	0xbdd240ef	-0.10266291
192	0x3c78f08e	0.015194071
193	0xbe5c3890	-0.21505952
194	0x3cf89ac0	0.030347228
195	0xbe359ed2	-0.17736366
196	0x3c5d4766	0.013505792
197	0x3e470f9a	0.19439545
198	0x3d3c2535	0.04593392
199	0x3c94d07c	0.01816582
200	0x3dd19689	0.102337904
201	0xbe6845a2	-0.22682813
202	0x3c572672	0.013131725
203	0x3e2dcbee	0.16972324
204	0x3d8cc63c	0.06873748
205	0x3dae4509	0.08509261
206	0x3d1f685b	0.03891788
207	0x3e26784c	0.16256827
208	0xbed27a6e	-0.4110903
209	0xbd51e979	-0.051248048
210	0xbe52832d	-0.20557852
211	0x3df34e26	0.1188014
212	0x3e010684	0.12600142
213	0xbda62501	-0.08112527
214	0x3d5a9ad8	0.053370327
215	0xbd991f30	-0.07476652
216	0x3e7e1f16	0.24816546
217	0xbe0f777f	-0.14010428
218	0x3e321e4a	0.17394367
219	0x3d5b1e12	0.053495474
220	0x3d2885e2	0.041143306
221	0x3b6c509a	0.0036058784
222	0xbe586931	-0.21133877
223	0x3cfd9924	0.030956812
224	0xbe498050	-0.19677854
225	0x3e2c09f3	0.1680067
226	0x3e0a1dff	0.13488005
227	0x3c7713e8	0.01508043
228	0x3dfc7299	0.12326545
229	0xbecd8865	-0.40143123
230	0xbd0daadc	-0.034586772
231	0xbe0b47a8	-0.13601553
232	0x3e5503db	0.20802252
233	0x3e15c7c8	0.14626992
234	0xbe37990f	-0.17929481
235	0xbb04ceb8	-0.0020264816
236	0xbd2919cf	-0.04128438
237	0x3daa6a4e	0.08321057
238	0xbec5b064	-0.38611138
239	0xbe1cb562	-0.15303567
240	0x3e0bd63d	0.13655944
241	0x3e56d6b1	0.20980336
242	0xbe1af4ad	-0.15132399
243	0xbe8d7d64	-0.27634728
244	0x3d9c5d56	0.0763499
245	0x3d98b2a9	0.07455952
246	0x3e372f45	0.17889126
247	0xbe0eaae8	-0.13932383
248	0x3cb370e5	0.021904418
249	0x3e4565a5	0.19277056
250	0x3e2c0539	0.16798867
251	0x3de0cb6c	0.109763
252	0x3e5c7edb	0.21532767
253	0xbe40d874	-0.1883257
254	0x3dfe6227	0.12421065
255	0xbd81834e	-0.063238725

model.2.bias f4 [64]
0	0x3dff8214	0.12475982
1	0xbd8c2a30	-0.06843984
2	0x3e8813e7	0.26577684
3	0x3dba7a60	0.091053724
4	0xbdcd1342	-0.10013439
5	0x3dba1a62	0.09087063
6	0x3d827811	0.06370557
7	0x3d7efce5	0.062252898
8	0xbd5cfaad	-0.05395
9	0xbc7aa030	-0.015296981
10	0x3cdd6c3b	0.027029147
11	0x3e1e3200	0.15448761
12	0x3c581034	0.013187457
13	0x3d3d6646	0.046240114
14	0x3e2633bb	0.16230671
15	0x3ca05431	0.019571396
16	0x3dbae6fc	0.09126088
17	0x3e16a605	0.14711769
18	0x3d3a80cb	0.045532983
19	0x3da137ba	0.07871957
20	0x3e3bef89	0.18353094
21	0x3d62dccf	0.05538636
22	0x3ddfc0ae	0.109254226
23	0x3e1a85d9	0.15090121
24	0x3d2b1c8f	0.041775282
25	0x3cc7b533	0.024378395
26	0x3daea104	0.08526805
27	0x3e4daff9	0.2008666
28	0x3dc7d025	0.09756497
29	0xbde5cd58	-0.11220807
30	0xbc177a21	-0.009245426
31	0xbd158b5f	-0.036509868
32	0x3c60de85	0.013724928
33	0x3d1214b6	0.035664283
34	0x3c83f525	0.016108105
35	0xbda80bb9	-0.08205361
36	0x3d267217	0.04063615
37	0x3de7e194	0.113223225
38	0x3cf053ae	0.029336777
39	0xbd697521	-0.05699647
40	0xbcc4ee92	-0.02403954
41	0x3dcd85e7	0.100353055
42	0x3e253633	0.16133957
43	0x3deeb5aa	0.116557434
44	0xbd41dae7	-0.047327902
45	0x3cb88e80	0.022528887
46	0x3cfdacb7	0.030966146
47	0x3db6edb5	0.08932058
48	0xbd79f6fe	-0.061026566
49	0x3dac6935	0.08418504
50	0x3d7da1ad	0.061921764
51	0xbc4ef378	-0.01263129
52	0x3da9da2c	0.08293566
53	0x3d36c10a	0.04461769
54	0x3e2204b9	0.15822114
55	0x3e202971	0.15640809
56	0xbccee7f9	-0.025257098
57	0xbc8dc592	-0.017306123
58	0xbe0fe28d	-0.14051266
59	0x3cee65a7	0.029101206
60	0xbdeb2210	-0.11481106
61	0xbd4324c5	-0.047642488
62	0x3e2e84ef	0.17042898
63	0x3e274573	0.16335087

model.4.weight f4 [3, 64]
0	0xbe00c1c1	-0.12573911
1	0x3d581918	0.052758306
2	0xbe8e5dea	-0.27806026
3	0xbe9d5a39	-0.30732897
4	0xbce92b4f	-0.028463034
5	0xbd36d397	-0.04463538
6	0xbd9e9abb	-0.07744356
7	0x3bee6daa	0.0072762566
8	0xbded6c9b	-0.115929805
9	0x3b703ec0	0.0036658496
10	0x3e536454	0.20643741
11	0xbe891759	-0.26775625
12	0xbd2d9c50	-0.0423854
13	0xbd289f65	-0.041167635
14	0xbe316c23	-0.17326407
15	0x3dc496e3	0.09599092
16	0x3db1a4a9	0.086739846
17	0x3bdc0207	0.006714109
18	0xbe8eac24	-0.27865708
19	0x3d4f3b0b	0.050593417
20	0xbddcfa65	-0.107899465
21	0xbe12496a	-0.14285818
22	0x3d66a2cb	0.056307595
23	0xbe51e571	-0.20497681
24	0xbdabbffc	-0.083862275
25	0x3c8a8b79	0.016912209
26	0xbe695f66	-0.22790298
27	0xbeb75feb	-0.35815367
28	0xbec10d99	-0.37705687
29	0x3a57bca8	0.0008229711
30	0x3e0bcbd7	0.13651977
31	0xbe6baae1	-0.23014404
32	0x3dc25b7c	0.094901055
33	0xbe77c660	-0.24196768
34	0x3ddf01b8	0.10889
35	0xbd802495	-0.062569775
36	0xbee6da23	-0.450883
37	0xbe42d88a	-0.19027916
38	0x3d935e61	0.07195736
39	0xbbe40811	-0.0069589694
40	0x3de6d9ca	0.11272009
41	0xbb9f69a6	-0.004864889
42	0xbdb8a6b3	-0.0901617
43	0x3e0a8faa	0.13531366
44	0xbe1cba1b	-0.15305369
45	0xbe4dbc6c	-0.20091408
46	0xbee92674	-0.4553715
47	0xbdb847f6	-0.089981005
48	0x3dc9fcba	0.09862657
49	0xbea880af	-0.32910678
50	0xbeaf3d5e	-0.34226507
51	0xbce1fe48	-0.027587071
52	0xbdede3de	-0.11615728
53	0xbe9a58ce	-0.30145878
54	0xbe9d5476	-0.307285
55	0xbea415d2	-0.32047898
56	0x3d66df4c	0.056365296
57	0x3e49983d	0.1968698
58	0x3e4c2552	0.19936112
59	0x3e1f04c5	0.15529163
60	0x3de82ea9	0.11337025
61	0x3c9f269c	0.01942759
62	0x3db1cc08	0.08681494
63	0x3e0824d1	0.13295294
64	0x3e956dbd	0.29185286
65	0x3d2ea4ac	0.042637512
66	0x3e374a9f	0.1789956
67	0x3e751beb	0.23936431
68	0x3d15c942	0.036568888
69	0x3db8550d	0.09000597
70	0xbe8f17dc	-0.2794789
71	0xbda68b94	-0.08132091
72	0xbe6f5143	-0.23370843
73	0xbba30560	-0.004975006
74	0xbe5b5462	-0.21418908
75	0x3dfa0f6b	0.12209972
76	0x3ca94dd1	0.020666989
77	0xbed68f2a	-0.419061
78	0x3b9e1982	0.004824818
79	0x3dd4e854	0.103958756
80	0x3d901f10	0.07037175
81	0xbe113f84	-0.14184386
82	0x3e055cf4	0.1302374
83	0x3c6dd384	0.014515761
84	0xbd319016	-0.0433503
85	0xbe7b711c	-0.24554867
86	0xbe829c5b	-0.25509915
87	0xbdbe2ee8	-0.092862904
88	0xbd677496	-0.05650767
89	0x3cdad5fd	0.026713366
90	0xbdc23fc2	-0.09484817
91	0x3e506cfa	0.20354071
92	0x3d1c7ef1	0.038207
93	0x3dc24b2a	0.09486993
94	0xbea57649	-0.32316807
95	0xbc63905a	-0.013889397
96	0x3e7b0e1a	0.24517098
97	0x3dbdba4b	0.09264048
98	0xbeac83df	-0.3369436
99	0xbed598a5	-0.4171802
100	0x3e4227c3	0.1896048
101	0xbd124a37	-0.035715308
102	0xbe2994dc	-0.16560692
103	0x3e70fb4a	0.23533359
104	0xbedd47a7	-0.4321873
105	0xbe45d2dc	-0.19318718
106	0xbe964ecc	-0.29356992
107	0xbecb4586	-0.3970148
108	0x3e9bd685	0.30437103
109	0xbe07c8bc	-0.13260168
110	0x3e4af090	0.1981833
111	0xbe3e7be9	-0.18601955
112	0xbd853927	-0.065050416
113	0xbdca2b8e	-0.09871589
114	0x3e82f4cf	0.255774
115	0x3e93d9a9	0.28877
116	0x3b996444	0.004681142
117	0xbe179641	-0.14803411
118	0x3e051fbf	0.13000391
119	0x3e034dcd	0.12822647
120	0xbd94e053	-0.07269349
121	0xbea3d01a	-0.31994706
122	0xbc93675e	-0.017993625
123	0xbe8b3897	-0.27191612
124	0xbdd9b34e	-0.10629903
125	0x3e9e7f24	0.30956376
126	0xbdfde0fd	-0.12396429
127	0xbe82f7eb	-0.2557977
128	0xbe38ef9a	-0.1806015
129	0x3d85f8a6	0.065415666
130	0x3da4115e	0.08011125
131	0xbd713a16	-0.058893286
132	0xbd1854b5	-0.037190158
133	0x3c01fb20	0.007933408
134	0x3db90297	0.09033697
135	0xbd94b90d	-0.07261858
136	0x3e5db669	0.21651615
137	0xbd3ccc8c	-0.04609351
138	0xbe4f84c4	-0.2026549
139	0x3e1d1c31	0.15342785
140	0xbdbd8854	-0.09254518
141	0xbcc9bdef	-0.0246267
142	0x3d9a8adb	0.07546016
143	0x3d3b3c26	0.04571166
144	0xbde83868	-0.11338884
145	0x3e28374f	0.16427349
146	0xbdd1fe66	-0.10253601
147	0xbd432875	-0.047646005
148	0x3db99fba	0.090636685
149	0x3ea937c6	0.33050364
150	0x3e4ab38e	0.19795057
151	0x3d5ff884	0.054680362
152	0x3e2cca72	0.16874102
153	0xbdb5a696	-0.08869664
154	0x3ce41f28	0.027846888
155	0xbd79f6d0	-0.061026394
156	0x3d89c0a4	0.067261964
157	0xbdfd5e1b	-0.12371465
158	0xbd82c68d	-0.06385527
159	0x3e6a895b	0.2290396
160	0xbe6c7dc8	-0.23094857
161	0x3e16087a	0.14651671
162	0x3e0bce01	0.13652803
163	0x3eda12a7	0.42592356
164	0xbd852f89	-0.06503207
165	0x3e62e16d	0.22156306
166	0xbda5a35d	-0.080878
167	0xbd08bb4b	-0.03338174
168	0x3da45071	0.080231555
169	0x3e4107ba	0.18850604
170	0x3e28fabb	0.16501896
171	0x3c2f93ea	0.010716418
172	0xbe82b717	-0.2553031
173	0x3e364b88	0.1780225
174	0xbdfafd02	-0.12255289
175	0x3d127dca	0.035764493
176	0xbdb80269	-0.08984835
177	0x3e7a74a1	0.24458553
178	0xbdf1c3fb	-0.118049584
179	0xbeb46b5f	-0.35238168
180	0x3e33c7ce	0.17556688
181	0x3e5f008d	0.21777554
182	0xbd4ac8bf	-0.049507853
183	0xbc99fc59	-0.018797087
184	0xbd8f9af2	-0.07011975
185	0xbde050ae	-0.109528884
186	0xbd8430a9	-0.06454594
187	0xbe5e7568	-0.21724474
188	0xbd6c33f1	-0.057666723
189	0xbe0e2774	-0.13882238
190	0x3e5c6374	0.21522313
191	0x3e2910f9	0.16510381

model.4.bias f4 [3]
0	0x3c49b775	0.012311806
1	0x3d08f9bf	0.0334413
2	0x3d92b666	0.07163696
