results/emotion_model_mlp.pth (torch, 4192 bytes, 4 tensors)

fc1.weight f4 [64, 4]
0	0x3f1c297f	0.6100082
1	0xbf48bb22	-0.7841054
2	0xbe1d134d	-0.15339394
3	0xbcb726cb	-0.022357365
4	0xbf59baaa	-0.8505045
5	0x3d3f11d5	0.046647865
6	0xbdbd4bf8	-0.092430055
7	0x3e285fcc	0.16442794
8	0x3d9a501e	0.075348124
9	0x3f3af961	0.7303677
10	0xbcfef8c3	-0.031124478
11	0xbea456d3	-0.32097492
12	0x3f12bc70	0.5731878
13	0xbf00b26f	-0.5027227
14	0xbdc04a4c	-0.09389171
15	0x3d3cecc3	0.04612423
16	0xbe229bb2	-0.15879706
17	0x3ed31afd	0.41231528
18	0xbe0ae81f	-0.1356511
19	0x3e676e5d	0.22600694
20	0x3f4701e5	0.77737266
21	0xbf4a94b2	-0.7913314
22	0xbe584de6	-0.21123466
23	0xbbc72b19	-0.0060781357
24	0x3f3ccad6	0.73747003
25	0xbf78fa7b	-0.972572
26	0xbe44c57a	-0.19215956
27	0xbcae06fe	-0.021243569
28	0x3ecb034a	0.39650947
29	0xbf111451	-0.56671625
30	0x3eb60803	0.35552987
31	0xbe19336c	-0.14961022
32	0xbeb72094	-0.35767043
33	0x3f0a9506	0.5413364
34	0x3e8843a6	0.26614112
35	0x3cdc65bc	0.02690398
36	0xbefc3c13	-0.49264583
37	0x3f28cb39	0.65935093
38	0xbe716c4b	-0.23576467
39	0xbe9fca4a	-0.31209022
40	0xbe1caa89	-0.15299429
41	0x3e119f82	0.14221004
42	0x3f3675ab	0.712733
43	0x3f3f5867	0.74744266
44	0xbce0ffd6	-0.027465742
45	0xbe9c90d2	-0.3057924
46	0xbe066b26	-0.13126811
47	0xbf06a22d	-0.5259121
48	0x3edee155	0.4353129
49	0x3f312a11	0.69204813
50	0xbe0a248e	-0.13490507
51	0xbf5b4a49	-0.85660225
52	0x3e8634eb	0.26212248
53	0x3ea52ca7	0.3226063
54	0xbf206a97	-0.62662643
55	0x3ee2243e	0.44168276
56	0x3e687949	0.22702517
57	0xbef9109d	-0.48645487
58	0xbef61be1	-0.48068145
59	0xbc9f8540	-0.019472718
60	0xbe80060e	-0.2500462
61	0x3e890d2f	0.2676787
62	0xbed917f8	-0.424011
63	0x3ed9febf	0.42577168
64	0xbe1da9f7	-0.15396868
65	0xbf9916b2	-1.1960051
66	0x3ee71943	0.4513646
67	0x3ef7d190	0.4840207
68	0x3dde764c	0.10862407
69	0x3f592ab4	0.84830785
70	0x3f259196	0.6467527
71	0xbd92e2d1	-0.07172168
72	0x3f125f12	0.57176316
73	0x3e780719	0.24221458
74	0xbeea3427	-0.45742914
75	0x3e9a055c	0.30082214
76	0x3ec379e8	0.38178945
77	0x3f45ee28	0.7731652
78	0xbe6fe02a	-0.23425356
79	0x3eec4af5	0.46150938
80	0xbf6216ab	-0.8831584
81	0x3f09972e	0.53746307
82	0xbcb7c888	-0.022434488
83	0xbd15f502	-0.03661061
84	0xbf25b9f9	-0.64736897
85	0xbdeecff8	-0.11660761
86	0xbc471f71	-0.012153492
87	0xbdd72108	-0.10504347
88	0x3f1c992a	0.6117121
89	0xbf32e14f	-0.69875044
90	0xbdf12f56	-0.11776607
91	0xbc832236	-0.016007524
92	0xbe9f9ede	-0.31175894
93	0x3d1ee7a8	0.038795143
94	0x3d84b88d	0.06480513
95	0xbebea85a	-0.37237817
96	0xbf22ff06	-0.63670385
97	0x3cc7ee38	0.024405584
98	0xbf23d60c	-0.63998485
99	0x3e8712e1	0.2638159
100	0xbf24e168	-0.6440644
101	0x3e9de338	0.30837417
102	0xbedd78a8	-0.43256116
103	0x3f6f5021	0.9348164
104	0x3eea01c2	0.45704466
105	0x3e6bded7	0.23034225
106	0xbeab2e1a	-0.3343361
107	0x3e3cfe30	0.1845634
108	0xbeaac5c1	-0.33354
109	0xbdebb453	-0.115090035
110	0xbe289dac	-0.16466397
111	0xbe07e66e	-0.13271496
112	0x3e336315	0.17518266
113	0x3e3a8f5c	0.1821875
114	0xbedab9cd	-0.4271988
115	0xbefa4f0c	-0.48888433
116	0xbe96aa19	-0.2942665
117	0xbf452736	-0.77012956
118	0x3efd9c15	0.49533144
119	0x3e6f8312	0.23389843
120	0xbee9582d	-0.45575085
121	0xbe0f2aa0	-0.13981104
122	0xbeb234ee	-0.34806007
123	0xbed9a2ba	-0.42506963
124	0xbf367c34	-0.7128327
125	0xbf3e1da4	-0.7426398
126	0xbea2826b	-0.31740126
127	0x3e12b687	0.14327441
128	0xbdc3f354	-0.095678955
129	0xbeab56f0	-0.33464766
130	0xbf42b06d	-0.76050454
131	0xbe5fff53	-0.21874742
132	0xbf72a7b8	-0.9478717
133	0xbb5b9289	-0.003350409
134	0xbed93d12	-0.42429405
135	0x3e033faa	0.12817255
136	0xbe8fcce1	-0.28085998
137	0x3f466ad2	0.77506745
138	0x3ec4f991	0.38471654
139	0x3e9ba5bb	0.3039988
140	0xbdd143ea	-0.10218032
141	0xbefa9784	-0.48943722
142	0x3f1233ef	0.57110494
143	0xbeae7a80	-0.34077835
144	0xbeea82bf	-0.45802876
145	0x3e85229f	0.26002976
146	0xbee3da31	-0.44502404
147	0x3f3a9db2	0.72896874
148	0x3e156994	0.14591056
149	0x3f891d37	1.0712041
150	0x3f1c2597	0.6099486
151	0xbdb52940	-0.088457584
152	0x3f067522	0.5252248
153	0xbed6b347	-0.41933653
154	0xbd9ac7eb	-0.075576626
155	0xbd8c4a5f	-0.06850123
156	0xbf563cac	-0.8368633
157	0x3e86123f	0.26185796
158	0xbdcfbc9f	-0.101433985
159	0xbc5acfad	-0.013355178
160	0x3eb4b9fa	0.3529814
161	0xbf691b58	-0.9105735
162	0x3c450ab2	0.012026476
163	0x3e03e5a2	0.12880567
164	0x3e0ffe81	0.1406193
165	0x3c9a5504	0.018839367
166	0xbf1d5ac4	-0.6146662
167	0xbe0543d2	-0.13014153
168	0x3f6cf1d5	0.92556506
169	0x3f087c4d	0.5331467
170	0x3ed58ef9	0.41710642
171	0x3ef2e17a	0.4743765
172	0x3d9c27c1	0.0762477
173	0xbe9b660a	-0.30351287
174	0xbf1e6bde	-0.6188334
175	0xbde87c63	-0.1135185
176	0xbd5a89fe	-0.053354256
177	0xbe90bdc2	-0.28269774
178	0xbf3db791	-0.74108225
179	0xbc528001	-0.012847901
180	0x3ecdc5b8	0.4018991
181	0xbf3fc5b2	-0.74911034
182	0xbe3ce4ad	-0.18446608
183	0xbcb0a5f9	-0.021563517
184	0x3d092bfd	0.033489216
185	0x3f2da47f	0.67829126
186	0x3ea592a2	0.32338434
187	0xbc8a5d36	-0.01689015
188	0xbe33ad35	-0.17546542
189	0xbf810688	-1.0080118
190	0x3d1159e0	0.035486102
191	0x3d7396c6	0.05946996
192	0xbeb72add	-0.3577489
193	0xbe8fae16	-0.28062505
194	0x3d62fa12	0.055414267
195	0xbf22e053	-0.6362354
196	0x3f424e46	0.75900686
197	0xbdbb8525	-0.09156255
198	0xbdeacf78	-0.11465353
199	0xbed24893	-0.41070995
200	0x3dd8939b	0.105750285
201	0xbefccd3c	-0.4937533
202	0xbf4204f5	-0.75788814
203	0x3995203e	0.00028443517
204	0xbea02549	-0.31278446
205	0xbea437f8	-0.3207395
206	0x3ed0724b	0.407122
207	0xbf3ad078	-0.7297435
208	0x3e9fccf1	0.31211045
209	0x3f2e1dba	0.6801411
210	0xbe6be3f4	-0.23036176
211	0xbecb63f8	-0.39724708
212	0xbe0663d7	-0.13124023
213	0x3e7c1e76	0.24620995
214	0xbe936632	-0.28788906
215	0xbe4c3706	-0.19942865
216	0x3f1593a1	0.5842839
217	0x3f184ebf	0.59495157
218	0xbe87e5a9	-0.26542404
219	0x3e43b8d1	0.1911347
220	0x3d342e79	0.043989632
221	0x3f266ea0	0.6501255
222	0x3ec44655	0.3833491
223	0xbe1301f6	-0.14356217
224	0xbf496e0e	-0.78683555
225	0x3e0454ce	0.12922975
226	0xbd486621	-0.048925523
227	0x3e283b7d	0.16428943
228	0x3d7b534d	0.06135874
229	0x3f7daa08	0.9908757
230	0x3ecbafe1	0.39782622
231	0xbc747d2a	-0.01492242
232	0xbdf1bef6	-0.11804001
233	0xbe4e01b1	-0.20117833
234	0xbe73791f	-0.23776673
235	0x3ef276b6	0.47356194
236	0x3e838d70	0.25693846
237	0x3f67db9f	0.9056949
238	0x3ea92d68	0.33042455
239	0xbe1e10fe	-0.1543617
240	0x3ca259ab	0.019818148
241	0xbf3a26a8	-0.72715235
242	0x3eef574c	0.4674629
243	0x3e6144b7	0.21998869
244	0xbf54c43c	-0.8311193
245	0x3f09e1d7	0.5386023
246	0x3cd81a59	0.026379751
247	0xbde0ea2d	-0.109821655
248	0xbf448351	-0.7676287
249	0x3e1e94c2	0.15486434
250	0xbe0af62c	-0.1357047
251	0x3dbff791	0.093733914
252	0xbdc40649	-0.09571511
253	0xbee06e81	-0.43834308
254	0xbee7ae03	-0.45249948
255	0xbb833fa1	-0.004005388

fc1.bias f4 [64]
0	0x3f26ee05	0.6520694
1	0xbe5af6ee	-0.21383259
2	0x3f073d65	0.52828056
3	0x3efde9bd	0.4959239
4	0x3f18fd03	0.59761065
5	0x3f40f6d6	0.7537664
6	0x3f4d3e2d	0.80173
7	0x3eec73f8	0.46182227
8	0x3f28bf74	0.65917134
9	0x3ee02936	0.4378144
10	0xbdcba82d	-0.09944186
11	0x3ebb6354	0.3659922
12	0xbe512b17	-0.20426594
13	0x3f05ef3f	0.52318186
14	0xbe88d058	-0.26721454
15	0x3ecb7fdb	0.39745983
16	0xbe7602e0	-0.24024534
17	0x3eb6bba1	0.35690024
18	0x3e0ac7bd	0.13552757
19	0x3ef05ca9	0.46945694
20	0xbf347a6b	-0.70499295
21	0x3ed143fe	0.40872186
22	0x3f1db379	0.6160198
23	0x3f442812	0.7662364
24	0xbe54ed3b	-0.20793621
25	0xbe128f55	-0.1431249
26	0xbe96bc90	-0.29440737
27	0x3f00c8c8	0.5030637
28	0xbe8fa94f	-0.2805886
29	0xbe7f5c92	-0.24937657
30	0xbf021f7e	-0.50829303
31	0x3ebd418e	0.36964077
32	0x3f18f873	0.59754103
33	0xbbeba23b	-0.0071909702
34	0x3f0440b5	0.51661235
35	0xbe85c92f	-0.26130053
36	0x3dee880a	0.11647041
37	0x3f38238a	0.7192923
38	0x3eda0cca	0.42587882
39	0xbefc42fb	-0.49269852
40	0x3ebe1808	0.3712771
41	0x3f7d677f	0.9898605
42	0xbee0f8dd	-0.43939868
43	0x3f02b5d1	0.5105868
44	0x3f02f6b7	0.51157707
45	0x3f0e80c8	0.55665255
46	0x3f1b94ec	0.6077411
47	0x3d99863b	0.074963056
48	0xbeb4396b	-0.35200056
49	0x3e76fe42	0.24120429
50	0x3f04ed30	0.5192442
51	0xbf4ae2c0	-0.79252243
52	0x3de4dc71	0.11174858
53	0x3ebd2e3a	0.3694933
54	0xbe070527	-0.13185559
55	0x3eb1acec	0.3470224
56	0xbe7dd5b8	-0.24788558
57	0x3f82d9f7	1.0222768
58	0xbf1cc174	-0.61232686
59	0x3f27f913	0.6561443
60	0xbef66e64	-0.48131096
61	0xbf224687	-0.63388866
62	0xbea407cf	-0.32037207
63	0xbde30c0c	-0.11086282

fc2.weight f4 [3, 64]
0	0x3dab400c	0.08361825
1	0xbd0346f9	-0.032050107
2	0xbec89418	-0.39175487
3	0x3cf70b15	0.030156652
4	0xbea4f909	-0.3222125
5	0x3da5e299	0.08099861
6	0x3e575bf9	0.21031179
7	0x3da37ddb	0.079829894
8	0xbec8b2a5	-0.39198795
9	0xbefbed01	-0.49204257
10	0xbc91321c	-0.01772409
11	0xbc8b03a0	-0.016969502
12	0xbe6b13c0	-0.22956753
13	0xbe762967	-0.24039231
14	0xbecc738d	-0.39931908
15	0xbf0fd49a	-0.5618378
16	0x3ee2d206	0.4430086
17	0xbfa2ac08	-1.270875
18	0xbe433a7d	-0.1906528
19	0xbe8309fd	-0.25593558
20	0xbe236b4c	-0.159589
21	0xbdb855e3	-0.090007566
22	0x3e07935f	0.13239811
23	0xbe82480c	-0.25445592
24	0xbe34ba5c	-0.17649215
25	0xbf22276c	-0.63341403
26	0xbe1b9b42	-0.15195945
27	0xbd98b3be	-0.07456158
28	0xbdc1481d	-0.09437583
29	0x3e016ac3	0.12638383
30	0xbe5c0ae3	-0.21488528
31	0x3e03e0c0	0.12878704
32	0xbe557a83	-0.20847516
33	0xbd07ba9d	-0.033136953
34	0xbf108a98	-0.5646148
35	0x3e23e393	0.16004781
36	0xbf25d9d1	-0.64785486
37	0xbf5e951c	-0.8694627
38	0xbc70115d	-0.014652577
39	0x3de2cece	0.11074601
40	0x3eb90133	0.36133727
41	0xbf08da6b	-0.5345828
42	0x3d0578af	0.032585796
43	0xbf1204ee	-0.5703877
44	0xbf35860f	-0.7090768
45	0x3d5a4460	0.053287864
46	0xbf2fe9ea	-0.687163
47	0x3ed4dde2	0.41575533
48	0x3ecd87a8	0.4014256
49	0xbcd72d54	-0.026266731
50	0xbf082978	-0.53188276
51	0x3ef465fa	0.47734052
52	0xbc26e10a	-0.010185489
53	0xbe132ef6	-0.14373383
54	0xbe651b55	-0.22373708
55	0xbed288e9	-0.4112008
56	0xbd7e7908	-0.062127143
57	0xbf48c713	-0.78428763
58	0xbf3db8cb	-0.74110097
59	0xbebb3f3d	-0.36571684
60	0x3f1f59e1	0.6224652
61	0xbe89aef5	-0.26891294
62	0x3c6fff9c	0.014648344
63	0xbf2e326e	-0.680457
64	0xbf3674d2	-0.71272004
65	0xbf284c13	-0.6574108
66	0x3e78321d	0.24237867
67	0xbeede8d1	-0.46466687
68	0x3e337782	0.17526057
69	0xbf03b27e	-0.5144423
70	0xbf16ea6b	-0.58951443
71	0xbed7a35a	-0.42116815
72	0x3e978d95	0.29600206
73	0x3e544c80	0.20732307
74	0x3eb91e1c	0.36155784
75	0xbe2c2ab4	-0.16813165
76	0x3eaa75ae	0.33292907
77	0x3e40fb6e	0.18845913
78	0xbd3e15b3	-0.046407413
79	0x3da838e7	0.08213978
80	0xbefc716d	-0.49305287
81	0x3ee5b537	0.44864818
82	0x3dc58bc2	0.09645797
83	0x3e8764bd	0.26444045
84	0xbf5f0a2b	-0.8712489
85	0xbe712ef2	-0.23553064
86	0xbf38d44b	-0.72198933
87	0x3c9b9f3e	0.018996831
88	0xbef63955	-0.48090616
89	0xbde84488	-0.11341196
90	0x3ea87088	0.32898355
91	0xbd9bda1a	-0.07609959
92	0x3edd7c89	0.43259075
93	0xbe9db010	-0.30798388
94	0xbdb3e842	-0.08784534
95	0xbebcbda5	-0.36863437
96	0xbdb392c3	-0.08768227
97	0xbeaf4bc4	-0.34237492
98	0x3e5523fb	0.20814507
99	0x3c54aed4	0.012981135
100	0x3dce3e00	0.10070419
101	0x3e8601c7	0.2617323
102	0xbf30db98	-0.69085073
103	0xbf6dcfce	-0.9289521
104	0xbefab7b1	-0.4896827
105	0x3d737ee7	0.059447195
106	0x3edbffed	0.42968693
107	0xbcc23dc0	-0.023711085
108	0x3df7e58b	0.12104329
109	0xbed257b6	-0.41082543
110	0x3e8c547b	0.27408203
111	0xbf6f2f12	-0.934312
112	0xbe0eb7b8	-0.1393727
113	0xbddb60f1	-0.107118495
114	0xbe270a7d	-0.16312595
115	0x3e30aca5	0.17253359
116	0x3e65a4de	0.22426173
117	0x3d80ba18	0.062854946
118	0x3ec5e20d	0.38649026
119	0x3dbd392c	0.0923942
120	0xbf1e307b	-0.61792725
121	0x3e78f92b	0.243138
122	0xbf0edd01	-0.55805975
123	0x3ead881c	0.33892906
124	0xbe83972e	-0.25701278
125	0xbf20ff6f	-0.6288976
126	0xbf17b6cb	-0.59263295
127	0x3da43416	0.08017747
128	0x3ee45f31	0.44603875
129	0x3e882ad1	0.26595166
130	0xbdd0fd46	-0.10204558
131	0x3eaa4345	0.33254448
132	0x3e2f372a	0.17110887
133	0x3eec555f	0.46158883
134	0x3ee233af	0.44180056
135	0x3dc7b535	0.097513594
136	0x3db3e213	0.087833546
137	0x3e3df3e3	0.18550067
138	0xbe8d73b2	-0.2762733
139	0x3e86d807	0.2633669
140	0xbea3dcc7	-0.32004377
141	0xbdb76e98	-0.08956641
142	0x3e2056f9	0.15658177
143	0x3d790514	0.06079586
144	0xbdc3a07f	-0.095520966
145	0xbd5aac27	-0.053386834
146	0x3d18d682	0.037313946
147	0xbe30a5c9	-0.17250742
148	0x3f7b5ed4	0.9819157
149	0x3e255df7	0.16149126
150	0x3eb37673	0.35051307
151	0x3e028146	0.12744626
152	0x3ede3b96	0.43404835
153	0x3e5db8be	0.21652505
154	0xbea168ff	-0.31525418
155	0x3e34ae84	0.17644697
156	0xbef2ef4a	-0.47448188
157	0xbe3f66fd	-0.1869163
158	0x3e6d5514	0.23176986
159	0x3d1f790f	0.03893381
160	0x3e273485	0.16328628
161	0x3ee32e66	0.44371337
162	0x3d48da0b	0.049036067
163	0xbe53d6c3	-0.20687394
164	0x3e316ce0	0.17326689
165	0x3ca05fe9	0.019576984
166	0x3ec5b5e7	0.38615343
167	0x3eef41c0	0.4672985
168	0x3d9d98ba	0.07695146
169	0x3e2bbc4a	0.16771045
170	0xbebd1e40	-0.3693714
171	0x3e3220c5	0.17395313
172	0x3e4f37e1	0.2023616
173	0x3e3375c8	0.17525399
174	0xbd32773d	-0.043570746
175	0xbe01572d	-0.12630911
176	0xbe8b9454	-0.27261603
177	0x3e31c091	0.17358615
178	0x3ee9bf7b	0.456539
179	0xbede43e9	-0.43411186
180	0xbd156a18	-0.036478132
181	0xbc2ca879	-0.010538214
182	0xbe0dab47	-0.13834868
183	0x3dc677e7	0.09690838
184	0x3ee353a0	0.44399738
185	0x3d8fa091	0.070130475
186	0x3f4b57a3	0.794306
187	0xbdadbbd0	-0.08483088
188	0xbef69ac3	-0.4816495
189	0x3f28c3e8	0.6592393
190	0x3f0a4bf1	0.5402213
191	0x3e5e47e5	0.21707113

fc2.bias f4 [3]
0	0xbe60923d	-0.21930785
1	0xbdde5792	-0.108565465
2	0x3e0f3ace	0.13987276
