results/emotion_model_lstm.pth (torch, 471570 bytes, 10 tensors)

lstm1.weight_ih_l0 f4 [512, 1]
000000 4c 5c b3 bd 35 d6 69 be 8b 57 48 be ac 1b 9c 3d
       -0.087578386 -0.2283562 -0.19564645 0.076224655
000010 df 62 99 3e 6a ba 0f 3d 36 5e 5a 3e c0 39 17 3e
       0.29958245 0.035089888 0.21325001 0.14768124
000020 51 d8 15 be ba 81 ad 3e e8 1b 9b be 83 8a 03 be
       -0.146333 0.33888036 -0.30294728 -0.12845807
000030 05 5d b0 bd 6c 0c 2b 3e e9 1f d9 3d d3 8d a3 bd
       -0.08611492 0.16703957 0.106017895 -0.07986035
000040 f2 5d 99 bd 78 e7 34 3d f0 21 4f 3d 70 cc ae 3d
       -0.07488622 0.04416606 0.050569475 0.08535087
000050 4a b3 fc 3c 71 67 d6 be 42 11 24 3c 80 bf 21 bd
       0.03084721 -0.41875795 0.01001388 -0.03948927
000060 92 4f b0 bd 58 15 3b 3d 7f 30 26 bb 73 27 22 be
       -0.08608927 0.04567465 -0.0025358496 -0.15835361
000070 26 06 87 3d 4c 58 12 be e1 f9 9c ba f7 c1 29 be
       0.065929696 -0.14291495 -0.0011976325 -0.16577898
000080 f7 ce e5 be 3d 0b be be 44 51 89 3a c7 0a 4d bd
       -0.44884464 -0.3711795 0.001047649 -0.050059106
000090 7c 1e f5 3d 3a 2d 3f bc 38 bd 1c bd cd 87 27 bd
       0.11968705 -0.011668498 -0.03826639 -0.040900994
0000a0 b4 f2 a9 bd af 60 bd bd 0b 04 7a bd 0c ba 7b be
       -0.08298245 -0.092469566 -0.061039012 -0.2458269
0000b0 6c fa d5 bd 44 19 84 be aa d9 79 3e 6c b4 39 be
       -0.10448155 -0.25800526 0.24399439 -0.18135232
0000c0 15 d0 aa 3d 9d fa 7e bd dd 42 94 be c1 91 55 3b
       0.0834047 -0.062250722 -0.28957263 0.0032588097
0000d0 5e 0a 1b 3b 51 11 37 3e 9f 6e 97 3e 1f 60 ff 3d
       0.0023657302 0.178777 0.29576585 0.124695055
0000e0 9e 33 d8 3d fa 7f 84 ba 64 b2 a1 be 8b fc d0 bd
       0.1055672 -0.0010108941 -0.31581414 -0.10204419
0000f0 e2 c0 42 3e 79 96 e6 3d 3b 6e 38 3d 63 03 82 bd
       0.19018891 0.11259169 0.045027 -0.06348302
000100 22 7d 6c be 6d 7a 03 be 3f 80 32 3e 07 a6 ac bd
       -0.2309461 -0.1283967 0.17431735 -0.08430105
000110 65 f6 d8 3c 29 bd 88 be 3d 72 5d bd 7c 9f fb bd
       0.026484678 -0.26706818 -0.054064024 -0.122862786
000120 07 6e 38 3d 00 87 f3 b4 29 54 1c be c3 57 dc 3d
       0.045026805 -4.5360503e-07 -0.1526648 0.10758927
000130 61 03 0e 3e 05 59 dc bd 78 6b 80 be 2c 25 52 be
       0.13868476 -0.10759167 -0.25081992 -0.20521992
000140 ff 60 95 bc f8 67 d0 3c 75 51 d1 3d 80 02 be bc
       -0.018234728 0.025440201 0.10220615 -0.023194551
000150 cf ca c9 bd d0 af 96 3d db 7a 3e 3d be 09 98 3d
       -0.09853136 0.07357752 0.046503883 0.07423733
000160 e2 50 83 bc 68 ad 5b be 4f 3b 43 be b1 fc e6 3d
       -0.016029779 -0.21452868 -0.19065593 0.11278666
000170 3a da b5 bc 02 8a 50 be b0 bc 04 be a0 58 2e 3c
       -0.022198785 -0.20365146 -0.12962604 0.010641247
000180 e1 da 2c 3e 80 23 21 be 78 4f bb bc a3 cb 71 be
       0.1688037 -0.15736198 -0.022865042 -0.23612837
000190 b2 2b 34 be 23 62 95 3d da 1a 1a bc f8 76 26 bd
       -0.17594793 0.07294109 -0.009405816 -0.0406408
0001a0 54 9c 1a 3e 45 80 21 be 95 1c 95 3d 08 78 3e be
       0.15098697 -0.15771587 0.07280842 -0.18600476
0001b0 67 fd f0 bd fd fc f2 bd fb 0b 38 3d 7a b3 a6 bd
       -0.11767083 -0.1186466 0.0449333 -0.08139701
0001c0 65 7c 40 bd 35 6f e3 be 50 3d 88 be 52 59 bf be
       -0.046993632 -0.44420782 -0.26609278 -0.37372833
0001d0 51 09 04 3e cd fe c7 3d cb 71 cd 3c c0 5b b9 3c
       0.12894179 0.09765396 0.025078675 0.022626758
0001e0 84 ac af 3d 82 b7 87 bd 44 16 82 be 0d 7c 74 3c
       0.085778266 -0.06626798 -0.25407612 0.014922154
0001f0 5c dc a6 3e 98 93 e7 bd 67 e5 12 be 66 0b 06 be
       0.32589996 -0.11307448 -0.14345323 -0.13090286
000200 31 5c 94 3d c4 d7 47 bc 08 1f 03 bf 2a b4 10 be
       0.072441466 -0.012197439 -0.51219225 -0.14131227
000210 25 1f ec be 81 b8 e2 bc b3 94 43 3d b7 ad 61 be
       -0.4611751 -0.027675869 0.047749233 -0.22038923
000220 20 3e b6 be 67 85 c3 bd 0b 40 7e be 06 13 33 bd
       -0.35594273 -0.09546929 -0.24829118 -0.043719314
000230 04 ea 10 3e 20 83 82 3d b0 f5 44 3d 0a ec ad bb
       0.1415177 0.06372666 0.04808587 -0.005307679
000240 e9 34 f3 bd b6 70 48 3d cd b2 51 3d ce 83 17 bd
       -0.11875326 0.048935615 0.05119591 -0.036990933
000250 8a 7b 96 3d 05 55 9c be 2c 64 ac 3c 2d 92 51 3d
       0.07347782 -0.30533615 0.02104386 0.051164795
000260 6f 83 a5 bd 60 77 dc 3d 61 9c 0c 3e 34 ca a8 bd
       -0.080817096 0.107649565 0.13731529 -0.08241692
000270 10 57 c5 bd 71 fd 0e bc 10 07 b9 bc c7 78 3f bd
       -0.096357465 -0.008727417 -0.022586375 -0.04674604
000280 fb 24 e8 be c5 27 b9 be 66 fe 4c be b8 00 12 be
       -0.45340714 -0.36163154 -0.2001892 -0.14258087
000290 72 cd ca 3d ef dd 0a 3e 29 9b 96 be 45 c0 c5 be
       0.09902467 0.13561223 -0.29415253 -0.38623253
0002a0 b5 f0 c6 3d d5 d5 30 3c f7 7b 9f bc 70 65 dd bd
       0.0971388 0.010793169 -0.01946829 -0.10810363
0002b0 d4 6d 87 be 62 f1 80 bd 18 6f ea bd 21 7f f3 bd
       -0.2645098 -0.0629604 -0.11446971 -0.11889482
0002c0 73 7e 8d 3e 25 4c 13 be af 02 73 be 3f 68 3a 3d
       0.27635536 -0.14384516 -0.23731492 0.045509573
0002d0 51 0a a5 3c 64 70 c8 bd 19 c5 ee bd ca cb 13 3e
       0.02014652 -0.09787062 -0.11658687 0.14433208
0002e0 4f db 1e 3e b2 d8 5c be 89 5a 8b bd 4e 54 d4 be
       0.15513347 -0.21567038 -0.068043776 -0.4147057
0002f0 37 70 3a be 7e 0f 85 be 1a a4 ce 3d fa d0 2c 3c
       -0.18206869 -0.25988382 0.10089894 0.010547871
000300 a2 40 e0 bd 70 9a be be 4d 82 13 be 9f 22 bb bd
       -0.10949828 -0.372272 -0.14405175 -0.09137463
000310 af 4d da bd ac e1 9b be 1d 85 a1 3d ec 5b 29 be
       -0.10659348 -0.3044561 0.078867175 -0.16538972
000320 42 64 15 bd 3b db d4 be 94 39 d8 be ad 41 55 3d
       -0.036472566 -0.4157351 -0.4223143 0.052064586
000330 d5 8f 08 bd 43 63 be 3d ec 1a 17 be bb e0 a2 be
       -0.033340294 0.092962764 -0.14756364 -0.3181208
000340 01 3b 58 be fd f3 55 be d9 fd 06 be 94 97 5a 3c
       -0.21116258 -0.20893855 -0.13182773 0.013341803
000350 3a 1f 3f 3d 97 ce 16 bf 83 c2 ac 3d 44 43 be be
       0.04666064 -0.5890898 0.08435538 -0.37160695
000360 21 ba 28 be b4 3a 5f be e0 1f 8f be c8 d4 a5 be
       -0.16477253 -0.21799737 -0.27954006 -0.32388902
000370 c6 28 15 be d2 c6 60 be 73 ba 8c bd 81 c3 87 bd
       -0.14566335 -0.21950844 -0.068715 -0.06629086
000380 e0 f4 84 be 68 c3 34 3c 98 df 26 be 13 e5 52 be
       -0.25968075 0.011032917 -0.16296232 -0.20595197
000390 ae 22 4e be f0 f0 1f 3e 11 70 f8 be c6 89 68 bd
       -0.20130417 0.15619254 -0.48523 -0.056772016
0003a0 60 97 04 3e 6e b3 41 be 1a cb 87 3e 5e 88 60 be
       0.1294837 -0.18916103 0.26522142 -0.2192702
0003b0 dc ed 12 be 3c 5d 2b 3d c9 85 c7 be 06 04 12 3e
       -0.14348549 0.041836962 -0.38969257 0.14259347
0003c0 fe ba 57 bc 82 4c 82 bd 25 bf 3b 3d c7 b9 ad be
       -0.013167141 -0.06362249 0.045836587 -0.339308
0003d0 29 16 e6 bc 3f ab 3a 3e 33 1d 9d be 7b 2d c8 be
       -0.028086739 0.18229388 -0.3068634 -0.390972
0003e0 52 b7 6d be fc 92 b1 be 2e a8 36 be 44 44 fc bd
       -0.23214462 -0.34682453 -0.17837593 -0.12317708
0003f0 b9 6b ef bd 42 65 b2 be 37 1b ca bd bd 48 a1 bd
       -0.11690468 -0.3484288 -0.09868472 -0.07875202

lstm1.weight_hh_l0 f4 [512, 128]
000000 35 cd 46 3c 0d de 2f be 01 57 23 bd e4 0c a6 bc
       0.012133886 -0.1717455 -0.039877895 -0.020269819
000010 79 47 fd 3d 87 41 ce 3d 71 0e 02 3e 6a c4 57 3d
       0.12367148 0.10071092 0.12700821 0.05267755
000020 9d 49 a6 3d 28 59 76 3d ec 8c 98 bc ec b2 12 bd
       0.08119509 0.06014362 -0.018621884 -0.035815164
000030 52 eb d5 3d 0f 47 98 bd db 63 14 bd e5 35 86 3c
       0.104452744 -0.07435428 -0.036228042 0.01638312
000040 1e 25 d5 bd 07 7d cf bc 48 d3 fa 3d ce 40 87 3c
       -0.1040747 -0.025328172 0.1224733 0.016510393
000050 ed fb e0 38 ab 5e 52 bd 4b 4b ba 3d 28 80 0d bd
       0.00010728077 -0.051359814 0.09096392 -0.034546047
000060 28 dc 49 3d 83 1d 93 3d a7 38 9e 3d e8 11 6b 3c
       0.049282223 0.07183363 0.07725649 0.014347531
000070 a0 9c 57 bd 90 5e e0 bd 4c c7 29 3e 21 ef e7 3d
       -0.052639604 -0.10955536 0.16579932 0.11324907
000080 b1 0f a4 3c b3 95 09 3d de 69 cf 3d 74 9d b3 bd
       0.020027013 0.03359003 0.101276144 -0.08770266
000090 c9 05 53 bc 42 a9 02 3e a3 f0 e4 bc 4b 47 c6 3c
       -0.012879797 0.12759879 -0.027946776 0.024203917
0000a0 ba 89 81 bc 6c 7c 83 3d e7 4d ac bd 98 34 b3 bd
       -0.015812743 0.06420216 -0.08413296 -0.08750266
0000b0 fc ce 75 bd 84 33 d5 3d f2 52 c0 3d c2 6f 08 be
       -0.06001185 0.104102165 0.093908206 -0.13323882
0000c0 ef 48 4a 3d 21 ae 55 3e d1 68 c4 3d 98 a4 91 bd
       0.04938596 0.20867206 0.09590305 -0.07111472
0000d0 58 cf 15 3d 34 7a c2 3c 90 6f 6c bd 6a 10 20 be
       0.03657469 0.023739912 -0.05772358 -0.15631261
0000e0 2c 21 5f 3d 9d 45 6b 3b 1a 31 11 3e 50 18 e1 3d
       0.054474995 0.0035899647 0.14178887 0.10990965
0000f0 42 5a df bd 3a fe d8 bd b2 30 c3 bd 2e 15 2a be
       -0.10905887 -0.10595365 -0.09530772 -0.16609642
000100 fb 8e 5b 3c 0f 9f 20 3e ba 2e 40 3c f3 81 c9 3d
       0.013400788 0.15685676 0.0117298905 0.09839239
000110 65 c0 5b bd 14 37 bb 3c a4 39 f7 bd a4 69 9e bd
       -0.05365028 0.022853412 -0.12071541 -0.07734993
000120 41 96 28 be 49 6a 28 be a5 0f 33 3d 0e 0b d1 3d
       -0.16463567 -0.16446795 0.04371609 0.10207187
000130 21 5e 07 be 78 87 50 3d 77 e8 18 bc 9b 44 99 be
       -0.13219501 0.050910443 -0.009332768 -0.29935154
000140 3c eb e3 3d 80 66 65 bc 92 0a e7 3c 76 9a 34 3d
       0.11128852 -0.014001489 0.028203283 0.044092618
000150 a1 74 5e bb 20 c1 b0 3d cd 71 73 be 88 ea c6 3d
       -0.0033944028 0.08630586 -0.2377388 0.09712702
000160 d2 9d 5a bd e1 8c 5b bd dd c3 c8 bd 92 a7 66 bd
       -0.053373165 -0.05360115 -0.09802983 -0.05631215
000170 6f 02 2e be 49 2c fa 3d 6c 55 ac 3d 8f 50 64 be
       -0.16993116 0.12215478 0.084147304 -0.22296356
000180 14 9e 2b 3e 28 1c d1 3d a8 95 96 3c 36 b8 0b be
       0.16759521 0.102104485 0.018381909 -0.1364449
000190 69 b3 16 3e 33 75 9c 3d d3 84 87 bd 97 b1 07 be
       0.14716877 0.076395415 -0.06617131 -0.13251339
0001a0 b7 48 6d 3c b8 53 84 be d1 4e f6 bc 63 a1 c4 bd
       0.014482669 -0.25845122 -0.03006688 -0.096010946
0001b0 c4 0a 55 3d f2 28 2f 3e 48 8f f0 3d df 7d a8 3d
       0.05201222 0.17105463 0.11746079 0.08227133
0001c0 93 e5 ef bd 0e b2 b5 bc 9a d8 ad 3c 66 0c 0c 3d
       -0.1171371 -0.02217963 0.021221448 0.03419151
0001d0 9e 7c 02 3e 1a 12 60 3e 6e de 5e 3d 6b c3 be bd
       0.1274285 0.21881905 0.054411344 -0.09314617
0001e0 f8 9f af 3d cd 30 0f bb 74 c5 8c bd 68 10 9b 3d
       0.085754335 -0.0021849156 -0.06873599 0.075714886
0001f0 c6 8f 81 bd 12 86 91 bb bf 87 9b 3d d0 cf ce 3b
       -0.06326251 -0.0044410313 0.07594251 0.0063113943
000200 5e a4 b0 3d d5 cc 4f bd 02 98 18 3e 26 cc 1a 3e
       0.086251006 -0.050732452 0.14901736 0.15116939
000210 da dc 25 3d f0 ab 0a 3e a1 a7 59 be 60 c2 be bd
       0.040493824 0.13542151 -0.21255352 -0.09314418
000220 59 38 d3 bd 4d bd 15 3e 4f f1 f6 bd fa 8d cd 3e
       -0.10313482 0.14622994 -0.12057745 0.40147382
000230 0d d2 2d bd 2e a6 67 3b 86 cb fb 3c 26 ad 8a 3e
       -0.04243665 0.0035346854 0.030736696 0.27085227
000240 6f 15 c2 3e e4 d3 e0 3d 31 57 48 be 7f 42 09 be
       0.37906978 0.10977915 -0.19564511 -0.13404272
000250 20 a9 60 bd aa 2b 06 be 61 51 ca be 81 eb 9b 3d
       -0.05484879 -0.13102594 -0.39515212 0.07613278
000260 0d aa f5 bd d7 3d 10 3e c4 f1 8a 3c 0a d4 85 be
       -0.11995325 0.1408609 0.016960986 -0.26138335
000270 2a c3 88 3e b9 35 4c 3d 58 8b 28 be 89 87 03 be
       0.26711398 0.04985592 -0.16459405 -0.12844671
000280 c2 ea b9 bd bf 28 9a bd e2 14 2a bd 72 22 2e bc
       -0.090779796 -0.07527303 -0.04152382 -0.01062833
000290 ac 78 14 bd 64 22 5b 3e 68 20 f9 3d f0 c7 8b ba
       -0.036247894 0.21399838 0.12164384 -0.0010664444
0002a0 1e 9e d6 bc 38 72 0b be 4b cd e5 bd a2 f8 a3 3d
       -0.026198443 -0.1361779 -0.11220797 0.08006407
0002b0 7b f9 9f bd 4a 58 9c 3d e3 15 32 be c4 1a d8 bd
       -0.078112565 0.07634027 -0.17391162 -0.1055198
0002c0 4d cb 3f 3e 65 88 4a bd 3e 8d 5c be 23 0d 01 be
       0.18729897 -0.049446482 -0.21538255 -0.12602668
0002d0 64 dd 97 3d 56 d5 80 be 14 ee 19 3e 4c 5b 32 3e
       0.07415274 -0.25162762 0.15032226 0.1741764
0002e0 4f ab d7 3c 2d 36 2d 3d fc 9c ea 3c ba 3e 4a bd
       0.026326803 0.042287994 0.02863931 -0.049376227
0002f0 65 c0 da 3d db 0c 5b 3e 2f 48 6e 3d f1 99 ba 3d
       0.106812276 0.21391623 0.05817431 0.09111393
000300 01 91 7e 3d bf 53 75 bd a3 48 6b 3e e2 19 45 3e
       0.062150005 -0.05989432 0.22976927 0.19248155
000310 94 c5 45 3e 1f 1f 4c be cd ba d9 3c b8 ed 22 3e
       0.19313651 -0.19933747 0.026578331 0.15910995
000320 6a 17 1e 3e 4e a2 67 3d c4 a6 1b be d4 7d 02 bc
       0.1543862 0.05655127 -0.15200335 -0.00796457
000330 1b 87 54 3d a0 62 74 3e 0d 9a 41 be a9 d1 98 3d
       0.05188666 0.23865747 -0.18906422 0.074618645
000340 43 30 08 3c 5f 32 a9 3d 78 d3 9a be e1 79 48 3e
       0.008312288 0.08261561 -0.30239463 0.19577743
000350 8c 6b b3 3d 2d 80 fc bd 9a 9c aa bc 11 23 34 3e
       0.08760747 -0.12329135 -0.020826627 0.17591502
000360 4f 63 9f be da 6f 28 bd e3 fb fd 3d 15 99 a8 bd
       -0.31130454 -0.041122295 0.12401559 -0.08232323
000370 12 15 60 3e 83 80 f0 3d 3f 1a 7f be 1a 32 25 bd
       0.21883038 0.11743262 -0.24912356 -0.040330984
000380 e5 a2 ae bd 78 05 ca bc d9 4f d5 bd 66 e3 e9 3d
       -0.085271634 -0.02466081 -0.1041562 0.11420326
000390 23 05 dd bd 65 b5 4c 3e d3 03 f8 3d 37 64 b7 bc
       -0.107919954 0.19991072 0.121101044 -0.022386653
0003a0 9f e6 a0 3e 67 37 12 bc 6d 72 90 bd 21 97 c9 3b
       0.3142595 -0.008924342 -0.07053075 0.006152049
0003b0 4e 0d 9a 3b d8 84 84 bd a7 e7 b9 bc b5 6d cc ba
       0.004701293 -0.064706504 -0.022693468 -0.001559666
0003c0 66 cf 34 3d 06 05 70 3d 33 3f d2 bc 78 b1 01 bd
       0.044143103 0.05859854 -0.025664901 -0.031663388
0003d0 99 af d0 3d 72 d9 fe bb e4 f3 fa bd 60 6b 3f ba
       0.101897426 -0.0077773863 -0.1225355 -0.0007302072
0003e0 90 28 70 bd 14 c8 7c bc 44 37 cc 3c 75 ab 9a bd
       -0.058632433 -0.015428562 0.024928696 -0.07552234
0003f0 ff f8 f7 bd 2f 3f 9e 3d 88 47 96 3d a9 37 17 bd
       -0.12108039 0.07726895 0.07337862 -0.036918316

lstm1.bias_ih_l0 f4 [512]
000000 dd 9c 67 be 08 87 98 be 10 2c db be e4 9b 04 3f
       -0.22618432 -0.2979052 -0.42807055 0.5180037
000010 9c f2 a4 3d ff be d4 bd d5 f5 40 3e 88 95 4f 3e
       0.080540866 -0.10387992 0.18843777 0.20271885
000020 86 9a f1 bd 9b c3 7d 3e 8b 66 38 be ac 1e 90 bd
       -0.11797051 0.24781649 -0.18007867 -0.070371
000030 57 e0 f0 bd 97 d7 85 3d af 26 fe 3d ec 29 5b 3e
       -0.117615394 0.06535261 0.12409722 0.2140271
000040 64 d2 a8 3d bf 20 26 be 7e 1f 2e 3d 33 c2 e4 bc
       0.08243254 -0.16223429 0.042510502 -0.027924633
000050 bb 24 b0 bc 69 bb cf be 8a e6 eb 3d e8 62 60 bc
       -0.02150189 -0.4057267 0.11518581 -0.013695456
000060 4f 46 5c 3e 7f 67 80 3d 3d 28 36 be f6 26 87 be
       0.21511196 0.0626974 -0.17788787 -0.26396912
000070 ce 22 03 3e ad 30 99 3e 16 93 3a 3d f8 62 00 3d
       0.12806246 0.2991995 0.04555043 0.031344384
000080 73 e3 ca be 24 96 49 be 7d e3 5a 3d 10 e4 50 bb
       -0.39626655 -0.1968618 0.053439606 -0.0031874217
000090 50 48 8e 3d 5b 33 0c bd 3b cd cd 3d 00 00 05 3d
       0.06947386 -0.034228664 0.1004891 0.032470703
0000a0 ef 4f 39 be b1 18 12 bd 90 42 2f be d6 ca 9b bd
       -0.18096898 -0.03566808 -0.17115235 -0.07607047
0000b0 36 8c 10 be d7 77 36 be ce 6a 0c be 7c 0b 48 bd
       -0.14115986 -0.17819153 -0.13712618 -0.048839077
0000c0 cd 82 cd 3d ab 65 bb bd e6 26 ef 3c 3a bf a4 bd
       0.10034714 -0.09150251 0.029193353 -0.08044286
0000d0 9b f1 49 bd 64 26 ad bd 42 47 ea 3d e3 92 19 3d
       -0.04930268 -0.08454588 0.114393726 0.037493598
0000e0 fc ed 27 bd cb 7c 0a 3e 47 5e d5 be 95 c1 64 be
       -0.040998444 0.13524167 -0.4167349 -0.2233947
0000f0 8a 96 84 3d ab 1d d4 3e 8d a6 f3 3d 9e 37 0f bd
       0.064740255 0.41428885 0.118970014 -0.03496515
000100 9c 12 f1 bc df d7 a7 3e 19 12 37 3e 79 69 fb bd
       -0.029427819 0.32781884 0.17877997 -0.12275977
000110 cc 96 0f 3d db 39 af be 34 ff 10 be 1e 79 af bd
       0.03505592 -0.34223828 -0.14159852 -0.08568023
000120 1e fc a5 3c d2 93 8b 3e 83 eb 97 3e b7 5f df 3d
       0.02026182 0.27261215 0.2967187 0.10906928
000130 54 7c 8b 3d 4a 6d b4 bc 6a dc 38 be 22 06 fe bc
       0.06810823 -0.02202477 -0.18052831 -0.031008784
000140 94 3e d0 3c 96 c4 d4 bd 06 21 d6 3e 96 48 04 3e
       0.025420465 -0.10389058 0.4182207 0.12918314
000150 2f 35 e2 bd 16 2c 11 3e 8d ff ab 3c e4 a9 69 3d
       -0.110453 0.14176974 0.02099588 0.057046786
000160 b1 36 b3 bd e3 bf 03 be 04 78 78 be e5 39 e0 3c
       -0.08750666 -0.12866168 -0.24264532 0.027371356
000170 70 80 59 3a a8 59 a7 be df df 11 be f9 5d cc bd
       0.0008297032 -0.3268559 -0.14245556 -0.09978861
000180 47 cf 82 bc 43 03 31 be ea a0 e9 bd 3f 94 13 3e
       -0.015967978 -0.172864 -0.11407645 0.1441202
000190 e0 54 65 be 4f 7e 58 3e 5c 02 1b bd 35 06 d4 bc
       -0.22395658 0.21141933 -0.037844047 -0.025881866
0001a0 d7 49 c8 3d c1 a0 3f 3d 3b 97 d2 3c b3 94 b4 bd
       0.09779709 0.046784166 0.025706878 -0.088174246
0001b0 bb bb b7 bc 3d ed 02 be c6 0a 05 bd e0 d2 b4 bd
       -0.022428384 -0.12785812 -0.032480977 -0.08829284
0001c0 36 45 90 3d 90 07 2f be e5 60 1b be fe 72 3f be
       0.07044451 -0.17092729 -0.15173681 -0.1869621
0001d0 cc e4 dd 3d 51 79 d3 3d 5a 14 36 3d b8 c1 92 be
       0.10834655 0.10325874 0.044453003 -0.2866342
0001e0 d2 56 5e 3e ee 92 8b 3e 81 29 b1 bd 38 1b 93 bd
       0.21712807 0.27260536 -0.08650494 -0.07182926
0001f0 34 2b 3c 3e 81 6b 86 be 0f 4d 37 be 36 7f 7f be
       0.18375856 -0.26253894 -0.1790049 -0.24950871
000200 24 5c 47 bd 1b cf 4c be cb d4 9e be 5f 3a 7f bd
       -0.048671857 -0.2000088 -0.31021723 -0.062311526
000210 ba 21 de be b9 b4 c3 3d 2d 01 22 be cb b5 3b be
       -0.43385106 0.095559545 -0.15820761 -0.18331067
000220 ef 84 9a be 4d c5 65 be e6 1b 11 be d2 6b 48 be
       -0.30179545 -0.22438546 -0.14170799 -0.1957238
000230 9e 4a 6f 3d 42 18 a8 3d 9b dc 2a 3e 7c e3 22 be
       0.05842077 0.08207752 0.16685717 -0.15907091
000240 f2 a4 9d bd 3c f2 a1 bd 26 13 6d 3d 3e 09 68 bd
       -0.076974764 -0.07907531 0.05787959 -0.05664944
000250 ef 58 6c 3d 4a dd 77 be fb ff 68 bd de 12 a5 3d
       0.057702 -0.24205509 -0.056884747 0.08060239
000260 f8 6b 42 3d ea 55 fc 3d 6a f9 05 3e 1b a8 58 be
       0.04746625 0.12321074 0.13083425 -0.21157877
000270 8b 28 23 bd 92 49 a9 bb be 06 2b 3d 3f 15 34 be
       -0.039833587 -0.005166241 0.041754477 -0.1758623
000280 9d b4 ae be 12 12 23 be b0 2b 53 bd 28 a7 17 3e
       -0.34122172 -0.15924862 -0.051555336 0.14809859
000290 60 b3 8c 3d 41 3b 26 bd 8b ab 4a be d0 55 56 be
       0.068701506 -0.040583853 -0.19792001 -0.20931172
0002a0 a5 e3 f5 3c a1 50 e1 bd 62 58 fb bd 27 e5 2a be
       0.030015776 -0.11001707 -0.12272717 -0.16688977
0002b0 4f b1 99 be 81 f6 48 be 61 43 96 be d1 43 0c bd
       -0.30018088 -0.19625284 -0.2934828 -0.034244362
0002c0 1b b1 bd bb d1 8e 94 bd 6f 4f 97 bd 1e 2a d8 bd
       -0.005788935 -0.072538026 -0.07388198 -0.10554908
0002d0 81 3a ed bd d5 92 40 be 1f 55 9a be 40 c7 16 3c
       -0.11583424 -0.18806012 -0.30143067 0.009202778
0002e0 4b 84 84 3d d8 a1 76 bd f8 aa 9b be 3f 60 a7 be
       0.064705454 -0.06021294 -0.30403876 -0.32690617
0002f0 f6 0a 2d be 0f 3b 66 be b2 6d 02 bd 19 02 dd bd
       -0.16898713 -0.22483467 -0.031842895 -0.10791416
000300 fb 24 4e be 58 9c 22 3c 64 06 1b bd 2b d9 de bd
       -0.20131294 0.009924971 -0.03784789 -0.10881265
000310 df 5c 77 be 6c d6 84 be f4 f6 c7 3d 99 76 2f be
       -0.24156521 -0.2594484 0.097638994 -0.17135085
000320 c0 5e 23 bd 7e 70 77 be 0f 99 bf bc 7f 26 e6 3c
       -0.039885283 -0.24164006 -0.023388414 0.028094528
000330 23 48 93 bd 02 01 a7 bc 2f 95 8b be 10 61 b6 bd
       -0.07191493 -0.020386223 -0.27262256 -0.08905232
000340 31 95 b2 be e3 d2 86 be 93 20 0f be 05 dd 8b bc
       -0.3487945 -0.2633277 -0.1397727 -0.017073164
000350 93 b7 2f 3e 27 1f c0 be 3a 35 cd 3d 70 21 7e be
       0.17159872 -0.37523767 0.10019918 -0.24817443
000360 c0 2f 21 be 52 26 a3 be 79 b8 c8 be 92 c6 e0 be
       -0.15740871 -0.31865174 -0.3920324 -0.43901497
000370 b4 91 3e bd 71 c2 50 be c7 1d 88 bb 52 88 94 bd
       -0.046525672 -0.20386674 -0.0041539404 -0.072525635
000380 87 b1 08 be bf 08 a5 bd c0 44 29 be 8e af 37 bd
       -0.13348971 -0.08058309 -0.16530132 -0.044845156
000390 9e 77 9f be da ca 76 bc 5f f6 b6 be e4 f2 8b 3c
       -0.31145948 -0.015063012 -0.3573484 0.017083593
0003a0 04 a4 95 bd 8d 2b 05 3c 39 a0 02 3e 5a c2 35 bd
       -0.07306674 0.008128059 0.12756433 -0.0443748
0003b0 99 42 af 3c 1a 5b 76 3c 13 d5 b6 be 49 73 14 3e
       0.02139406 0.015036369 -0.35709438 0.14497103
0003c0 2c 89 15 3d 82 8a 03 be 9c 81 79 bd 13 ee 9e be
       0.03650777 -0.12845805 -0.06091462 -0.3104101
0003d0 c6 4a cb 3d 27 34 b6 3d 70 af b6 bc 35 b2 ba be
       0.09926371 0.08896666 -0.022300452 -0.36464086
0003e0 12 b2 b0 3d 31 ec 68 b9 44 3c 87 be 35 6b 58 3d
       0.08627714 -0.00022213232 -0.26413167 0.052836616
0003f0 23 ed 4e be 73 e7 d0 be da 51 2c bd e1 bc 6d bd
       -0.20207648 -0.40801582 -0.042070247 -0.058041457

lstm1.bias_hh_l0 f4 [512]
000000 f7 c8 40 be c6 53 7f be e2 aa b3 be a7 e5 c8 3e
       -0.18826662 -0.24934301 -0.3509131 0.3923771
000010 a8 e5 48 3e a6 72 3f bd b5 89 62 3e 64 07 2c 3e
       0.19618857 -0.046740197 0.22122844 0.16799694
000020 a6 8e e2 bd 3e 60 99 3e a0 c9 05 be 7f 5b 46 be
       -0.11062364 0.2995624 -0.13065195 -0.1937084
000030 71 75 e1 bd 62 1b 11 3e fc 3d c4 3d 48 35 92 3e
       -0.11008728 0.14170602 0.09582135 0.28556275
000040 1a 60 40 3e eb 36 32 be 9a ab fc 3b 87 cd 2f 3d
       0.1878666 -0.17403762 0.007710886 0.042920616
000050 7f 23 30 be 85 27 ce be e0 23 9d 3d bc c2 9d 3d
       -0.1720104 -0.40264526 0.07672858 0.07703158
000060 47 ad 67 3e 55 ed ab 3d 9f 95 01 bd da 91 fd bd
       0.22624694 0.08394877 -0.03163683 -0.123813346
000070 7e d9 47 3e 28 d1 36 3e c1 88 d3 3d 46 bc cd bd
       0.1951656 0.17853224 0.10328818 -0.10045676
000080 8d 1d e1 be 3a 71 58 be 5a 9b 18 3e 00 fd f9 3c
       -0.43967858 -0.21136943 0.14903012 0.030516148
000090 c5 f3 b4 3c 30 69 59 3d 5f 3c 8c 3e 7f 83 88 3d
       0.022088895 0.05307883 0.2738981 0.06665706
0000a0 39 c8 cf bd 38 b6 8f bd 03 63 dc bc b4 09 b3 bd
       -0.10145611 -0.07017177 -0.026902681 -0.08742085
0000b0 68 27 16 be 33 01 7c be b9 18 c8 bd c5 36 64 be
       -0.1466347 -0.24609832 -0.097703405 -0.22286518
0000c0 3f db 89 3d 77 b8 59 bd 97 94 6b 3d d5 70 21 be
       0.06731271 -0.053154435 0.057514753 -0.15765698
0000d0 a0 8d 24 be b2 af 88 bd d2 b7 dd 3d 89 b6 b1 3d
       -0.1606965 -0.06674136 0.108260766 0.08677394
0000e0 59 85 e0 bd 18 0f ba 3d 55 c3 e0 be bd b1 fb bd
       -0.10962934 0.0908491 -0.43899027 -0.1228976
0000f0 d1 d0 32 3e 47 b4 ac 3e 93 f6 66 3d 46 61 55 bd
       0.1746247 0.3373129 0.056387495 -0.05209472
000100 f1 3e c5 bd c5 fb bb 3e 5b 33 24 3e 00 e0 ff bd
       -0.09631146 0.36715522 0.16035216 -0.124938965
000110 06 9c b6 bd 2e 99 64 be 74 19 a7 b8 c4 da 6d be
       -0.08916478 -0.22324058 -7.9679216e-05 -0.23227984
000120 45 ce 33 3e 28 24 56 3e a5 15 be 3e 67 38 91 3d
       0.17559154 0.2091223 0.37125888 0.07090836
000130 a0 c8 95 3d c0 0c fc 3b 04 d5 53 be c6 71 ec 3c
       0.07313657 0.0076919496 -0.20686728 0.028862845
000140 7f bd 93 bd 2c ec 77 be d0 ab b3 3e 14 0c 15 3c
       -0.07213878 -0.24211186 0.3509202 0.009097118
000150 1f 90 2b bc 97 b4 0a 3e e4 1e c3 3d ee e1 36 3d
       -0.010471373 0.13545452 0.09527376 0.044649057
000160 4f ac ca bd 10 a2 95 be cf 89 5f be 3f 79 af bc
       -0.098961465 -0.29225206 -0.21829914 -0.02142012
000170 f4 8f 14 bd a7 bf 50 be 85 76 a4 bd 03 01 99 bd
       -0.036270097 -0.2038561 -0.08030418 -0.07470896
000180 44 19 c4 3d fa 11 01 be ab 8f 60 be 9f 99 26 3e
       0.095751315 -0.12604514 -0.21929805 0.1626954
000190 80 ba dd bd 8a 79 84 3e 22 63 76 bd c3 39 b0 3d
       -0.10826588 0.25873977 -0.060153134 0.08604767
0001a0 45 fc ec 3d cd a7 4c 3d 89 79 e8 bc c6 7b 46 be
       0.11571554 0.049964715 -0.028378265 -0.19383153
0001b0 0f a9 e2 bd 77 24 bd bd b9 04 7a bd d7 e1 79 bd
       -0.110674016 -0.09235471 -0.06103966 -0.061006393
0001c0 ac 9a 3f 3b c1 83 95 be ea 7f 1a be c0 45 42 be
       0.0029236479 -0.29202083 -0.15087858 -0.1897192
0001d0 00 b1 d6 3d f1 dd 38 3e 14 80 2d 3c 99 75 22 be
       0.10482979 0.18053414 0.010589618 -0.15865172
0001e0 1b 57 bc 3d 8c 58 14 3e 91 ed 34 be 0e a9 ab bd
       0.091963015 0.14486903 -0.1766875 -0.08381854
0001f0 11 9b a3 3e 0f bb 8f be f7 3f 49 be 7e a9 3a be
       0.31954244 -0.28072402 -0.19653307 -0.18228719
000200 5d c3 a3 bd f7 6c 6b bd eb 62 a3 be 8a 0a e4 bc
       -0.07996247 -0.057476964 -0.31911406 -0.027837057
000210 f8 b6 de be 1f dc 03 3e b0 ae e6 bd 47 c5 44 be
       -0.4349897 0.12876938 -0.11263788 -0.1921588
000220 49 d6 8e be 9b a4 89 be 13 65 9b be 6e e8 2c be
       -0.27897862 -0.26883397 -0.3035055 -0.1688554
000230 0e 02 25 bd 56 c7 8f 3d 50 18 0f 3e 52 9c 1e be
       -0.040285163 0.07020442 0.13974118 -0.15489319
000240 d3 9a af bd 1a ef e8 bc c5 53 be 3d ef 85 15 bd
       -0.08574452 -0.028434325 0.092933215 -0.036504682
000250 83 1f 6c 3d 9d 33 87 be af 35 02 be e4 34 c0 3d
       0.05764724 -0.26406565 -0.12715791 0.09385088
000260 74 58 8b 3c 89 ac 83 bb 76 d2 c3 3c 6b eb 46 be
       0.017009951 -0.0040183705 0.023904067 -0.19425742
000270 ec 69 30 3c ea 0d 4a bc 2f 2e 00 3c d1 de e6 bd
       0.010767441 -0.012332419 0.007823511 -0.112729676
000280 37 df d1 be 22 e6 8b be 47 ce 9c bd bc b3 ad bc
       -0.40990612 -0.27324015 -0.07656532 -0.021203868
000290 30 7a 07 3d bc d7 8d bc d3 c0 1c bd 9a c8 a5 be
       0.03307551 -0.017314784 -0.03826983 -0.3237961
0002a0 e0 97 bf bd 29 04 0a be 18 d4 56 bd f6 9e 9d bd
       -0.0935514 -0.1347815 -0.052448362 -0.07696335
0002b0 05 26 a6 be db d6 23 be 70 15 46 be 7d 8a 08 bc
       -0.32450882 -0.1599993 -0.19344115 -0.008333799
0002c0 07 ff a2 3d 22 3c 4a be 79 7d 46 be 1b 17 24 be
       0.07958799 -0.19749501 -0.19383802 -0.16024439
0002d0 12 b2 ad bd c5 7f 47 be a9 31 b0 be 05 cc c4 3d
       -0.0848123 -0.19482334 -0.34412888 0.09609226
0002e0 1d af 4c bc 20 36 85 bd 1a 4a 55 be b5 9f b3 be
       -0.012492922 -0.06504464 -0.20829049 -0.35082784
0002f0 99 e8 c1 bd c4 ab 76 be 81 f4 2f 3d 25 9b 8d bd
       -0.094681926 -0.24088961 0.042957786 -0.06914357
000300 51 e1 2f be a3 bd 65 bd 97 bf 16 bd 39 19 a6 bd
       -0.17175795 -0.056089055 -0.036803808 -0.081102796
000310 67 68 52 be 2c 89 77 be 88 98 f1 3d 79 b7 31 be
       -0.20547639 -0.2417342 0.11796671 -0.17355146
000320 c2 8e a2 3d d6 c0 6b be 13 d4 74 bd 83 df 17 3e
       0.07937385 -0.2302278 -0.059772562 0.14831357
000330 0d e5 5a bd 08 46 d5 bd 73 4e 2e be 27 a6 23 bd
       -0.053441096 -0.10413748 -0.17022114 -0.039953377
000340 f9 fc c9 be 9c 1d 86 be e2 97 8d bd df 0c e4 bd
       -0.39450815 -0.26194465 -0.06913735 -0.111352675
000350 ac 7a 05 3d 35 10 f2 be 16 07 42 3e 9f 4e 29 be
       0.032587692 -0.4727799 0.18948016 -0.16533898
000360 ee 78 e3 bd 4c 93 b1 be 47 4c c0 be c4 39 e5 be
       -0.1110705 -0.3468269 -0.37558195 -0.44770634
000370 eb 89 55 be f7 bd 63 be f8 ba 49 bd 67 9d 3b 3d
       -0.20853393 -0.22240435 -0.049250573 0.045804407
000380 7c 6b fe bd 75 d2 af bc 12 fa 9e bd 00 ca 23 be
       -0.12422845 -0.021462658 -0.07762541 -0.15995026
000390 6a 39 60 be 04 6f ad 3b ba db b9 be ed 1e 3e 3d
       -0.21896902 0.005292775 -0.3630045 0.046416212
0003a0 f2 73 32 be 75 ac ae 3c 7e 60 3c 3d 4b 27 00 be
       -0.17427042 0.021322468 0.04599046 -0.12514989
0003b0 ef 54 d3 bd 8e ec 3c 3d 62 ce ab be 0b c7 b1 3d
       -0.10318934 0.046124034 -0.33555895 0.086805426
0003c0 1a ec bd 3d f9 15 a2 bd c0 bb cd bd a9 40 90 be
       0.092735484 -0.07914347 -0.10045576 -0.28174332
0003d0 23 1b 82 3d cc c6 4f 3e f0 d5 77 bd fd 79 8d be
       0.06352832 0.20290679 -0.06050676 -0.27632132
0003e0 06 ca 2e 3d 99 d5 1a be 0c 16 9a be d7 32 1e 3c
       0.042673133 -0.15120544 -0.30094945 0.009655676
0003f0 9b fb 6e be 4d aa d6 be 1e d8 44 be 54 dd 20 bc
       -0.23338167 -0.41926804 -0.19223067 -0.009818394

lstm2.weight_ih_l0 f4 [256, 128]
000000 58 a6 54 3e 45 7c 9d bd 8c f4 e5 bc a2 e8 84 3e
       0.2076658 -0.07689718 -0.02807071 0.25958735
000010 50 a2 17 3e cd 6b 3b be fd 0a 79 be d1 02 0e be
       0.14808011 -0.18302841 -0.24320598 -0.13868262
000020 7c 74 94 3d 16 e4 74 3e 5f 9f 45 3e 18 01 78 3e
       0.0724878 0.23915133 0.19299076 0.24219167
000030 82 02 df bc e2 ea 8c 3e 29 b7 6c 3e e4 81 00 3e
       -0.027222876 0.2752295 0.23116745 0.1254955
000040 12 0e 79 3e 4e 6c 83 3d 0f 69 a4 be d6 42 b9 bd
       0.24321774 0.06417142 -0.32111403 -0.09045951
000050 f0 37 cc bd 1d 91 5d bd 8b 6f df be 73 84 bb 3e
       -0.09971607 -0.05409347 -0.43639788 0.36624488
000060 54 32 cd bb 37 f1 46 3e 09 7e 1b be d0 88 ba bd
       -0.006262103 0.19427954 -0.15184797 -0.09108126
000070 1a 61 6e 3e c2 08 95 bb d2 83 79 be c2 85 c4 be
       0.23279229 -0.004548163 -0.24366692 -0.383833
000080 76 ce 89 3e ae 6f 7a 3e a9 bb 89 be 9d 55 1a 3e
       0.2691533 0.24456665 -0.26900986 0.15071721
000090 ea d6 23 bd 80 e5 32 3d ac fe 05 3d 5f 83 9b be
       -0.03999988 0.0436759 0.032713577 -0.30373666
0000a0 b4 c3 91 3d 4b 9f cd be 61 05 7b bc 9b 05 8e 3e
       0.071174055 -0.40160593 -0.015321107 0.27738652
0000b0 b3 16 11 bd 38 d7 e8 3d a4 73 a1 bd 77 dd 97 3d
       -0.03542204 0.11369175 -0.07883385 0.07415288
0000c0 35 c9 1c 3e bf c7 43 bd de 22 e8 bd 9f 03 1a bd
       0.1531113 -0.047797915 -0.113347754 -0.03760111
0000d0 05 77 ae 3e 4c 15 b5 bc 4f 9d 24 3e 1c 01 b1 3e
       0.3407518 -0.022104882 0.16075633 0.3457116
0000e0 9d 62 9e be 3d 3d 1e be 4f 8c 2c 3d 41 63 76 bc
       -0.3093461 -0.15453048 0.042125996 -0.015038312
0000f0 6e 02 16 be e4 bd fa 3d 48 f1 cd 3e cb 36 bd 3d
       -0.14649364 0.1224325 0.40223145 0.092389666
000100 bd 1c bc bc 56 41 82 be 52 b7 3b 3e 3d 75 a6 be
       -0.022962922 -0.25440472 0.1833165 -0.3251132
000110 89 b2 fd 3d 16 b6 26 3d d8 fa f4 3d e7 1b 47 3e
       0.123875685 0.040700994 0.11961907 0.19444238
000120 5d 0d 7b 3e be 21 70 3d 89 f3 42 be 0b 3b 37 be
       0.24516816 0.05862593 -0.19038214 -0.17893617
000130 4c 54 19 3d 5f 47 2c 3e 26 e5 71 3d dd 3b 7b 3d
       0.037433907 0.16824101 0.059056424 0.061336387
000140 26 90 79 be 7d e8 f7 3d 1f 1a 64 bd 7b dc 53 3e
       -0.24371395 0.121048905 -0.055688974 0.20689575
000150 a0 d5 64 3d 8b 5e 29 bd 3c 6c 7e 3e 0b f7 88 3e
       0.05586779 -0.04134993 0.24845976 0.2675098
000160 10 c3 88 3d 22 5e ce 3d dc fc 9a 3e 6a 99 63 3e
       0.0667783 0.10076548 0.3027104 0.22226492
000170 b3 59 19 bd 9e 31 84 be a9 99 28 be 1e 39 90 3e
       -0.03743906 -0.25819105 -0.16464867 0.28168577
000180 d9 95 df bc 16 5e 55 3d 7d a9 5b be 3d 7b a2 3d
       -0.027293133 0.05209168 -0.21451373 0.07933662
000190 6b 10 d6 3c ce 40 7d 3c aa 0d 80 3e 64 0f 22 3e
       0.026130876 0.015457345 0.25010425 0.15826184
0001a0 59 5e 01 3e d8 5d 28 3e 72 53 b9 3e 06 e2 15 3e
       0.12633647 0.16442049 0.36196476 0.14637002
0001b0 a9 4a f7 bd df 97 a1 be 38 5a 52 be 14 82 b4 bd
       -0.12074787 -0.3156118 -0.20542228 -0.08813873
0001c0 2a 77 77 3e ba d1 0f 3e 3b a9 28 be 28 07 ac bd
       0.24166551 0.14044848 -0.16470806 -0.083998024
0001d0 e5 22 17 be 28 ae e6 be 27 f7 bc bd 35 eb 7f bc
       -0.14759405 -0.45054746 -0.09226828 -0.015620043
0001e0 af 94 f9 bd e9 9e 26 3e b6 91 05 3e d4 21 38 3d
       -0.12186562 0.16271557 0.13043866 0.044954136
0001f0 dc 35 14 be ba 36 b4 bd 3f 63 59 be 68 01 76 3d
       -0.1447367 -0.08799501 -0.21229266 0.060059935
000200 fd 4f d4 3d 55 4b 39 be 4c 7d 90 3e b2 e9 c4 3e
       0.10366819 -0.18095143 0.28220594 0.38459545
000210 5f a1 a1 3e 0d b0 c3 be 44 94 83 be f0 15 61 be
       0.3156843 -0.38220254 -0.25699055 -0.21981025
000220 32 5e d8 bd cf cf 3c 3e 30 04 d0 3d 57 1f 22 3e
       -0.10564841 0.18438648 0.10157049 0.15832268
000230 6e 9c 24 be a8 c5 00 3f e1 c7 0e 3f 13 66 b3 3e
       -0.16075298 0.503016 0.5577374 0.35038814
000240 91 04 a5 3e cb 41 b4 be 07 f7 21 bf b4 6a 2d be
       0.32230046 -0.35206446 -0.6326756 -0.16935235
000250 47 1d 44 be 6d 9e 61 3e c5 5b 58 bf b6 e8 1b 3f
       -0.19151793 0.22033091 -0.8451503 0.60901964
000260 25 8d df 3e 01 47 9e 3e 8e ed 03 be ad 22 ed 3d
       0.43662372 0.30913547 -0.12883589 0.115788795
000270 44 67 16 3f 64 65 de be 1a d2 32 bf b5 1c 04 bf
       0.5875132 -0.4343673 -0.6985184 -0.51606303
000280 39 59 4c 3e ef 1b 64 3d 2c ef 0e bf bb 23 00 3f
       0.1995591 0.055690702 -0.558337 0.5005452
000290 7b 1f 07 bf f8 70 81 3e 3e d6 5d 3e 37 46 ea be
       -0.5278241 0.252815 0.21663758 -0.45756695
0002a0 a2 e9 0e 3e be cb f1 be 14 dc ab be a9 57 7b 3e
       0.13956311 -0.47225755 -0.33566344 0.24545158
0002b0 3a f7 1b be e1 57 99 3c 4d dd 2e bd ea 9e 42 3e
       -0.15231028 0.018718662 -0.042691518 0.19005933
0002c0 84 4b dd 3e 00 78 76 be be 9e 8e be 7e 1e 75 3e
       0.43221676 -0.24069214 -0.27855486 0.23937413
0002d0 0b b5 fc 3e 66 56 88 3e 94 79 c6 3d 97 bb 32 3f
       0.49356875 0.26628417 0.09691158 0.6981749
0002e0 c3 59 1f bf 39 34 03 bf 9e 59 6c bd 5e ec d0 bd
       -0.6224634 -0.5125156 -0.057702653 -0.102013335
0002f0 41 d3 5d 3e 80 91 c5 3e 99 ff 1e 3f 80 37 db 3e
       0.21662618 0.3858757 0.6210876 0.4281578
000300 2e 6a de 3e 71 0d 3a bf f5 76 db 3e 22 c0 65 be
       0.43440384 -0.7267676 0.42864195 -0.22436574
000310 64 59 7a 3d b8 22 59 3d 42 cf 6c 3e a5 bd 04 be
       0.061120406 0.053011626 0.23125938 -0.12962969
000320 a8 2c 48 3f c2 02 99 3e 62 03 17 bf c7 65 91 be
       0.7819314 0.29884917 -0.58989537 -0.28397962
000330 d9 05 f5 3e ac 82 9b 3e a2 04 88 3e 88 bf c4 3e
       0.47856024 0.30373132 0.26566035 0.38427377
000340 b9 cb ed 3d 6c a0 dd bd 69 65 12 bf 51 a6 a8 3e
       0.11611123 -0.10821614 -0.5718599 0.3293939
000350 03 93 c3 bd d7 93 89 3e 62 bf 01 3f c7 e1 99 3e
       -0.09549525 0.26870605 0.5068265 0.30055067
000360 4a 7a c5 3e 64 97 4b 3e 05 09 b9 3d 73 03 c1 3e
       0.38569862 0.1988197 0.090349235 0.37697944
000370 64 3c 16 be b3 c1 41 3e be 70 8c 3e 7f e1 a2 3e
       -0.14671475 0.18921547 0.27429765 0.31812665
000380 3f cc 11 be 35 76 e8 3c 8b 94 b7 be 30 54 f0 3e
       -0.1423807 0.028376678 -0.35855517 0.4693923
000390 a1 0e 28 bc dc 30 d3 3e cc fd 99 3d 91 94 9d 3e
       -0.010257394 0.41248214 0.07519111 0.3077741
0003a0 4c 42 a6 3e 18 ec 11 3f aa b0 fa 3e a7 20 4d 3e
       0.32472456 0.57000875 0.4896291 0.20031987
0003b0 4d b7 08 bf 5a 6e e0 be 7e 0e a2 be 50 e5 89 be
       -0.53404695 -0.43834192 -0.31651682 -0.26932764
0003c0 b8 f1 26 3f f0 9f 23 3d ed 1d ce bd 80 08 97 be
       0.65212584 0.03994745 -0.10064302 -0.29498672
0003d0 75 1b 05 bf ae 2d 32 bf 58 a1 f8 be 14 8b 05 be
       -0.5199502 -0.6960095 -0.48560596 -0.13041335
0003e0 2d b5 10 bf 93 94 1d 3f b5 26 4f 3e be 1c f8 be
       -0.5652645 0.6155483 0.2022961 -0.4845943
0003f0 64 1d 9f bd f5 3d ab 3d 82 24 10 be 36 7c 1a 3d
       -0.07769278 0.08361427 -0.14076427 0.037716113

lstm2.weight_hh_l0 f4 [256, 64]
000000 7c 52 c2 3d bc 91 5d ba c1 7f 09 be 29 68 be be
       0.09488389 -0.0008452197 -0.1342764 -0.37188843
000010 47 dc 50 3d 74 2b a3 3e 5f db 86 be 97 64 f4 3c
       0.050991323 0.3186909 -0.26339242 0.029833121
000020 2f e3 c9 3e 6d 23 84 be 85 b8 1f 3e 26 66 d7 3e
       0.3943114 -0.25808278 0.15597732 0.4207012
000030 3a 0e c7 bd 56 76 0d 3d 6b 54 a1 be 80 05 59 3e
       -0.097195104 0.034536682 -0.31509718 0.21193504
000040 81 28 04 be 8b 6c a0 be ea 7d b2 bd f7 93 b7 bd
       -0.12906076 -0.31332812 -0.087154225 -0.08963769
000050 2e e5 95 bd 40 39 8c be 32 d0 3d 3c 50 d1 4e 3e
       -0.07319103 -0.27387428 0.011585282 0.20197034
000060 a8 ce 95 bd 1f 87 9d 3d 6e 4f f3 3e dd ea 8c be
       -0.07314807 0.07691788 0.47521538 -0.27522936
000070 34 df e5 bb 86 22 02 3e d1 0a 82 3d dd 22 89 3c
       -0.0070151333 0.12708482 0.06349719 0.016740257
000080 c4 9f 79 ba ef b4 80 bd 27 9e 2b be d8 82 09 bc
       -0.0009522403 -0.0628451 -0.16759549 -0.008393012
000090 f3 a3 43 be cf 3e 51 3e 4b 15 15 3e 50 ff 51 be
       -0.1910551 0.20434116 0.14558904 -0.2050755
0000a0 44 94 27 bd 92 69 55 bd d0 e6 e7 3d 6a f4 00 3c
       -0.04091288 -0.052102633 0.11323321 0.007870773
0000b0 61 49 51 bd 8b a6 85 3e a4 b0 76 3d 9b 8b 5c be
       -0.05109537 0.26103625 0.06022705 -0.2153763
0000c0 54 c2 29 be 8a 5c 34 be 24 8d 6c 3e 2d 58 c4 be
       -0.16578037 -0.17613426 0.23100716 -0.38348523
0000d0 3d 42 1a 3e 42 e0 01 3e d3 57 c1 3d 44 62 10 3d
       0.1506433 0.12683204 0.09440579 0.035249963
0000e0 17 67 ca bd b6 af 02 be 98 53 35 be 81 10 1d be
       -0.09882944 -0.12762341 -0.1770767 -0.15338327
0000f0 f3 2b 0b 3e 8c e0 4c be 84 6f 36 3d 38 12 73 3c
       0.13590984 -0.20007533 0.044539943 0.014835887
000100 ec 12 3b 3e f4 fb 14 be f0 0d cf 3c 36 40 7f be
       0.18268937 -0.14549237 0.0252752 -0.24926838
000110 90 c8 1f 3e f4 88 cc 3e 13 fa 59 be 1f 78 f6 bd
       0.15603852 0.39948237 -0.21286802 -0.1203463
000120 d4 50 7b 3d 50 e3 c0 3d 09 24 4c be 03 8f 26 3d
       0.06135638 0.094183564 -0.19935621 0.04066373
000130 23 04 35 bd 2d 07 29 be a7 82 fc 3d 74 f9 ce bc
       -0.0441934 -0.16506644 0.123296075 -0.025265433
000140 e3 ea e8 3e 9c ae 37 be 73 b9 fe bc 85 44 01 3d
       0.45491704 -0.17937702 -0.031094288 0.031559486
000150 03 f9 bc 3e 4d ae c3 be e5 a2 ba 3c 12 2e b7 3e
       0.3690873 -0.38218918 0.022782752 0.35777336
000160 5e 15 69 3d 36 86 9f 3d d5 65 f4 3d d3 f1 f2 3b
       0.056905143 0.077892706 0.119334854 0.0074140816
000170 ce b4 ac be b0 7c 15 3e 33 07 3c be 19 78 b3 be
       -0.33731693 0.14598346 -0.18362121 -0.35052565
000180 f3 e9 10 be 00 6b 67 3e cf 9a f7 be c2 b3 2f 3e
       -0.14151745 0.22599411 -0.48360297 0.17158416
000190 30 d1 60 3e b7 c0 fe 3d a6 ee 0c 3d e6 bf 44 3e
       0.21954799 0.12439101 0.03440728 0.19213828
0001a0 a2 c9 d9 3d 30 71 90 be c5 d6 15 3e e1 a6 44 3d
       0.106341615 -0.28211355 0.1463271 0.04801071
0001b0 47 ac 2d be d9 9f 34 3e 0f a0 89 be 5f 6b 9a 3d
       -0.1696025 0.17639102 -0.26879928 0.07540011
0001c0 9a 12 51 bd f0 04 79 be 9e 50 f4 3e 26 50 8d 3d
       -0.05104313 -0.2431829 0.47717756 0.06900053
0001d0 26 7a 30 bd ed aa ab 3d 74 49 3b 3b 2b 77 e0 bd
       -0.04308524 0.08382211 0.0028577717 -0.109602295
0001e0 02 c0 ac bd 0b 65 50 be 52 67 31 be e5 03 6f 3d
       -0.0843506 -0.20351045 -0.1732457 0.058353323
0001f0 f3 47 34 3e 57 bf 97 be 32 cc 90 be fc 03 27 3e
       0.17605571 -0.29638168 -0.2828079 0.16310114
000200 e8 e1 be be 13 58 12 bf 28 07 ac 3d 7e 70 6c be
       -0.37281728 -0.5716564 0.083998024 -0.23089787
000210 b4 e6 8b be de 44 8a 3d 3b 72 ea bc 1b 47 92 3e
       -0.2732445 0.067514166 -0.028618922 0.28569874
000220 d8 94 af 3e b5 3a ae bd 95 84 e5 be 97 e9 c0 3e
       0.34293246 -0.08507291 -0.44827715 0.37678215
000230 e2 96 eb 3e 15 34 b3 3d 3b d3 10 bf 9f 35 ef bd
       0.46013552 0.08750168 -0.5657231 -0.11680149
000240 65 64 d2 3d ee 7c 60 be 20 1d e3 3e 4e 90 ab bd
       0.10273055 -0.21922657 0.44358158 -0.08377133
000250 d1 3d 4c 3e af 04 54 bd b1 bf d3 3e 41 7d 8c be
       0.19945456 -0.05176228 0.41357186 -0.2743931
000260 69 f8 56 3e 76 78 32 be 11 9b 59 3f ea 12 e5 be
       0.20993198 -0.17428765 0.8500224 -0.44740993
000270 1f a2 93 be c4 bb 1f 3e 86 17 e3 3d 80 b2 bf be
       -0.28834626 0.1559897 0.11088471 -0.37440872
000280 d5 bb 94 be f2 19 3d 3d 12 aa c0 3d f0 e8 89 be
       -0.29049554 0.04616732 0.09407438 -0.2693553
000290 98 25 e8 3d 3c 55 1a 3e ff 73 d9 be 94 f4 2f bd
       0.113352954 0.15071577 -0.4247131 -0.042957857
0002a0 ba c9 0d 3f c9 f4 c8 bb a1 ae da 3d 8e 66 fe 3e
       0.55385935 -0.0061326963 0.10677839 0.49687618
0002b0 ef 5d 3a 3d a5 f9 ab 3d 50 e6 6e 3d 42 a1 96 bd
       0.04549974 0.08397225 0.058325112 -0.07354976
0002c0 a8 91 30 bd 92 b0 19 3e d4 90 03 3e 93 65 b3 bd
       -0.04310766 0.15008762 0.12848216 -0.08759608
0002d0 95 6d 92 bd ea c8 18 3f 12 d5 67 3e 2d 13 cf be
       -0.07149807 0.5968157 0.22639874 -0.40444317
0002e0 05 29 00 bf ec 27 62 3e 17 b8 32 bd 11 57 91 be
       -0.5006259 0.22085541 -0.043632593 -0.2838674
0002f0 be 7e 2d be 68 ce 8b be 95 2d a9 be 6d 65 33 be
       -0.1694288 -0.27305913 -0.3304259 -0.1751916
000300 26 d7 f2 3d 35 a6 60 bc 88 03 89 3d a1 42 39 bd
       0.118574426 -0.013711502 0.06690127 -0.045229558
000310 62 b1 b2 3d 87 b6 b7 3c 3d b2 53 be 8e 36 b0 bc
       0.08725239 0.022425903 -0.20673461 -0.021510389
000320 a8 a0 1c 3e 9b 66 a3 3c 20 be 05 be f6 5b c9 3e
       0.1529566 0.019946387 -0.13060808 0.39327973
000330 c0 ca 07 bc 5c 18 d3 bd dd a2 15 bd c0 a5 0b 3e
       -0.008288085 -0.103073806 -0.03653227 0.13637447
000340 01 ec cc 3e c3 6d b2 bd 08 ff 27 3e 62 60 e9 3e
       0.40023807 -0.08712342 0.1640588 0.45581347
000350 0e 7d 83 3e 30 22 13 be 0d 41 f0 bd 7a 1a a4 3e
       0.25681347 -0.1436851 -0.117311575 0.3205145
000360 3b 2c 95 be 95 20 26 bd 14 23 b2 3e 6c 3d c1 3c
       -0.29135308 -0.040558416 0.34792387 0.023588859
000370 ca 6e 03 be 93 39 9d 3d 05 17 10 3d c6 0c fd be
       -0.12835231 0.07676997 0.035178203 -0.49423808
000380 f2 f4 15 be cd fa 89 3e bc a1 95 be 13 bf b9 3e
       -0.1464422 0.26949158 -0.29224956 0.3627859
000390 ee 09 80 3e ac 57 d6 bd cf da 0a bd 74 3b 0d 3e
       0.25007576 -0.10465941 -0.03390008 0.13792211
0003a0 fa d2 62 3e 01 62 6c 3d 58 cb b0 3e 4c 05 a3 be
       0.22150794 0.05771065 0.3453014 -0.3183998
0003b0 ea fd c2 be 53 25 b4 3e e6 57 77 be d9 ca dd be
       -0.38084346 0.35184726 -0.24154624 -0.43318823
0003c0 83 2b 5b be b5 7a 79 be c7 51 94 3e 76 da 52 be
       -0.21403317 -0.24363215 0.2896864 -0.20591149
0003d0 71 7b e4 be 96 f3 72 bc a3 ae 35 3e a3 c1 86 be
       -0.44625428 -0.014828583 0.177424 -0.26319608
0003e0 89 70 8d be ca 5a b5 3d 70 16 1a be 1b 7e 42 be
       -0.2762492 0.08855207 -0.15047622 -0.18993418
0003f0 9d 00 d4 3e 30 b9 39 be af 74 17 3e 53 b8 9a be
       0.41406718 -0.1813705 0.14790605 -0.30218753

lstm2.bias_ih_l0 f4 [256]
000000 58 1c c0 3d 67 f3 06 3e 48 c2 54 3d 7d b6 db 3c
       0.09380406 0.13178788 0.051943094 0.026820416
000010 89 e9 d2 bc 86 b0 8a 3b e5 40 04 3e 9e c8 44 3e
       -0.025746124 0.004232469 0.1291538 0.19217154
000020 0c 58 dc 3d a3 38 6a bc b3 e2 aa 3e c5 64 22 3e
       0.10758981 -0.01429573 0.33376083 0.15858753
000030 db 07 02 3e e2 38 29 3e b6 4d 02 3d d3 2a a8 3a
       0.12698309 0.16525605 0.031812392 0.0012830145
000040 a5 52 3f 3d 6b 6b 18 be fb 15 e5 bd 3e 2f ec 3d
       0.046709675 -0.14884727 -0.11185833 0.11532448
000050 fc 1f ae 3e 9d 92 a6 bd d2 69 9a 3d c4 7b 90 3e
       0.34008777 -0.08133433 0.07539715 0.28219426
000060 e9 d7 2b 3d f0 a0 da 3e ad e0 8a 3e a1 98 37 3e
       0.041953955 0.4270091 0.2712454 0.17929317
000070 14 dc 0f 3e cb ce 52 3e 59 1a ad 3d b1 4a 21 3e
       0.14048797 0.20586698 0.08452291 0.15751149
000080 fa 12 1f 3e 3e be 67 3d 43 7e 22 3d 41 2c bb 3e
       0.15534583 0.056577913 0.039671194 0.365572
000090 53 d3 78 3e a0 d0 1d 3e 3b 0e 9b bc b2 83 39 3c
       0.24299364 0.15411615 -0.018927684 0.0113229025
0000a0 b0 eb 1f 3d 84 d2 90 bc 42 4d b4 3d e1 08 68 3e
       0.03904313 -0.017678507 0.08803798 0.22659637
0000b0 72 94 93 3e 9d 12 d0 3d 13 b4 dc bd 86 f7 0f 3e
       0.28824192 0.101598 -0.10776534 0.14059266
0000c0 45 33 b1 3d b2 a2 48 3e aa aa e5 3e 6e 07 ca 3d
       0.08652357 0.19593313 0.4485677 0.09864698
0000d0 6d 2f cf bc 68 b7 20 3e b7 b6 f3 3d d1 c0 29 3c
       -0.025291169 0.15694964 0.119000845 0.010360912
0000e0 f0 1e 5b 3e 4a ea 41 3e 72 61 68 3d e6 12 79 3e
       0.2139852 0.1893703 0.056733556 0.24323615
0000f0 00 f5 56 3d b7 b3 97 3e 9b 98 36 3e 4b c7 8d 3d
       0.052479744 0.296293 0.17831652 0.06922778
000100 29 06 12 3d a6 4d 9c 3d e4 d0 98 3c 99 37 fd 3c
       0.035650406 0.07631998 0.018654294 0.0309103
000110 a0 9f 1f 3e ba 88 73 3e 5c d8 6f 3e 37 df 36 3e
       0.15588236 0.23782626 0.23422378 0.17858587
000120 39 ce 0c 3e de 33 d7 3d 06 6e 39 3e 82 04 71 3d
       0.13750543 0.1050794 0.18108377 0.05884219
000130 99 bc 74 3e 55 90 80 bd b8 bd 11 3e ca 8f 80 bd
       0.2390007 -0.06277529 0.14232528 -0.062774256
000140 b6 bb 26 3d 6f fa 95 bd 6c bc 0a be 6d b3 38 3e
       0.04070636 -0.07323157 -0.1354844 0.18037196
000150 f4 e0 85 3e 82 75 e2 bd 87 ec 93 ba 7f ab 29 3e
       0.26148188 -0.11057569 -0.0011285701 0.16569327
000160 37 8c 19 3d 58 ec a9 3e ff fc f0 3d e4 32 4e 3c
       0.037487235 0.33188128 0.11767005 0.012585375
000170 87 28 18 3e c2 7e 8e 3d d7 56 0b 3e e8 65 66 3d
       0.1485921 0.06957771 0.13607346 0.05624953
000180 10 79 c7 3d e3 79 d5 bd d1 d4 25 3d 58 46 5a 3d
       0.09739888 -0.10423639 0.04048616 0.05328974
000190 8e 22 b9 bc 68 a6 38 3e d6 1b e8 3c d1 6d a7 bc
       -0.022599485 0.18032229 0.028333586 -0.020438107
0001a0 c6 8e a7 bc d1 60 67 3d 8e 50 5b 3e 98 28 91 bc
       -0.020453822 0.056488816 0.21417448 -0.017719552
0001b0 05 ed 5c 3e b7 d9 fd 3b 8b 75 70 bd df 2c 55 3a
       0.21574791 0.007746901 -0.058705848 0.00081319915
0001c0 30 9b 30 3e a1 0f 5f 3e 2a 62 7e 3d 31 b3 4d 3e
       0.172467 0.21783306 0.062105335 0.20087887
0001d0 a0 a6 55 3d d2 dc b7 ba 8b 9a 1c 3e d8 33 76 3e
       0.05216086 -0.0014027602 0.15293328 0.24043214
0001e0 72 37 83 3e 24 20 ec bd 07 ef e0 bc 49 17 f9 3d
       0.2562824 -0.11529568 -0.027457727 0.121626444
0001f0 be 62 0e 3e 62 5f a3 3d 98 3a 35 3d 41 63 bc bd
       0.13904855 0.07977177 0.044245332 -0.09198619
000200 f9 db 46 bd 45 76 9e bd 83 08 7c 3d c3 dd a0 bd
       -0.048549626 -0.07737402 0.061531555 -0.07854798
000210 9c 43 55 bd f1 35 0d be 60 ec 26 3e e6 c7 27 3e
       -0.05206643 -0.13790108 0.16301107 0.16384849
000220 26 95 56 3c f3 2c ce 3d 58 e3 94 bb 7e c0 1c be
       0.013097083 0.10067167 -0.004543703 -0.15307805
000230 19 4f 8d 3c fd 6b e4 3b 62 51 36 3d 8c 69 7c bd
       0.01724963 0.006970881 0.044511206 -0.061624095
000240 51 37 4d bd b1 d9 a0 3c ce 28 39 3e a0 fb b9 bb
       -0.050101582 0.019635053 0.18081972 -0.005675748
000250 67 28 b5 3b e6 09 11 bc c6 30 b2 bd 11 93 1a 3e
       0.005528498 -0.008852458 -0.08700709 0.15095164
000260 49 4d e9 3b 53 b0 c2 3d a3 34 1b be 9a a1 79 bb
       0.007119809 0.095062874 -0.15156798 -0.0038090707
000270 f0 95 e4 bd 5f 47 11 3e 7a 6c 27 3e 9b 2e 2a 3e
       -0.11161411 0.14187382 0.16349974 0.16619341
000280 04 3c 58 bc c9 e0 81 bd 40 d4 81 3d 7c fc 50 be
       -0.013197903 -0.063417025 0.063393116 -0.20408815
000290 8a a4 8c bd a1 f1 16 3e c7 d7 68 be bd 87 36 bd
       -0.06867321 0.14740612 -0.22738563 -0.044563044
0002a0 4a 50 98 bd 91 9c c1 bd 05 de 84 bd 86 ee 17 3d
       -0.07437189 -0.09453691 -0.06487659 0.037092708
0002b0 d6 bf 0a 3e 5c 0f bb bd ff 45 b4 3d ee 73 04 3e
       0.13549742 -0.09133789 0.08802413 0.12934849
0002c0 ec 8e 91 3c cb c2 8f 3d 48 f6 96 3d f4 b4 d9 3d
       0.017768346 0.07019576 0.07371193 0.10630217
0002d0 4c 60 ae bd 65 3e 5f 3d de 9f e5 3c 4b 71 df 3d
       -0.08514461 0.054502863 0.028030332 0.10910281
0002e0 18 e6 36 3e f8 72 d1 bd d2 53 80 bc 48 00 07 be
       0.17861211 -0.10227007 -0.015664969 -0.13183701
0002f0 a5 dc 0d bd 8d 5c 29 3e 67 d3 dd bd 91 af 1f 3e
       -0.03463425 0.16539212 -0.108313374 0.15594317
000300 3d b4 5a 3d ce 15 ae 3c 7a 8d 68 3e 5d 27 c1 3d
       0.053394545 0.021250632 0.22710219 0.09431336
000310 57 4b ea bd f4 1e 18 bd 66 16 18 3d 37 73 c4 bd
       -0.11440151 -0.037138894 0.037130736 -0.09592288
000320 e3 6d d8 ba 43 34 b1 bd ef 82 14 3e d7 74 6e bd
       -0.0016512241 -0.08652546 0.14503072 -0.058216896
000330 16 4e 93 3d 28 09 7d bc 06 52 0d 3e 2d 79 d2 3d
       0.07192628 -0.015444078 0.1380082 0.10277019
000340 54 41 15 3c 81 0e 70 bd c3 d7 23 bd fd 4d 7e 3e
       0.009109814 -0.058607582 -0.04000069 0.24834438
000350 ee 28 4b 3e 5b c9 bc 3d ec 63 f0 bd b7 dd 5d 3e
       0.19839832 0.09218093 -0.117378086 0.21666609
000360 ec c9 6b 3d 1c a2 15 3e fe c9 65 3e 54 6e 1f 3e
       0.057565615 0.14612621 0.22440335 0.1556943
000370 9f 9a d6 3d b5 ba 18 bc 20 3a 2f 3e 67 50 58 3e
       0.104787104 -0.009321858 0.17112017 0.21124421
000380 57 09 11 bd 04 9c 33 3e 48 18 08 3e f2 34 29 3e
       -0.035409298 0.17539984 0.13290513 0.16524103
000390 6b b8 40 3e 0a 30 eb 3c 6d 32 33 3d e0 32 3a 3d
       0.1882035 0.02870943 0.04374926 0.045458674
0003a0 29 39 08 bd 90 70 d5 3d 0e e7 5d 3e 00 b0 c8 bc
       -0.033257637 0.1042186 0.21670172 -0.024497986
0003b0 96 35 a4 3d fa b5 96 3e cc 14 86 bb 2f b7 1d 3e
       0.08018033 0.29435712 -0.0040918346 0.1540191
0003c0 d6 49 55 3e 65 db a3 3e 0b d5 db 3e a0 49 f8 bd
       0.20828947 0.32003322 0.42935976 -0.12123418
0003d0 58 73 29 bc f4 7b 88 3e 9a 27 6d bd 14 8d 7c 3d
       -0.0103424415 0.2665707 -0.057899095 0.06165798
0003e0 71 57 fd 3d 2c 4b 06 bd 13 5e fc 3c a8 34 f5 3c
       0.12370194 -0.032786533 0.030806577 0.029932335
0003f0 cf f6 24 3e 68 a9 90 3e 83 34 07 3e d8 d9 f1 3d
       0.16109775 0.28254247 0.13203625 0.118091285
