results/lstm_model_8feat.pt (torch, 225218 bytes, 12 tensors)

lstm.weight_ih_l0 f4 [256, 1]
000000 06 36 8b bd 78 f1 f6 3d 2b cb bb 3d b5 96 34 bd
       -0.067974135 0.12057775 0.091696106 -0.044089038
000010 33 81 c7 bb 15 a0 88 3e 54 e3 66 3d ea b4 9d bd
       -0.0060884 0.26684633 0.05636914 -0.07700522
000020 e0 b6 2c 3e 07 61 a0 bd 8b 15 38 bd 6f 82 0d be
       0.16866636 -0.078310065 -0.04494242 -0.13819288
000030 6f 0f 1c 3e 27 28 08 3b 95 9f b1 3d 6d 8f f2 3d
       0.15240262 0.0020775886 0.08673016 0.118437625
000040 db 32 9c bb 2a c9 0b 3e 9e ec 63 3d 60 4f 3f 3d
       -0.0047668046 0.13650957 0.055645578 0.046706557
000050 a1 96 dc 3c 8a f9 9f 3e 8f 67 a6 3d 59 77 bd 3d
       0.026927294 0.3124507 0.08125221 0.092512794
000060 ea b4 63 be c4 61 7e 3e 8f 5e 1d 3e e8 4f 00 3d
       -0.22236982 0.24841982 0.15368102 0.031326205
000070 2f 62 8a 3d 90 d1 29 bd 49 03 a9 bd 90 3e 42 bc
       0.06757008 -0.04145962 -0.0825258 -0.011855736
000080 36 58 aa bc d1 55 6d 3d 9a 57 f5 3c 83 45 3c bd
       -0.020794015 0.05794317 0.029948998 -0.04596473
000090 3c 07 a1 3c 26 48 9a 3d 67 89 9b 3c 97 2a b9 3c
       0.01965677 0.075332925 0.018986417 0.022603316
0000a0 e6 2c 99 3c c6 3a 3e 3e 9c 44 30 3d 56 b5 53 3d
       0.018698167 0.18577108 0.04303418 0.051686607
0000b0 91 14 44 bd 77 24 29 3c f8 2f 12 3e 50 f0 9a b9
       -0.047871176 0.010323635 0.14276111 -0.00029552216
0000c0 c7 ad bd 3d cc 14 0d 3e 72 32 cf 3d 52 6f 7a bc
       0.09261661 0.13777465 0.101170436 -0.01528533
0000d0 a7 7b ed 3b b6 8a e7 bd ed ba 80 3e df 9e 8d 3d
       0.0072474065 -0.11305754 0.25142613 0.06915068
0000e0 8f 97 98 3c 55 1b e2 bd e4 11 9e bd 1e 7a 92 bd
       0.018626956 -0.110403694 -0.07718256 -0.07152198
0000f0 8c e7 c1 3d f2 56 63 bd e2 51 48 bd d3 18 36 3d
       0.09467992 -0.05550284 -0.048906215 0.044457268
000100 aa c7 21 3e e9 a3 2b 3e 96 ba 83 3d 97 20 00 bd
       0.15798822 0.16761746 0.06432073 -0.03128108
000110 6d 53 7f 3e 12 34 d2 bd 0a bd 9b 3e fb 75 96 bd
       0.24934168 -0.10263838 0.30417663 -0.07346722
000120 0c 7f 4b be 05 1a 8f bc 4d 4b d0 bd 81 ce 54 3e
       -0.19872683 -0.017468462 -0.101706125 0.207819
000130 1e cf a3 3d 22 d7 06 3e db 6d 51 3e fe a9 0e be
       0.07998489 0.13168004 0.20452063 -0.13932034
000140 1e f4 06 be a9 a9 0e 3e b5 86 1d be d2 e1 01 3e
       -0.13179061 0.13931908 -0.15383418 0.126838
000150 31 c6 e2 3d 9f 55 bc 3c f0 ff ab be 61 af d1 bd
       0.11072958 0.022990046 -0.33593702 -0.10238529
000160 4d e4 c6 bb f1 42 67 3e 03 4f 46 bd 67 e4 de bd
       -0.006069696 0.2258413 -0.048415195 -0.10883408
000170 43 23 c3 3d b7 0b 1b 3e a5 51 04 3e 1e 2b 51 3e
       0.0952821 0.15141188 0.1292177 0.20426604
000180 9d fa b2 be 3f 86 1c be 0d ed 9a be c4 ee 8e be
       -0.34956828 -0.15285586 -0.3025898 -0.2791654
000190 ca 94 03 be ec 52 80 be 31 d5 73 be 60 36 3b 3d
       -0.12849727 -0.25063264 -0.23811795 0.045706153
0001a0 12 06 17 3e 76 d4 9b be 00 86 91 bd 31 9f 2c be
       0.1474841 -0.30435532 -0.071056366 -0.16857602
0001b0 60 16 d4 bd c6 90 98 be d8 b8 e4 bd 26 40 f2 bd
       -0.1035583 -0.29797953 -0.11168069 -0.118286416
0001c0 24 9a 94 3e 67 5f 33 3c d2 dd 2e 3e 02 f1 9f bd
       0.2902385 0.010948039 0.17076805 -0.078096405
0001d0 11 ec 26 be b7 f2 34 be 08 1b 4b 3d 19 b0 af be
       -0.1630099 -0.17670713 0.049586326 -0.3431404
0001e0 22 da 9d bc 10 26 32 3c 9f f4 d4 bd 6d ad f9 3c
       -0.019269053 0.010873333 -0.1039822 0.030478204
0001f0 60 6e c6 3d 1a f4 20 bd dd 8d 8c bd b4 f9 0b 3e
       0.09689021 -0.039295293 -0.06862996 0.13669473
000200 f7 93 a4 bd 42 26 4f be 7e 37 d9 be 80 0d a6 3e
       -0.080360346 -0.20229438 -0.4242515 0.32432175
000210 e4 ba a3 bd 24 81 da 3e fc d9 f3 bd 58 67 90 3e
       -0.07994631 0.4267665 -0.119068116 0.28203845
000220 55 16 dc be 6e bd b1 3d 95 0c bc be 03 56 75 3e
       -0.42985788 0.08678709 -0.3672835 0.23958592
000230 52 fe c8 be fd c9 09 be e1 4f f0 bd 99 d0 66 be
       -0.3925653 -0.13455959 -0.11733986 -0.22540511
000240 10 29 ca be 88 ad 8b bc 81 70 12 3e 0d ed a6 3e
       -0.39484453 -0.01705052 0.1430073 0.3260273
000250 60 14 91 be b3 c5 8a be 09 e9 80 3d c8 9a 1c 3d
       -0.28335857 -0.27103958 0.06294448 0.03823355
000260 13 72 84 bd 22 da 17 3c f7 1c ed bd 61 f3 8e be
       -0.064670704 0.0092683155 -0.1157779 -0.27920058
000270 f5 97 6e be a6 28 13 be 05 3c 4e be 64 d7 7c 3e
       -0.23300155 -0.14370975 -0.20140083 0.2469154
000280 bb a4 e1 bd 20 4c dc 3e eb fa ee 3e 58 60 73 3e
       -0.11017748 0.4302683 0.4667581 0.23767221
000290 dd d6 b3 3e 56 e7 e4 3e b8 bf 55 bd e0 49 5f 3e
       0.35124865 0.44707745 -0.05218479 0.21805525
0002a0 98 12 0c 3e 1d 03 ee be 1e fd 39 be 80 17 e6 3e
       0.13678968 -0.4648675 -0.18162963 0.44939804
0002b0 5f 2e e3 3c a5 47 b4 be c9 c0 c4 3e 75 8c c8 be
       0.027732072 -0.3521091 0.38428333 -0.3916966
0002c0 3a e5 b1 bd 73 55 af be fc 2e 5f 3d bf 26 9c 3e
       -0.086862996 -0.3424488 0.054488167 0.3049831
0002d0 18 3a 6d 3e cf 8f ad 3e 18 43 1d 3e 4b 1e 7d 3e
       0.23166692 0.3389878 0.15357625 0.24718587
0002e0 10 64 a3 3d 27 ee 9a bc b5 8a 63 be 41 c1 6e be
       0.0797807 -0.018912388 -0.22220881 -0.23315908
0002f0 cd f6 aa be bc 19 e4 bd 1f cf 4c be c9 7b c9 3e
       -0.3339142 -0.11137721 -0.20000885 0.39352253
000300 30 9e 32 3d 5e 14 d4 3d f7 9e b3 3d c5 47 3d 3d
       0.04360789 0.10355447 0.087705545 0.046211023
000310 0c 0c 3c 3e 02 6c ac 3d af 3e 1f bb 3d 9d 04 bd
       0.1836397 0.08419038 -0.0024298837 -0.032376517
000320 ee 98 7e 3d e5 83 58 bc 96 a7 7f 3d 02 f7 a8 3d
       0.062157564 -0.01321504 0.06241568 0.08250238
000330 46 25 d8 3d 06 a0 69 bd 30 1f 00 3e be 98 bc 3d
       0.10553984 -0.057037376 0.12511897 0.09208821
000340 5c 3c da 3d 2f 36 76 3e 8f b6 fb 3c 35 c7 93 3e
       0.10656044 0.24044107 0.0307267 0.2886292
000350 05 d7 26 3e 65 26 85 3e ba 67 16 be fa 53 b5 3d
       0.16292961 0.26005855 -0.14688006 0.08853908
000360 7c 4e 80 3a 29 c5 88 3d af 64 f5 3d 3a a0 f6 bc
       0.0009789015 0.0667823 0.119820945 -0.030105699
000370 59 8c 97 bd 45 f7 45 3e 58 27 a7 3b 41 8d a2 3e
       -0.07399816 0.19332607 0.0051011257 0.31748393
000380 f4 06 9a be ea 7f a9 3d de 0b 15 bd 62 d8 df 3c
       -0.3008343 0.08276351 -0.03638827 0.027324859
000390 5c 0b 64 3d 4a c3 c9 3c 2f 04 8a be e2 09 85 3d
       0.055674896 0.024629254 -0.26956317 0.064960256
0003a0 0a 10 15 3e 20 b3 30 bd 75 cb ec 3c 91 c2 16 3e
       0.145569 -0.043139577 0.02890561 0.14722659
0003b0 38 78 04 be ab a6 d7 3d 0d 6c 3b 3e 85 02 5c 3e
       -0.12936485 0.10529836 0.18302937 0.21485336
0003c0 53 35 32 3e 3b 5b 5a 3e db 5a 8b 3e 55 3b 74 3e
       0.17403154 0.21323864 0.27217755 0.23850758
0003d0 16 2e e7 3d 68 4a 3b bd df 77 ef 3d 7d 9e be 3d
       0.11288087 -0.045725256 0.116927855 0.09307573
0003e0 4d ea 1b 3e 9a 7a 9d 3d bc ac f5 3d df ac ce 3d
       0.15226097 0.076894 0.11995837 0.10091566
0003f0 5f b4 17 3e aa 68 98 bd 45 b9 8b bd dc 59 c8 3d
       0.148149 -0.07441838 -0.06822447 0.09782764

lstm.weight_hh_l0 f4 [256, 64]
000000 46 94 f9 bd ed 67 a8 bd 80 c6 ca bd df 67 25 bd
       -0.12186484 -0.08222947 -0.09901142 -0.040382262
000010 f7 ac 59 bb c9 65 e9 bc 44 89 6f bc 0f cc d8 3d
       -0.0033214667 -0.028490918 -0.014620129 0.10585796
000020 b4 42 ba bd d0 a6 a5 bd 39 5f 4a 3c 46 c6 0d bd
       -0.09094754 -0.080884576 0.012351804 -0.034612916
000030 ed b9 c8 bd 04 dc 08 bd 2e 88 4f 3c 41 9d 87 bd
       -0.098010875 -0.03341295 0.012666745 -0.06621791
000040 b9 59 b5 3c e3 6a 43 3d ff d7 5d 3d 7b d8 55 bd
       0.02213751 0.047709357 0.054161068 -0.052208405
000050 a6 ad 38 bd 35 b6 cf 3c 71 75 9b bd 9e 3f 18 3d
       -0.04508748 0.025355438 -0.075907595 0.037170045
000060 78 61 1b 3e f6 18 e3 bc fb 60 25 3e 0d 06 68 bd
       0.151739 -0.027721863 0.16150276 -0.056646395
000070 be 15 fc 3c 94 a2 37 bd 67 c5 5c 3d 40 f9 35 3d
       0.030772086 -0.04483278 0.053899195 0.044427156
000080 70 6d 8d 3c 30 41 77 3c 95 9e a1 3c 30 4d 82 3d
       0.017264098 0.0150912255 0.019728938 0.063623786
000090 2d 78 db 3d 53 58 d5 3d ee 97 cf bd a0 5b 7d 3c
       0.10716281 0.10417237 -0.101364 0.01546374
0000a0 c4 bb b9 3d f1 1a b8 3d 04 1d b7 3d 0f 9c d4 3d
       0.090690166 0.08989514 0.08941081 0.10381328
0000b0 bf 87 88 3d e6 b4 c2 3d 92 34 d6 bb 1d 06 3f 3d
       0.066665165 0.0950716 -0.0065370286 0.04663669
0000c0 94 0e 4f 3d 23 a6 ce bd e9 2a 3f 3d 2c b7 7f 3d
       0.050551012 -0.10090282 0.04667178 0.062430546
0000d0 25 c2 09 3e c2 97 ff 3d 83 26 54 bd b3 b6 7d 3d
       0.13452967 0.124801174 -0.05179454 0.061941814
0000e0 e3 dd 02 bd df fd 58 3c 9f c6 4b bd 73 c2 ba bc
       -0.03194989 0.013244121 -0.049749967 -0.022797799
0000f0 7c 0f 19 be 24 c5 37 bd da be d3 bd 5e a2 a6 bd
       -0.14947313 -0.044865742 -0.103391364 -0.08136438
000100 65 da 0d be ca b8 b6 3d 0f 0f e0 ba fe f5 74 3e
       -0.13852842 0.089219645 -0.0017094332 0.23921964
000110 61 eb 98 3d 63 8b ff bd ea 87 0d be 6d 41 2c 3d
       0.0746677 -0.12477758 -0.13821378 0.042054582
000120 bc 2a ac bd ff 1b 74 3d d1 f4 52 bd 9c 04 1c 3c
       -0.084065884 0.05959701 -0.051503006 0.009522583
000130 e1 3f 64 3b e4 73 25 be ab c1 aa bd 5d 65 18 be
       0.0034828114 -0.1615749 -0.083377205 -0.14882417
000140 52 c8 bf bd 14 86 0f 3e 30 e6 76 3e 9e 03 22 bd
       -0.0936438 0.1401599 0.24111247 -0.03955423
000150 67 90 2f 3d ea 6e ed 3d ad c6 60 3c 72 7a 20 3d
       0.042862322 0.11593421 0.013719243 0.039179273
000160 55 1a 35 3e fe c1 fa 3d 72 01 31 3e d1 91 63 bd
       0.17685826 0.12244032 0.17285708 -0.055558983
000170 95 5b f2 bd 12 63 9a 3d ee 3e 83 bc f0 06 3f 3e
       -0.11833874 0.075384274 -0.016021218 0.1865499
000180 e5 61 38 3e 79 e2 4f bc 41 b5 96 bd ea d0 97 bd
       0.18006094 -0.012688273 -0.0735879 -0.07412894
000190 83 9e 2c bd fe 42 19 3d df 8c 35 be 05 b5 49 3e
       -0.042143356 0.037417404 -0.1772952 0.1969796
0001a0 8b da 9a 3d e6 ee 29 be e3 0c a6 3d 42 8a 21 3e
       0.07561215 -0.16595039 0.08107927 0.15775397
0001b0 6e 96 7b 3d 9f 8a 16 be ae 99 af bc 84 fc 92 3d
       0.061422758 -0.14701317 -0.021435585 0.0717707
0001c0 04 97 4f bd fa 88 1e be a8 11 83 3b 10 d9 0a be
       -0.05068113 -0.1548194 0.0039999075 -0.13559365
0001d0 97 70 ab 3d 49 16 b3 bd 5a 63 2e be 3a dd fa 3a
       0.08371084 -0.08744485 -0.17030087 0.0019139417
0001e0 9d 1a 8f bd 4b 57 1c 3e 2e 72 31 bd 84 fa 2d be
       -0.06987498 0.15267675 -0.04332178 -0.16990095
0001f0 e2 36 b5 bc 49 49 00 bd b7 a0 f5 bd 66 f8 06 bd
       -0.022120897 -0.03131989 -0.119935445 -0.032951735
000200 23 87 e0 bd 21 9b 9c 3d b0 c9 32 bd d2 b5 88 bb
       -0.10963275 0.07646776 -0.043649375 -0.0041720653
000210 48 b5 81 3d 7a f1 d8 bd d6 ed bb bc df 6f 41 3e
       0.06333405 -0.10592933 -0.022940557 0.18890332
000220 0c 06 b5 3c 7c 33 4f bb 9b 04 52 be ce 09 07 bb
       0.02209761 -0.003161638 -0.2050957 -0.002060521
000230 ef df 2a bd da ce 90 be 68 0e 34 be 5b 1e a0 bd
       -0.041717466 -0.28282815 -0.1758362 -0.0781829
000240 e6 c9 0e be 39 72 a1 39 91 11 63 3e d1 10 44 be
       -0.13944206 0.00030793415 0.2217467 -0.1914704
000250 99 e6 c0 bd 7a 8f 54 3d 67 30 c1 3d 3c c5 f4 bd
       -0.09418983 0.051894642 0.0943306 -0.11951682
000260 66 30 30 3e c3 ce 04 3e ae a4 5b 3e 05 c4 fa 3c
       0.17205963 0.12969498 0.21449539 0.030611048
000270 ce 0b 52 be 6f d2 5d bc af d3 09 3e 9b 1d 94 3c
       -0.20512316 -0.013538941 0.13459657 0.018080523
000280 9c b6 65 3e 23 db a1 3d 0f fc 62 bd 81 ad 31 be
       0.22432941 0.07903125 -0.055416163 -0.17351343
000290 4f 8b 8a 3d 84 ee 89 bd 33 90 3e be 45 79 99 3d
       0.06764852 -0.06734946 -0.18609695 0.074938335
0002a0 22 d3 66 3e 59 92 19 bd 55 44 3e 3d 15 34 eb bd
       0.22541478 -0.037493084 0.046451885 -0.11484543
0002b0 a9 c1 55 3e 7b b5 91 bd 8d f4 52 3d 01 fc e9 3d
       0.20874657 -0.07114693 0.051502753 0.11425019
0002c0 e0 7f 3b be 94 d2 b5 3d 8f 5a 67 3e c0 8e 49 be
       -0.18310499 0.08878055 0.22593139 -0.19683361
0002d0 c4 dc d1 bc 0a 89 5c bc 64 4d 84 be 10 39 70 be
       -0.025617965 -0.013460407 -0.25840294 -0.23459268
0002e0 e8 1f 49 3a 42 c9 22 3c be d3 b9 bd a2 90 31 3d
       0.0007672296 0.009935679 -0.0907359 0.043350823
0002f0 b6 79 b6 bb 57 73 0b be 28 02 f3 3c 78 39 aa bb
       -0.0055687083 -0.13618217 0.029664114 -0.005194839
000300 93 8b 5f 3e ed 91 24 bd ec 8d c7 3d 21 49 07 be
       0.21830587 -0.04017823 0.09743866 -0.1321149
000310 5e eb 2a 3e 0a 32 37 be 6e 2f 49 3d 30 78 cd 3d
       0.16691348 -0.17890182 0.049117498 0.100326896
000320 cf fe 00 3d a0 10 d1 bc 83 56 0f be 66 a4 b0 bd
       0.031493004 -0.025520623 -0.13997845 -0.086251065
000330 05 3f 64 3e bc e1 cd 3d fd f8 75 3d 1c 9e 19 be
       0.22289665 0.10052821 0.060051907 -0.1500172
000340 8e 9b c6 bd 0e fc 82 bd cb 60 89 3d a4 e9 4d be
       -0.096976385 -0.06395732 0.06707915 -0.20108658
000350 a8 d0 11 3e 8e ac eb bd 8d e6 d9 3d 1c 63 e3 bd
       0.14239752 -0.115075216 0.10639677 -0.11102888
000360 d9 a5 ec 3d 08 6b a9 3d 8f 4e 10 3e 17 37 83 bd
       0.115550704 0.08272368 0.14092468 -0.06406992
000370 ae 21 94 bc 7b 7f 79 3d 4c 6d c5 3d 29 5a cc bc
       -0.018082466 0.06091259 0.09639987 -0.024945335
000380 cd 2e 70 3e 51 b4 e1 3c f9 5f 14 3d 04 f7 5b 3e
       0.23455353 0.027551802 0.03622434 0.21480948
000390 18 2e 02 3e 9e 87 8c bd c7 38 2d be 1b 0a 4b bd
       0.12712896 -0.068618044 -0.1691619 -0.049570184
0003a0 c3 d7 a3 3d a3 b0 64 be ab 7f dc bd c9 54 32 be
       0.08000138 -0.22333007 -0.10766538 -0.17415155
0003b0 1b d2 b5 3d 71 55 f3 bd 83 b4 f3 3d d4 7a 20 be
       0.08877965 -0.11881531 0.11899664 -0.15671855
0003c0 32 aa ee 3d 58 2f 40 3d 97 0f 02 be 03 22 69 bd
       0.11653556 0.04692015 -0.1270126 -0.0569172
0003d0 ec 7f 30 3e 7e 7e f2 bd 89 d2 07 bb 62 e7 35 be
       0.17236298 -0.11840533 -0.0020724854 -0.17764047
0003e0 5d af 1c bd 9a 45 8d bd 68 36 bf 3d b4 ea 85 3e
       -0.038253177 -0.06898041 0.09336549 0.26155627
0003f0 31 4e fb bd f5 10 c4 bd 2f be 34 be b0 31 c4 bc
       -0.12270773 -0.09573547 -0.17650674 -0.023949474

lstm.bias_ih_l0 f4 [256]
000000 91 b8 92 bd 6e bd 9c 3c 2d 5e 7c 3e cb 37 04 be
       -0.071641095 0.019133296 0.246453 -0.12911908
000010 99 e6 07 3e 23 94 b4 bc 7d 06 ba 3d db 2d 42 3e
       0.1327156 -0.022043293 0.09083269 0.18962805
000020 6d b6 d7 3d 2d 72 85 bc 12 0f 53 3e 1f 8e 5b bc
       0.10532842 -0.016289795 0.20611218 -0.0134005835
000030 7f 70 8f 3d a8 29 02 be 9e 6c 1e be 70 f0 c4 3c
       0.07003879 -0.12711203 -0.15471122 0.02404043
000040 ff 16 9f 3c dc fc 53 bd 27 7d a8 3d 38 b1 08 3e
       0.019420145 -0.051754817 0.08226996 0.13348854
000050 2d 65 b2 bc da c8 56 3d dd 79 5c 3d de 99 b4 bd
       -0.02177676 0.05243764 0.053827155 -0.0881841
000060 64 5f e1 3d db 87 91 bd bb 28 ec bd 0a 0f 64 bd
       0.110045224 -0.071059905 -0.11531206 -0.055678405
000070 df 40 58 bd 2b f9 9c 3d 77 6e 99 bd 24 a1 0a 3e
       -0.05279624 0.076647125 -0.074917726 0.13538033
000080 23 d4 37 3e 5a 05 0a 3e 98 bc ae bc ba 8a 8c bd
       0.17952017 0.13478604 -0.021330163 -0.068623975
000090 77 24 0a bc 33 9a 9e 3d d3 95 0e 3d 25 61 f8 bd
       -0.008431545 0.07744255 0.034810852 -0.12127904
0000a0 f9 a8 ae bd d8 52 4b 3e 65 cb 63 3c 60 0d 8f 3e
       -0.08528323 0.19855821 0.0139034735 0.27939892
0000b0 c8 8f d7 bc f3 0e 3c 3e e6 3b 16 bc 14 8c c2 3d
       -0.026313677 0.18365078 -0.009169554 0.09499374
0000c0 1b 3d ab bd 0a 16 d5 3d 1b b7 43 3d 4d fe 0c be
       -0.08361264 0.10404594 0.047782045 -0.13768883
0000d0 08 87 ea bb 39 42 06 3e a7 4a 51 3d 25 e4 78 3c
       -0.0071572103 0.131112 0.051096585 0.015191113
0000e0 3f a4 0a be 1c 30 b4 bc 14 33 b5 3d 2c 7d dc 3d
       -0.13539217 -0.021995597 0.08847633 0.10766062
0000f0 6c ed 86 37 16 73 56 bd 5d 38 12 be 5c af 0e 3e
       1.6084603e-05 -0.05235585 -0.14279313 0.13934082
000100 a8 0e a4 bb 07 5b 19 bd ce 9c 7a 3d fb b0 1f bd
       -0.00500663 -0.037440326 0.061184697 -0.03898714
000110 c0 57 fd bd 54 07 c3 3c 8b e5 26 bd 86 90 92 3e
       -0.123702526 0.023807205 -0.040746253 0.28625888
000120 8e 1a 57 3d 1f b1 43 bd ff da 3d bd b6 fc 28 3d
       0.05251556 -0.047776338 -0.04635143 0.04125663
000130 1b c5 d2 bc 07 76 51 bd ee f7 a2 3d 21 d4 a2 3d
       -0.025728753 -0.05113795 0.07957445 0.07950617
000140 3c d8 b2 bd a4 68 0c bd 1e 0f 86 bd 1d 77 87 3b
       -0.0873265 -0.03427948 -0.06545852 0.0041340725
000150 66 d7 3d bd f3 5b 25 bd 2f 4b 13 bd 7b f3 c5 bd
       -0.046347998 -0.040370893 -0.035960373 -0.09665581
000160 3c ba 61 be c8 eb 0b be 9a 6a f2 bc 45 41 41 bb
       -0.22043699 -0.13664162 -0.029591847 -0.0029488367
000170 2b 82 d7 3d 63 f5 89 3d c1 62 e1 bd cf 05 60 3e
       0.105228744 0.06736257 -0.11005164 0.21877216
000180 0e 29 0c bd 74 44 10 3e 8d 42 20 3e 5e e5 1d bc
       -0.03421884 0.14088613 0.15650387 -0.009637205
000190 2f 92 4c 3e b1 18 e2 bd 05 a8 1f 3e d5 c7 21 3d
       0.1997764 -0.11039866 0.15591438 0.039497215
0001a0 d6 c4 33 3d f7 19 38 3e 80 d2 55 bd fe 2f 2d 3e
       0.04388889 0.17978655 -0.0522027 0.16912839
0001b0 99 98 ca bd af 8d 32 bd 8e cc 42 3c cb a0 9e bd
       -0.09892387 -0.04359215 0.01188959 -0.077455126
0001c0 51 bc a2 3c 0d 49 5c be 38 03 f5 bd 91 ba 2f bd
       0.019865187 -0.21512242 -0.119635046 -0.042902533
0001d0 d0 43 35 3d ec 69 be 3d 53 a7 1b 3e 91 d9 e4 bd
       0.044254124 0.09297547 0.15200548 -0.1117431
0001e0 a9 6b 2a bd 71 60 37 bc c7 b2 1f bc 90 ad a5 bd
       -0.04160658 -0.011192427 -0.009747214 -0.08089745
0001f0 97 57 8c 3d dc 18 bb bd b2 98 0f bd b9 b7 87 3d
       0.06852644 -0.09135601 -0.03505773 0.06626839
000200 fe c6 84 bb 42 b3 8d bd 15 fd 3f bd 96 a8 2f 3a
       -0.004052042 -0.06918956 -0.046872217 0.00067008415
000210 f7 b9 93 3d f8 a8 ba bd cd 3f bd bc 27 91 93 3d
       0.07213204 -0.091142595 -0.023101712 0.0720542
000220 c1 2b ab ba 6a 6e e6 3c 4c 6a 0c 3c f0 ab 3b 3d
       -0.0013059304 0.028128821 0.008570265 0.04581827
000230 0a c0 12 bd 76 ff e3 bc 90 7b b1 bd 97 98 c7 bb
       -0.035827674 -0.027831774 -0.08666146 -0.006091188
000240 a6 2c 92 3d d7 51 70 3d f5 51 6a 3d 47 56 6e bd
       0.07137422 0.0586718 0.057207067 -0.05818775
000250 e1 38 1e 3d c4 48 1e 3d 59 01 a3 bb b7 f4 7c bd
       0.038628463 0.038643613 -0.004974526 -0.061756816
000260 73 0e 85 3c d1 f8 d9 3c 60 85 15 3d c6 97 d6 bd
       0.016242241 0.026607903 0.03650415 -0.10478167
000270 3a 57 b5 bd 40 36 98 ba 09 5b 09 bd 3c b6 b0 bd
       -0.08854528 -0.0011612847 -0.033534084 -0.086285084
000280 2c fd a4 bd 6b 26 d3 3c ef 85 11 bd bc 3d 68 bd
       -0.08056101 0.025775155 -0.03552812 -0.0566995
000290 5b 42 85 bb 9a 92 7c bd 94 7e d0 bb 56 b2 16 3d
       -0.004066748 -0.061663248 -0.0063627455 0.03679117
0002a0 23 f6 0a 3d 6c fd 95 bd 4b 2d 50 3d 6b 84 5b 3d
       0.03392614 -0.07323727 0.050824445 0.05359308
0002b0 1c 12 47 3d 60 4a 87 bc 0d b9 05 bd b3 35 b9 bc
       0.048601255 -0.016514957 -0.03264718 -0.022608614
0002c0 0e 48 8e 3a 6b 49 e0 bd 76 55 9a 3d 6c 29 b6 3b
       0.0010855214 -0.10951503 0.07535832 0.005559137
0002d0 84 fb 25 3c a8 61 0d 3c 20 12 00 be 4b c5 9b 3c
       0.010130767 0.00862924 -0.12506914 0.019014975
0002e0 7f e8 69 bd 6b 75 a1 3d 55 10 e0 ba ca 8f 63 3b
       -0.05710649 0.07883724 -0.0017094711 0.0034723156
0002f0 a8 9d 54 bd 7c 0a 80 bd 9b e0 95 bd 7c 65 9f bc
       -0.051908165 -0.06252 -0.07318231 -0.019457571
000300 04 80 bf 3d 25 a5 15 3e 81 1a 25 3e d0 db 12 bd
       0.09350589 0.14613779 0.16123392 -0.03585416
000310 97 74 97 3d c7 f2 34 bd 83 3c 67 3d de 9a 58 3e
       0.073952846 -0.044176843 0.056454193 0.21152827
000320 56 ba 32 3d 66 5c 18 be a8 76 86 3d 41 16 ef 3c
       0.043634735 -0.14878997 0.06565601 0.029185416
000330 45 5b d2 3d f8 a8 e7 3c a2 48 ce 3b 1d a7 47 bd
       0.102713145 0.028278813 0.0062952796 -0.048743356
000340 08 9a 5e bc fc 16 0c be 4e 89 13 3e ec ff 9b 3d
       -0.013586529 -0.13680643 0.14407846 0.076171726
000350 74 c0 88 bb 89 01 8e 3c 61 5a 01 3d 33 62 4a 3d
       -0.004173333 0.017334716 0.031580333 0.049410056
000360 05 73 09 bd 75 11 98 bd 19 f0 37 bd 44 35 8a 3d
       -0.033556957 -0.07425205 -0.04490671 0.06748441
000370 76 bd bf 3d 43 bc 73 3d cb 01 e8 bd ae 1c 47 3e
       0.09362309 0.059505712 -0.11328467 0.19444534
000380 b1 4c 2d 3e 54 fc 04 3e c8 95 85 3d 3d d8 42 bd
       0.16923787 0.1298688 0.06522709 -0.047569502
000390 ac 23 13 3e be 3c 0a 3e 74 b1 ac 3d 7e ba d2 bc
       0.14369076 0.13499734 0.08432284 -0.025723692
0003a0 6d 16 52 bc f1 c0 11 3e e9 02 11 3d f3 a8 85 3e
       -0.01282273 0.14233758 0.035403166 0.2610546
0003b0 98 74 dd bd 52 9c 39 3e 29 2f 27 3c 3a 84 5f bd
       -0.10813254 0.18126038 0.010204115 -0.05456946
0003c0 1a e3 de bd 96 7b 95 3d 0f 8b 1c be c2 a7 c8 bc
       -0.1088316 0.07298963 -0.15287422 -0.024494056
0003d0 33 cc 0b bc 0e 6f ab 3d a0 6d 29 3d e1 c7 11 bd
       -0.008532572 0.083707914 0.041364312 -0.03559101
0003e0 86 ac a4 bc 66 65 28 bd 22 12 16 3e 50 80 66 3d
       -0.020101797 -0.041112326 0.14655355 0.056274712
0003f0 c9 06 b3 bc d3 e0 50 3d fe 3e f1 bb f3 1d 63 3d
       -0.021853821 0.05099566 -0.0073622456 0.055448484

lstm.bias_hh_l0 f4 [256]
000000 fe 29 0d 3d d3 44 0f 3e 90 41 11 3e 75 a2 e4 3d
       0.034463875 0.13991098 0.14185166 0.11163799
000010 0b 5c 00 bd 4e e0 f1 3d a6 e5 1e bd 28 05 3b 3d
       -0.03133778 0.11810361 -0.03879323 0.045659214
000020 74 92 4d 3d ba db 66 bd f8 ef 0b 3e 70 e3 bb 3d
       0.050188497 -0.05636189 0.1366576 0.0917424
000030 55 56 9b bd f7 25 a3 bc b2 9e 25 be 34 77 03 3e
       -0.07584826 -0.019915564 -0.16173819 0.12838441
000040 2d 7f 36 3e 86 ee 23 3d d7 40 61 ba 56 94 6f 3c
       0.17821951 0.040022396 -0.0008592731 0.014622768
000050 95 74 fb 3d 76 70 60 bd 6d 09 08 bd f2 3e 6b 3d
       0.12278096 -0.05479475 -0.033212114 0.057433076
000060 6a c5 2a 3c 97 8d 86 bd df 37 a9 3c bf 19 3b bd
       0.010423044 -0.06569975 0.020656524 -0.04567885
000070 3a 90 10 bd 39 4b 1e bc 94 0a 1b bd e2 06 82 3d
       -0.035293795 -0.009661489 -0.037851885 0.06348969
000080 41 6c 98 3c 0a 86 18 3e 3d 6e a2 3d de d9 89 3b
       0.018606307 0.14894882 0.079311825 0.00420688
000090 be 08 36 3e c9 c2 a2 3d e4 c6 41 3e 71 90 f0 bd
       0.17776772 0.079473086 0.18923527 -0.117463
0000a0 ad 1b ba 3d 94 d7 e8 3d d2 70 4b 3d 59 17 84 3e
       0.0908731 0.11369243 0.04966814 0.25799063
0000b0 d6 d4 fb bd 6b bb 7a 3d f8 78 8c bd 21 ca 06 bd
       -0.122964546 0.061213892 -0.068590105 -0.03290761
0000c0 c1 d6 b5 3d de 36 00 3e 98 81 c6 bd b2 03 e6 3c
       0.08878852 0.1252093 -0.09692687 0.028077934
0000d0 d4 9b 49 bd 24 90 bd 3d 2d 96 c9 bd 05 84 cb 3d
       -0.049220875 0.09256008 -0.09843097 0.0993729
0000e0 9b 1f 6e 3c cb 01 81 3d 3b ef 7e 3d 76 c1 8f 3c
       0.0145339025 0.0629917 0.062239867 0.017548304
0000f0 dd 6a 33 3d 8c 96 69 3d 50 57 a6 bd 43 77 0b 3e
       0.043803085 0.05702834 -0.08122122 0.13619713
000100 c4 3a ce 3d 15 31 83 bd 24 46 b9 3d 57 50 5d bd
       0.100698024 -0.06405846 0.090465814 -0.054031696
000110 7e 10 68 bd ca 5b e3 3c 81 8d 28 bd fc dc 65 3e
       -0.056656353 0.02775373 -0.041150574 0.2244758
000120 88 66 27 bd 63 02 35 3d c7 c1 5c bc 33 cd e7 bd
       -0.040869266 0.04419173 -0.0134739345 -0.113184355
000130 d6 eb 8f bd 34 fc 82 3d 4d 9a 46 3d 48 64 f2 3d
       -0.07027404 0.0639576 0.048486996 0.118355334
000140 30 c3 bc bc 74 78 d3 3c ea e0 7d bd f7 1b 6b bc
       -0.023042291 0.025814272 -0.061982073 -0.014349929
000150 51 a1 d8 bc 0d 83 8f 3d 3a d6 f6 3a 19 bd 8b bc
       -0.02644411 0.07007418 0.0018832155 -0.017057942
000160 3e ce 72 be c1 db 81 3c e2 87 12 be e8 f4 9b bd
       -0.23711488 0.015851857 -0.14309648 -0.076150715
000170 d6 55 7d bb 15 25 a0 bd 5a c1 3a bd 4f c4 08 3e
       -0.0038655899 -0.07819573 -0.04559455 0.13356136
000180 b1 9e c3 3c 5e aa 0d 3c 2d a3 a6 3d 05 95 c9 bd
       0.02387938 0.008646576 0.08136592 -0.09842876
000190 1a 84 cd ba 59 2c bb 3c e8 8e a9 3c 7f 3c 79 3d
       -0.0015679628 0.022848295 0.020698026 0.06084871
0001a0 77 69 0b 3e 27 1c 2d 3e 7e 95 49 bc 44 93 31 bd
       0.1361445 0.1690527 -0.012303708 -0.043353334
0001b0 d8 31 ed bb c4 2b a7 3d a2 c5 6d bd 19 24 87 3d
       -0.007238608 0.081626445 -0.058049805 0.06598682
0001c0 42 52 d3 bc 11 be 17 be d6 42 b6 3d 88 b9 88 bd
       -0.02579606 -0.14818598 0.08899467 -0.06676012
0001d0 a2 cd 8a ba 80 6b bb bd f4 49 be 3d 8d 50 0a bd
       -0.0010589848 -0.091513634 0.09291449 -0.033768225
0001e0 8d 05 b6 bd a1 24 0d be 71 ce 6c bd f8 5a df 3a
       -0.088877775 -0.13783504 -0.057814065 0.0017040661
0001f0 e7 4f a3 3d b4 9d 6a bd bc b3 6c 3d 15 f9 9c 3b
       0.079742245 -0.057279304 0.057788596 0.004790435
000200 db a9 35 bd 01 ff 2c bc a6 23 83 3c 72 d9 61 3d
       -0.04435144 -0.010558845 0.01600821 0.055139013
000210 41 b8 f6 bd e2 31 ba 3c 27 83 49 bd 5c 9c 65 bd
       -0.120468624 0.022728864 -0.049197342 -0.05605732
000220 bf 8c 9d 3c 9a 89 b6 3c a9 30 20 bd da bf 25 3d
       0.019232152 0.02228241 -0.039108906 0.040466167
000230 59 58 1e bd 49 7a 79 bc 5c af 8e 3d c2 f0 9e bc
       -0.038658474 -0.015226909 0.06967041 -0.019401912
000240 3f 8c f2 bd 03 71 0e 3d 70 12 90 3c 17 56 31 3d
       -0.11843156 0.034775745 0.017586917 0.043294992
000250 12 f1 fc bd c7 36 86 3d 3e 88 88 bc d0 de 72 3d
       -0.12350668 0.06553417 -0.016666528 0.05929452
000260 11 d2 14 3d 13 48 b5 3d 86 c4 c6 bc 9a 0c d7 3d
       0.036333147 0.08851638 -0.024263632 0.105004504
000270 df 1b 81 3d e8 59 f3 bc 32 8a f1 3c 56 00 00 3e
       0.06304144 -0.029705957 0.029484842 0.12500128
000280 54 06 d4 3d 37 cc 11 bd f2 5b 50 bc 66 e0 2d bc
       0.103527695 -0.035595145 -0.012717234 -0.010612583
000290 cb cd f1 3a f1 43 9f bd 82 74 55 3b ea 69 32 bc
       0.0018448172 -0.07776631 0.0032570665 -0.01088951
0002a0 bd fb 89 3d d6 1d 6c 3d 75 02 00 3d f6 75 b9 bc
       0.067374684 0.05764564 0.031252343 -0.022639256
0002b0 37 4b db 3c bb ac 37 3c ff 97 f5 3b 11 07 e3 3c
       0.026769264 0.011210616 0.007494926 0.02771333
0002c0 78 f5 14 bd c4 d2 e4 3d d9 3c 46 3c dc 95 94 bd
       -0.03636691 0.11173013 0.012099468 -0.07255146
0002d0 48 ba 40 3d f2 ca 9b 3d 24 42 f8 3c 27 6b 62 bd
       0.04705265 0.07607068 0.030304976 -0.05527797
0002e0 09 88 15 3d 6d 4c 97 3d 0b 5d c1 bd dc 93 17 bd
       0.036506686 0.07387624 -0.09441575 -0.037006244
0002f0 e7 ec 25 3c c2 d4 9d bb 35 8d a0 3d a6 0f a0 3d
       0.010127283 -0.0048166225 0.07839433 0.07815485
000300 df af 57 bd ee f4 73 3d 55 e6 c0 3d 20 2b 48 3c
       -0.052657958 0.059559755 0.09418932 0.012217313
000310 27 ac c0 3c 52 60 f3 3d 08 d4 b7 3c ba dc 60 3e
       0.023519589 0.11883606 0.022439972 0.219592
000320 4e 7f ce bc 7e a2 e5 bc 74 f3 2c 3e 7e 7c 33 bd
       -0.025207188 -0.028031584 0.16889745 -0.043819897
000330 b5 2c fb 3d 04 e0 c0 3d 01 83 c3 bd b3 46 77 bd
       0.122643866 0.094177276 -0.095464714 -0.06037016
000340 17 e5 92 bd 35 90 b5 3c 1e 43 6f 3c a1 93 fc bc
       -0.07172602 0.02216349 0.014603404 -0.030832114
000350 2e 5d 6a 3d 73 2f c4 bd 7f 0d 9f 3d f1 4e ed bc
       0.05721777 -0.09579363 0.07766246 -0.028968306
000360 dc 6e 6c bd 70 00 c2 3d 18 eb ba bd d2 6f d7 bd
       -0.05772291 0.0947274 -0.09126872 -0.10519375
000370 db 8b c4 3c 30 a5 a4 3d 94 7f 8a 3c 8f e4 85 3d
       0.02399247 0.080393195 0.016906537 0.06537735
000380 f9 25 a1 bc da fc e6 3d 3d 9d 77 3d 86 a8 03 bd
       -0.019671427 0.11278696 0.06045269 -0.03214314
000390 a9 d7 10 bc 0d 77 c1 3b 5f 94 09 bc 73 dc f7 bd
       -0.00884048 0.0059040845 -0.008397191 -0.12102594
0003a0 b6 d2 d8 bd b3 95 46 3e d8 90 11 be 8e 2a be 3d
       -0.10587065 0.19393043 -0.1421541 0.092854604
0003b0 8e 52 c6 bc a6 c0 79 3c 87 97 87 bc fc d9 5c bd
       -0.024209287 0.015243685 -0.016551746 -0.053918824
0003c0 fd 10 e1 3b ab d9 b5 3d 4d fc 35 3d 52 d0 72 3d
       0.0068684802 0.088794075 0.044430066 0.0592807
0003d0 3e dc a8 bd 7b 33 52 3e 28 f5 d2 3d 80 8a dc 3d
       -0.08245133 0.2052745 0.10300666 0.10768604
0003e0 67 4f 95 3d b0 54 73 3d 2e 27 5a 3c 78 27 05 bd
       0.072905354 0.059406936 0.013315005 -0.032508343
0003f0 7b 3a 7e bd f0 11 40 39 63 0e 07 3d 14 dc ef 3c
       -0.06206749 0.00018317229 0.032972705 0.029279746

lstm.weight_ih_l1 f4 [256, 64]
000000 76 96 b1 3d 72 04 0f 3e 85 af 43 bb be 26 81 3d
       0.08671276 0.1396654 -0.0029859256 0.063062176
000010 61 92 e4 3d 7a 30 fd bb c1 4e 35 3e cc f2 8a bc
       0.11160732 -0.007726726 0.17705823 -0.016961478
000020 73 a1 1c 3c 33 87 9f 3d ac f2 12 bd c8 b9 5a 3d
       0.009559977 0.07789459 -0.03587596 0.05339983
000030 2a 85 b3 3b a5 16 d1 3d 5a 4b 08 be 49 5c 8f bc
       0.005478521 0.10209397 -0.13309994 -0.01750006
000040 65 61 d2 3d 06 ba 4a bd 55 0e e9 3d f9 2a 4b bd
       0.10272483 -0.049493812 0.11379687 -0.04960153
000050 d8 a4 55 3d e3 eb d3 3c 31 9e a5 3d ab da b2 bd
       0.05215916 0.025869315 0.08086813 -0.08733114
000060 06 db 0c 3e da 36 a4 3c be bf b1 bb 46 4e a7 bc
       0.13755426 0.020045687 -0.005424469 -0.020423066
000070 08 02 0b be 5d ff 4f 3e 1d 93 66 3d 75 42 50 3d
       -0.13574994 0.20312257 0.056292642 0.05084463
000080 9f a9 44 3d c5 0e 0b bc d9 49 bd bd 43 5f 5b bd
       0.048013326 -0.008487408 -0.09242601 -0.053557646
000090 bb b2 15 3d 97 23 74 bd 30 a8 88 3c f2 9f 46 3d
       0.036547404 -0.059604254 0.01668176 0.04849238
0000a0 94 9c a5 bc 15 b5 ea bd e4 c1 b6 3c 22 b3 4e bd
       -0.020216264 -0.1146032 0.022309251 -0.050463803
0000b0 77 95 30 3e 9d f4 87 3d 36 f8 0d bd 6a 1f 13 bd
       0.17244516 0.06638453 -0.03466054 -0.03591863
0000c0 c4 d7 62 bd ad dd 30 3e c1 7a 92 3d d6 dd 5d bd
       -0.05538155 0.17272063 0.0715232 -0.054166637
0000d0 d6 1c d8 3d ed 89 81 bc 7e 3f 07 3e 5d 8e 79 3d
       0.10552375 -0.015812838 0.13207814 0.060926784
0000e0 34 d4 1f bd a7 70 dc bc c4 60 2d bb f1 97 ed 3d
       -0.039020732 -0.026909186 -0.0026455382 0.11601246
0000f0 54 b3 b7 3d 9d 66 bf bd d4 3c 0f bc 90 33 a9 bc
       0.08969751 -0.09345744 -0.00874253 -0.02065447
000100 9b ee 09 3c 36 5a ea bd 95 6c c9 bd ca 9b 2f 3d
       0.008418704 -0.114429876 -0.098351635 0.04287318
000110 c2 a7 cf bc a8 21 b6 3d 8d 62 67 3d 13 2c 38 3e
       -0.025348548 0.08893138 0.05649047 0.17985563
000120 79 cf 74 bd 62 70 06 3e 27 ea 10 be 7a 6b 95 3d
       -0.059768174 0.13128808 -0.14151822 0.0729589
000130 61 7e 0e 3d 5a 90 dc bd 27 fa 6e bd 69 70 0f be
       0.034788493 -0.107697204 -0.058344033 -0.14007725
000140 94 51 cd bd 53 51 de bd ab d7 43 3d 0f cc b3 bd
       -0.100253254 -0.10855355 0.0478131 -0.087791555
000150 64 d5 69 bd 2b 6f ce bd c1 9c df 3d 03 72 e5 3d
       -0.05708827 -0.10079797 0.1091857 0.11203387
000160 ca 7f 1b 3e 65 dc 9d 3d 6e e9 1c 3c 1b 34 f5 bc
       0.15185466 0.077080525 0.009577138 -0.029932072
000170 01 55 f0 3c 3e be 1d 3c f0 12 ba bc 42 44 ee 3d
       0.029337408 0.009627877 -0.022714108 0.11634113
000180 82 43 e8 bd fa be 35 bd d4 df 95 3d 5d 36 e1 3d
       -0.11341001 -0.044371583 0.073180825 0.10996697
000190 86 05 1d 3e 16 2b 41 bd 83 68 63 3d 0b 2c df bd
       0.15334138 -0.04716023 0.055519592 -0.108970724
0001a0 60 17 9c 3d ac 03 9a bd e4 ab 0a be 71 43 d5 3b
       0.07621646 -0.075202316 -0.13542134 0.006508284
0001b0 d7 35 02 be 95 60 ba 3b a4 b9 a7 bb 14 96 5d bd
       -0.12715851 0.005687783 -0.0051185656 -0.054098204
0001c0 61 cf 56 3b e8 2b 8e bd 72 d4 8f 3d c5 ed 55 bb
       0.0032777416 -0.06941968 0.070229426 -0.0032642942
0001d0 02 32 aa bc 90 1d bd bd 85 43 2f 3c 9a 0f d0 3d
       -0.020775799 -0.09234154 0.01069725 0.10159226
0001e0 e0 03 be bc fd 23 7e 3d 1f ee 28 3d f4 33 9d bd
       -0.023195207 0.06204604 0.041242715 -0.07675925
0001f0 07 f0 83 bd 9c 83 d7 bd 54 27 c5 bd 38 5f 88 bc
       -0.06442266 -0.10523149 -0.09626642 -0.016646966
000200 8d 72 08 3e e9 84 90 bc 04 f5 5d be f5 fd d7 bc
       0.13324948 -0.017641502 -0.21675497 -0.026366213
000210 24 97 50 3d 14 81 03 3e 16 9d 17 3d 2c de 17 3e
       0.05092539 0.12842208 0.037015043 0.14830846
000220 6d 8b d1 bd 92 b7 07 be 94 28 89 3d 57 72 28 bd
       -0.102316715 -0.1325362 0.06697193 -0.041124668
000230 23 92 92 bd a4 65 56 bd 48 80 f7 bd e3 e3 e4 bc
       -0.071567796 -0.052343026 -0.120850146 -0.027940696
000240 1f 4b 47 3c 3a 8e b9 bd 45 83 e1 3c 8c 51 9a 3d
       0.012163906 -0.09060331 0.027528415 0.07535085
000250 0b 4c d1 bd a2 57 ae bc 00 e6 d0 3d c1 a4 fd bd
       -0.10219582 -0.021282021 0.10200119 -0.1238494
000260 6b 0e 7a bc 52 e6 7b 3d 07 80 11 bd 91 44 af 3d
       -0.015262227 0.061498947 -0.035522487 0.08558
000270 22 84 c7 bd 84 64 75 3c 7c 74 c1 bd 09 f8 3b be
       -0.09741999 0.014977578 -0.09446046 -0.18356337
000280 78 ad a7 bc c3 38 4f 3d c1 69 81 bd 65 84 9d 3d
       -0.020468459 0.05059124 -0.06318999 0.07691268
000290 65 04 36 3c 53 05 de 3a 00 b6 b8 3d c9 3a 2c 3c
       0.011109446 0.0016938843 0.09019089 0.010512062
0002a0 64 15 2d 3d ed e8 55 bd 95 78 18 be fe a0 3d 3e
       0.042256728 -0.05222409 -0.14889748 0.18518445
0002b0 01 e1 0f bd 83 4a ff 3c c2 d3 02 3e 6b d2 96 bd
       -0.03512669 0.03116346 0.12776092 -0.07364353
0002c0 b2 e2 0e 3e ae d7 b4 bc f3 b1 b7 bd 29 a7 af 3c
       0.13953665 -0.0220755 -0.08969488 0.021442013
0002d0 96 29 a1 3d c9 59 2e 3c 23 21 b9 3d 05 66 dc 3d
       0.0786926 0.010641524 0.090395235 0.10761646
0002e0 d2 60 72 be fa 1f b0 bd 15 fc 72 bd a6 fd 21 3e
       -0.23669747 -0.08599849 -0.059322435 0.15819415
0002f0 0a 11 c8 3c 5c 55 3b 3c d6 9c 12 3e 10 5f dd 3d
       0.024422187 0.0114339255 0.1431764 0.10809147
000300 8a fc e4 3c 42 da 11 bc f3 65 6d bd c5 5d a1 bd
       0.027952451 -0.008902134 -0.057958554 -0.07879213
000310 9a 93 0b be f8 3f 1b bd 76 28 9a 3c 92 7d 8c 3d
       -0.13630524 -0.037902802 0.018818121 0.06859888
000320 27 3b 40 bc c0 8e f6 3c 88 79 2d bc 33 d5 c0 3c
       -0.011732853 0.030097365 -0.010588057 0.023539161
000330 14 a2 f1 3d 04 c8 53 bd 01 ad 24 3c 98 b7 45 bd
       0.11798492 -0.05170442 0.010051013 -0.04827079
000340 21 5f c3 3d c9 d5 e0 bd 1c 3a 29 be 8f 7e 29 3d
       0.09539629 -0.10978276 -0.16526073 0.04138046
000350 6d 95 78 3d 8f 4e c6 bd 29 30 35 bd 10 b9 1e 3d
       0.06068938 -0.096829526 -0.044235382 0.038750708
000360 ef 1e 09 be 7a 3f 2f bd 21 a9 b2 3d 5a 07 bc bd
       -0.13390706 -0.042785145 0.08723665 -0.0918109
000370 e8 6e e8 bd 60 f5 c1 bd 40 d5 6b 3b 9c fe be bd
       -0.11349279 -0.0947063 0.0035985261 -0.09325907
000380 7a 04 84 3b 2f 2a 8d bd 67 5d 68 3d c1 90 25 bd
       0.004028854 -0.068928115 0.0567297 -0.04042125
000390 f4 0a 97 bd 46 94 a9 bd bb 22 05 3e 7c 5a d0 3d
       -0.07375136 -0.08280234 0.1300153 0.101735085
0003a0 86 f6 1a 3d 82 19 60 3d 08 12 44 bd d3 37 15 bd
       0.03783276 0.054711826 -0.04786876 -0.03643019
0003b0 7b 39 6d bd e6 28 7c bd 2d 31 45 3d 98 98 c5 bc
       -0.057916146 -0.06156244 0.0481426 -0.024120614
0003c0 6b 57 b4 bc 3d 31 38 3d d2 14 95 3d 38 ef 7d bd
       -0.02201434 0.044968832 0.07279362 -0.061995715
0003d0 18 3e 38 bd 0b 17 e5 bd eb ad ff 3b 89 9b 41 bd
       -0.044981092 -0.11186036 0.007802715 -0.04726747
0003e0 99 2b 95 bd ad 4a a5 bd 44 0d c3 bb d0 06 c5 bd
       -0.07283706 -0.08070884 -0.005952509 -0.0962044
0003f0 d9 c0 68 bd 00 32 40 3c 8d ab d1 bc 8b a6 e9 3b
       -0.05682454 0.011730671 -0.025594497 0.007130449

lstm.weight_hh_l1 f4 [256, 64]
000000 32 68 a8 bd 3c 64 84 bd 92 22 b2 3d cc 08 2c bc
       -0.08222999 -0.06464431 0.08698 -0.010500144
000010 8f f4 54 bd c3 99 e7 3c 07 83 b5 3c 31 73 55 3b
       -0.05199104 0.028271561 0.022157205 0.003256988
000020 46 f1 b8 bd f9 d5 0f be ed 1d 13 be 2a 54 9c 3d
       -0.09030394 -0.14046468 -0.14366885 0.076332405
000030 d3 58 83 bd fb ee 53 be e7 14 b0 3d 92 56 b3 3d
       -0.06413426 -0.20696633 0.08597737 0.08756746
000040 d0 d2 00 3d cf 3c 03 bd 9d 2b d1 3d 5e 3d 05 bd
       0.031451046 -0.032040413 0.10213397 -0.032529227
000050 e1 cf 43 be f7 a5 26 3e 0f 66 8f bd 9b c0 bb bd
       -0.19122268 0.16274248 -0.07001888 -0.09167596
000060 40 65 b5 3d 78 57 d7 bc 5b 84 14 3e c4 fd bd bc
       0.088572025 -0.026286826 0.14503615 -0.023192294
000070 94 ac 16 be be 19 37 be 63 5e 23 bd 9c 86 7c bc
       -0.14714271 -0.17880914 -0.039884936 -0.015412953
000080 01 53 5d 3b f4 65 d4 bc d9 5f 47 bc 56 6c 3a be
       0.0033771398 -0.025927521 -0.012168848 -0.1820539
000090 51 da c8 3d ea 50 ee bd cb 21 9c 3d c2 80 66 bd
       0.098072655 -0.11636527 0.07623633 -0.056275137
0000a0 34 49 16 3e 93 e9 a8 bd 9e c8 6b 3d fe 5e 8c bd
       0.14676362 -0.08247676 0.05756437 -0.06854056
0000b0 af d8 ba bb 39 a6 09 be 18 d3 be 3d 0d 7d 8a 3d
       -0.0057021 -0.13442315 0.09317607 0.06762133
0000c0 98 cf 23 be 22 ab d0 3d 8d e8 00 be cc 19 35 bd
       -0.1599716 0.10188891 -0.12588711 -0.044214055
0000d0 da db 0e 3e f5 7b 2e bc c4 9c b0 3d 04 98 59 3d
       0.13951054 -0.010649671 0.08623651 0.05312349
0000e0 3e c5 0b 3e 98 91 8b 3d 5a 3c 42 3d 64 c8 83 3d
       0.1364946 0.06814879 0.047420837 0.06434706
0000f0 bd 2b bb bd b3 0f ff bd aa 90 03 bc 83 d6 92 3d
       -0.09139202 -0.12454166 -0.008030096 0.07169821
000100 89 de dd 3d 3c 8c 1d 3e 47 64 0b 3e ce 48 97 3c
       0.10833461 0.15385526 0.13612472 0.018467333
000110 e5 3b f8 bd 0d b9 0f 3e 9c 63 2d 3c 0e 96 9d 3d
       -0.12120799 0.14035435 0.010582831 0.07694636
000120 84 d5 8e bc 54 cd 06 bd aa dc 77 3d 30 e5 0b be
       -0.017435797 -0.03291066 0.060513176 -0.13661647
000130 9f b3 ab 3d 8a d2 65 3d 6d 7e 2b bd e0 c5 39 3e
       0.083838694 0.05610899 -0.041868616 0.1814189
000140 d5 bb c6 3d 02 f9 30 bc f1 65 0d 3d 7d 53 7b 3d
       0.09703795 -0.010801556 0.034521047 0.061358918
000150 d9 27 b8 bd 50 96 ce bd 0b 0f 44 3d a6 e6 0d be
       -0.08991975 -0.100872636 0.04786591 -0.13857517
000160 12 fe 75 bd b8 b5 07 bb cf c2 b7 3d 33 04 fc bc
       -0.060056753 -0.0020707678 0.08972704 -0.030763721
000170 3a b4 12 3e 34 97 54 bd a4 cb d8 3c fa f0 45 3c
       0.14326563 -0.05190201 0.02646429 0.012081379
000180 af 50 79 bd 14 1c 86 3d f7 e9 bb 3d b5 20 26 bc
       -0.06086796 0.06548324 0.09175485 -0.010139634
000190 fe 3f 22 3e 74 19 c9 bd 10 03 19 bc 63 d9 00 3e
       0.15844724 -0.09819308 -0.009339109 0.12582926
0001a0 9a f7 64 bc 60 71 28 bd 11 c5 21 3d c8 35 0e 3d
       -0.013975048 -0.041123748 0.039494578 0.03471926
0001b0 1b fb 58 3d f8 92 c4 bd b3 f6 e3 bc 6f a2 13 3c
       0.052973848 -0.095983446 -0.027827596 0.009010895
0001c0 65 8e cf 3c 92 01 2f 3e f4 a6 14 be dc 89 f9 3c
       0.025336454 0.17090443 -0.14516813 0.030461244
0001d0 05 f7 88 3d 05 e2 3d 3d c5 cd cf bd b2 a2 57 3d
       0.0668774 0.046358127 -0.10146669 0.052645393
0001e0 54 78 c8 3d 01 87 7d bb 12 36 f0 bd e4 75 33 3d
       0.09788576 -0.0038685205 -0.11729063 0.0438136
0001f0 83 40 5f 3d 70 f6 b4 bd 8a 24 6f bd 79 2e 12 3e
       0.054504883 -0.08836067 -0.058384456 0.1427554
000200 ce e1 ec 3d 42 4e d7 3d a3 c5 65 bb 81 9e 38 3e
       0.11566506 0.10512973 -0.0035060428 0.18029214
000210 73 94 0d be 59 5a ed 3c ec 88 b3 3c f0 7d 08 bd
       -0.1382616 0.028973745 0.021915875 -0.03332323
000220 b7 7d 83 bd 45 dd 6b bd 02 ab af 3d b9 56 8f be
       -0.064204626 -0.057584066 0.08577539 -0.27995852
000230 60 c6 23 3e 22 ef 0f 3d 1f bd 4e 3e 84 57 05 3d
       0.15993643 0.035140164 0.20189331 0.032554165
000240 d0 b9 61 3d 7f 44 3f 3e 4c a2 fd 3d 9f e2 83 3d
       0.055108845 0.18678473 0.12384471 0.06439709
000250 ac 05 3a 3d 18 fb 9c bd fe 7e a3 3d e8 64 40 be
       0.045415565 -0.0766508 0.07983206 -0.18788493
000260 7f 2c 52 bd 73 aa 89 bd e4 fd a2 bd 07 f2 21 3d
       -0.051311966 -0.06721964 -0.07958582 0.039537456
000270 bf de 02 3e 1e b1 27 be 00 f6 cd bd 74 a3 ab 3c
       0.12780283 -0.16376159 -0.100566864 0.020951964
000280 ea 29 87 bd 29 54 61 bd 20 83 85 3d 34 fd a3 3d
       -0.06599791 -0.055011902 0.06519151 0.08007279
000290 ad a3 3c 3e 18 29 07 3e 70 1a 52 bd fe 63 6f 3d
       0.18421812 0.1319927 -0.051294744 0.05844497
0002a0 23 f2 dd 3d c2 8f 07 be c8 6c 0c 3e c5 4c 77 be
       0.108371995 -0.13238433 0.13713372 -0.24150379
0002b0 d8 2c 17 3e ff 16 b5 3d 10 9f e2 3d 3f 88 9d 3d
       0.147632 0.08842277 0.11065495 0.076920025
0002c0 c0 4a 09 3d ef 1d 2f 3e d8 48 45 be 70 c2 a6 3d
       0.033518553 0.17101263 -0.19266069 0.08142555
0002d0 bb 79 35 3d 99 95 76 bb 7e 91 93 bd 03 0a bd 3d
       0.044305544 -0.0037625788 -0.07205485 0.09230425
0002e0 2c bf 87 3b 96 77 fb 3c cc 54 b0 bc 4f ff 13 3c
       0.0041426625 0.030696671 -0.02152481 0.009033038
0002f0 00 15 e9 bc d8 36 31 bc 2c a0 ac bd 81 fa c6 3d
       -0.028452396 -0.010816298 -0.08428988 0.097157486
000300 34 a9 86 3d 67 13 9f 3d 99 19 13 bd 6e f4 be bd
       0.06575242 0.077673726 -0.035913084 -0.09323965
000310 22 39 41 bb 2b e5 10 3d d4 fc f3 3d 40 91 f7 3d
       -0.0029483517 0.0353748 0.119134575 0.12088251
000320 59 54 ff 3c a2 65 08 3d 88 e6 5c 3d 6a 2d d3 3b
       0.03116815 0.03330005 0.05393079 0.0064446228
000330 0d 90 ff 3c 30 c4 66 3d 56 b0 bd 3d f6 91 6e bd
       0.031196618 0.056339443 0.09262149 -0.058244668
000340 fa e2 93 bd f1 55 e4 3d ec cd 36 3d 90 6a 07 3d
       -0.07221027 0.111492045 0.044629976 0.03306061
000350 1d e8 16 3c fa ec 07 be d2 c2 e8 bd 1a ce 18 3e
       0.009210614 -0.13273993 -0.11365284 0.14922372
000360 de a5 cd 3d f8 15 8e bc 6d e2 a8 3c 36 2c 96 bd
       0.10041402 -0.01734446 0.02061578 -0.07332651
000370 fb a7 15 bd 22 08 52 bc c9 c7 cd bd 79 9c a3 3d
       -0.03653715 -0.012819322 -0.100478716 0.07988829
000380 a2 67 b4 3d 03 b9 ea bc a8 76 d2 3c 56 b1 f9 3d
       0.08808829 -0.028652674 0.025691345 0.12192027
000390 f6 e5 35 3c de 8a ff bb fe f9 50 3d e3 38 bf 3d
       0.01110219 -0.0077985367 0.05101966 0.09337022
0003a0 14 00 13 bd 7a 02 82 3d 00 ec 2c bd 54 5c f6 bc
       -0.035888746 0.063481286 -0.042217255 -0.030073322
0003b0 b5 99 3d 3c bb 6e 6f bd 00 ec 8f 3d d6 7f 0d 3e
       0.011572291 -0.05845521 0.07027435 0.13818297
0003c0 7f e4 bf 3c c9 fd 68 bc 48 af ee 3d ac d2 a4 bd
       0.023424385 -0.014220663 0.11654526 -0.08047995
0003d0 51 e6 41 3e e5 06 12 bd 04 19 2a bd 32 61 64 bd
       0.18935515 -0.035651106 -0.041527763 -0.055756755
0003e0 d3 4e ab 3d 50 70 82 3d 54 2f 1f bd ea a2 ad 3b
       0.08364644 0.06369078 -0.038863495 0.005298962
0003f0 5d 05 bb 3d f4 38 ea bc f6 85 bc 3d c1 86 b2 3d
       0.09131882 -0.02859161 0.092052385 0.087171085

lstm.bias_ih_l1 f4 [256]
000000 db d7 01 bc ba 23 f9 bc f6 23 8f bd d9 b0 dc 3d
       -0.007924999 -0.030412544 -0.06989281 0.107759185
000010 3c 5a 7e 3d e4 28 4c bd 45 0e ab bd f5 05 ec bd
       0.062097773 -0.049843684 -0.08352331 -0.11524574
000020 62 73 46 3d d1 35 a1 bd e3 88 29 be 3d 36 fc bc
       0.04844988 -0.07871593 -0.16556124 -0.030787582
000030 a8 87 02 3e fd 5a d3 3b d9 06 cf bd 2c bb 14 be
       0.12747061 0.0064500556 -0.10108728 -0.14524525
000040 93 2a 07 3e 3e 11 6d 3d d8 ce 30 bc b6 5b 18 be
       0.13199835 0.05787777 -0.010791503 -0.14878735
000050 c2 cd d0 bc ce 19 91 bd c2 50 d8 bd 62 43 38 be
       -0.025488738 -0.07085 -0.10562278 -0.17994455
000060 6f 63 6c 3d 2e 0a 38 3d 61 03 f5 bc 7e e2 94 bd
       0.057712015 0.044931583 -0.029908838 -0.072697625
000070 67 0c 40 3c 92 ab a8 bc 25 aa 11 be 7e f7 bb 3c
       0.011721707 -0.020589624 -0.14225061 0.022945162
000080 f0 51 f1 bc e9 d5 3c bc a7 b6 ef 3d c1 3a 05 3e
       -0.029458016 -0.0115256095 0.1170476 0.13010694
000090 80 8c 8c 3c 34 01 3b bd 74 5c d5 bd eb 2f 0e bd
       0.01715684 -0.045655444 -0.10418025 -0.034713667
0000a0 03 7f fb 3c c2 85 7c 3d f3 13 9a bd 67 60 8b 3d
       0.030700212 0.061651 -0.07523336 0.06805497
0000b0 06 03 1d be 3d c5 58 3c cb 80 97 bd 53 54 bf bc
       -0.15333185 0.013230619 -0.07397612 -0.023355639
0000c0 65 30 6b 3c 0a 72 a2 bd a0 38 46 3e b7 5f 3c 3c
       0.0143548 -0.079319075 0.19357538 0.01149743
0000d0 59 1e d1 bd 36 a9 c5 bd 86 fd ac 3d b3 3c 70 3d
       -0.102108665 -0.09651415 0.08446793 0.058651637
0000e0 b2 53 f5 3d 85 a5 a1 bd c5 80 2a 3d fc 05 0c 3e
       0.11978854 -0.078928985 0.04162671 0.13674158
0000f0 2e e3 8c 3c 56 42 c4 bd 58 45 ae bd 60 37 45 bc
       0.017198171 -0.09582965 -0.0850932 -0.012037128
000100 23 fb ac 3d 95 28 84 bb 67 84 bb bc a4 c6 30 bd
       0.08446338 -0.004033158 -0.022890283 -0.04315819
000110 fe 4a bb bd f9 68 c8 bd 8f 29 dd bd 1b bf 13 bd
       -0.09145163 -0.09785647 -0.10798942 -0.036070924
000120 62 83 96 3c db 92 8b bd db 0f 86 3d d4 b7 9a 3d
       0.018373195 -0.0681512 0.06545993 0.07554594
000130 f8 de 32 3c e5 21 94 3c 2f 76 9f 3d 5c f9 f6 bd
       0.010917418 0.018082568 0.077862136 -0.1205928
000140 5b 63 e8 bc 19 74 03 be 61 6e a6 3d 85 70 33 bd
       -0.028367689 -0.12837256 0.08126522 -0.04380848
000150 8b 19 12 3a 8b 12 04 3e e7 b7 64 bd f5 49 90 3d
       0.0005573264 0.12897699 -0.055839445 0.07045356
000160 94 32 3c bd 7a 43 ea bd 09 35 a4 bc 1d 64 db bc
       -0.045946673 -0.114386514 -0.02004482 -0.026781136
000170 d6 b2 4b bd af e4 5b bd cc f9 1f bd 4d 9f 2b 3c
       -0.049731098 -0.053684887 -0.039056584 0.010474992
000180 3e bd ea 3d a4 5d 40 bd 0d 48 6a 3c 7c 6c 81 bd
       0.11461876 -0.046964303 0.014299405 -0.0631952
000190 da fa 51 3d 06 71 1b be b3 2f 8b bd 1c 21 ce bd
       0.05126462 -0.15179834 -0.06796207 -0.10064909
0001a0 c3 fd fa 3d 33 0a be bd e9 34 22 3d 86 32 2b 3e
       0.122554325 -0.09279289 0.03960124 0.16718492
0001b0 e1 aa a0 bd e6 6c da 3b 05 d3 30 be 76 c8 d1 bd
       -0.078450926 0.0066658137 -0.17267998 -0.10243313
0001c0 7c dd 87 3d 46 e2 40 3d 01 ff ff bd ca b1 14 bd
       0.06634042 0.04709079 -0.1249981 -0.036302365
0001d0 f7 f6 b4 bd ca 94 98 bd 8a e7 48 3d 48 29 bd bd
       -0.08836167 -0.07450254 0.049048938 -0.092363894
0001e0 2b c4 0a 3d ae 6f c2 bd 05 c4 07 be e8 ba 35 3d
       0.033878487 -0.094939575 -0.1325837 0.0443677
0001f0 89 5d 2a bc 62 9b b5 3c 37 10 de bd cb 7c d6 3c
       -0.010398277 0.022168819 -0.108429365 0.026182553
000200 ee 72 ac bd 59 36 c6 bd 5a d3 8f bc 71 f9 1e bc
       -0.084203586 -0.09678335 -0.017556835 -0.009703026
000210 1b eb c7 3c 6c b1 63 3b f3 d9 bd bd 54 07 a3 39
       0.0244041 0.0034743203 -0.09270086 0.00031095243
000220 59 14 72 bd 4b 6a a8 bd 8a e6 b9 bd ac 64 70 3d
       -0.059101436 -0.08223399 -0.09077175 0.05868976
000230 71 61 ae 3d 5b e0 38 bd 69 b6 5b 3d 91 53 96 bd
       0.08514679 -0.045135837 0.053640757 -0.07340158
000240 77 49 52 3d 23 6c 99 bd c4 4d 07 3d 53 a9 93 bd
       0.051339593 -0.074913286 0.033033147 -0.072100304
000250 10 ce e8 3d 62 72 ee bd e6 27 ca 3c 6f 26 2a 3c
       0.11367428 -0.116429105 0.024677228 0.01038514
000260 c1 ab 78 3d 4f 1a ac bd d7 68 d1 3d ea 86 67 3d
       0.060710672 -0.084034555 0.10225075 0.05652515
000270 51 74 a0 bd 04 05 61 3d 2e 2d 97 3d 3d 55 3e bd
       -0.078346856 0.054936424 0.07381664 -0.04646801
000280 a8 b7 ad bd bd 50 39 3d f8 66 36 3c 4a 22 c4 3d
       -0.08482295 0.045243014 0.011132948 0.095768526
000290 47 f4 84 bd 4c f4 8b bd f4 bc 01 be d2 d7 fc 3b
       -0.06491905 -0.06833705 -0.12669736 0.0077161575
0002a0 07 b5 bf bd 32 c2 da 3a 9a 9c 94 bd a7 c8 8d 3d
       -0.093607 0.0016689955 -0.07256432 0.06923037
0002b0 6c be 2a 3d 03 47 de bd 89 69 0a bd f7 8d b9 3d
       0.041685507 -0.10853388 -0.033792052 0.09060281
0002c0 a7 06 d5 bc 0e 74 db bd b7 27 05 3e 80 d0 a8 3c
       -0.026004149 -0.10715495 0.13003431 0.020607233
0002d0 b7 77 38 3d 7c 17 5e 3d 74 2e 02 bd 13 54 ae bd
       0.045036044 0.054221615 -0.031782582 -0.0851213
0002e0 28 d2 0a 3e ae e0 dd 3d 82 8c 97 3d 37 6c 50 bd
       0.13556731 0.1083387 0.073998466 -0.05088445
0002f0 2e a4 99 3d 25 9b cf bb 13 53 8e 3c 6c 60 c3 bd
       0.07502018 -0.0063356333 0.017373597 -0.095398754
000300 6a 8e c2 3d 4c ef 05 be b6 eb 49 be 7e e9 19 3d
       0.094998196 -0.13079566 -0.19718823 0.03757619
000310 a2 9b 87 3d 26 91 de bd bf de 21 3d f1 72 80 3d
       0.066214815 -0.108675286 0.039519068 0.06271923
000320 b2 0c 9e bd 58 67 88 bc 45 d1 25 be 2a b4 5a bc
       -0.07717265 -0.01665084 -0.16193111 -0.0133486185
000330 9a df 99 3c 5b 3d 2f bd ca 4d e3 3c 82 f3 09 be
       0.01878338 -0.042783123 0.027747054 -0.13471797
000340 ac 96 57 3d 9c 5c b3 3d 8b db e8 bc 22 fb 0e be
       0.052633926 0.08757898 -0.028424999 -0.13962987
000350 19 af cc bd 39 31 a3 3d 91 da 43 bd 3b e2 27 be
       -0.09994335 0.07968373 -0.047815863 -0.16394894
000360 cf 84 87 3d b5 49 dd bc 60 25 91 3d 18 5c 43 be
       0.06617128 -0.027012685 0.07087207 -0.190781
000370 73 66 c2 bd 41 12 16 bd 49 fc 62 be 1e ef f5 bd
       -0.09492197 -0.036638502 -0.22166552 -0.120084986
000380 22 60 02 3d bf 0f 47 be 32 19 10 be 82 6b 5e bd
       0.03182996 -0.194396 -0.14072111 -0.054301746
000390 f6 77 b1 bd d3 6c b5 bc 31 67 86 3d 95 b7 13 be
       -0.08665459 -0.022146618 0.06562651 -0.144255
0003a0 1e e4 de bd 16 cc e4 bd 36 99 89 bd 01 6b 02 3d
       -0.10883354 -0.11171739 -0.06718676 0.031840328
0003b0 da c7 04 bd 36 69 85 3d b8 d6 a8 bc 50 76 86 bd
       -0.032417156 0.06514208 -0.020610198 -0.06565535
0003c0 71 6d 9d 3d f6 05 58 3c f4 a2 29 3e f4 e0 f5 bc
       0.0768689 0.013185015 0.16566068 -0.030014493
0003d0 b3 28 17 be d6 36 88 bd bb 29 05 be c4 e7 01 be
       -0.1476162 -0.06651084 -0.130042 -0.12686068
0003e0 8c b3 95 3d a8 25 4d be 00 7d 0f 3d d9 3d d4 3c
       0.073096365 -0.20033896 0.03503132 0.025908398
0003f0 3c 48 02 3e 87 d3 e9 bd 77 4f 3a be 1f 5f f3 bd
       0.12722868 -0.11417299 -0.18194376 -0.11883377
