results/lstm_eeg_model.pth (torch, 836578 bytes, 12 tensors)

lstm.weight_ih_l0 f4 [512, 1]
0.06891501 0.106996454 0.2665888 0.07719031 0.22247326 0.08150824 -0.1341238 0.23337922
0.15348613 -0.03775535 0.073444836 0.00024987262 -0.0128048 -0.17199951 0.17127573 -0.017603189
0.17632273 0.17064859 0.2984859 0.08704631 -0.1359364 -0.002136311 -0.15081878 -0.18855064
0.0784045 0.2813106 0.30512413 0.39326188 0.13114232 0.096765615 -0.23257782 -0.14014956
-0.18252678 0.19624777 0.114311576 0.1392389 -0.18639475 0.002141349 0.07733728 -0.027789742
0.18532842 -0.266527 -0.04629106 0.081149384 -0.06531464 0.1338582 0.28301486 0.13607569
-0.14614244 0.06326077 0.09680836 0.038216993 0.006990256 0.01814268 -0.17323422 -0.1387589
0.13453643 -0.048697844 0.14384712 -0.04672225 -0.04497062 0.16465235 0.0060548233 0.077727415
0.16670215 -0.021278571 -0.094472416 0.12909497 0.2173761 0.18114984 0.37095132 0.279577
0.10759117 0.122588865 0.020604167 -0.20684935 0.120597735 -0.034086317 0.1324788 0.06777307
-0.16793077 -0.023168191 -0.020753706 0.0725506 -0.07759423 -0.10433911 -0.15921333 -0.13606659
0.29793584 -0.07085579 0.25068316 0.13719709 -0.15523723 0.08711049 0.2650509 0.17709705
0.072121255 0.2265503 0.20376518 0.13705984 0.19053105 -0.07637236 -0.1222305 0.1733161
-0.12803401 -0.20911631 -0.06370762 0.16698743 0.22479144 0.089577354 0.0315032 0.10564459
0.11866409 -0.004634034 -0.18396252 -0.07587022 -0.12589912 0.001445546 0.28285712 0.2966133
0.070340686 0.3548255 0.27534044 0.039357916 0.040090416 0.2801262 0.21037255 -0.04527888
0.04940638 -0.0025212092 -0.24221478 0.028705722 0.2467797 -0.14337918 0.06488577 -0.07541443
0.05822228 0.20379682 -0.061846647 0.18878211 -0.03677038 -0.51606226 -0.08855003 -0.12144504
0.020980304 0.17642078 -0.46664095 -0.20946075 -0.12949371 -0.38027292 -0.05846868 -0.030518599
0.00079537823 -0.06731341 0.05081513 -0.030748028 -0.009481989 0.09232724 0.30346087 0.254168
-0.12998404 -0.058250953 0.11900158 -0.47277063 0.2098075 0.093409784 -0.33845907 -0.22051382
-0.11774035 0.11084222 0.031232664 -0.062106345 0.20148012 -0.28786123 -0.14195731 -0.001694092
0.18791418 -0.097846515 0.007925078 -0.40041837 0.0080226045 -0.21662025 -0.056954063 0.13279177
-0.2814082 0.084232494 -0.36234584 0.102374144 0.00078926014 0.19269098 0.12893298 -0.063235156
-0.22580074 -0.076646715 0.57929516 -0.3193189 0.062780894 -0.29916924 -0.09496204 -0.60457635
-0.09776768 -0.18777087 0.06490713 0.009816206 0.07990248 -0.35901394 -0.2837867 -0.3765923
-0.21118169 0.38654357 0.12108185 -0.26882982 0.016331434 0.06510229 0.13851376 0.44015124
-0.17558676 0.14029907 0.23866391 -0.09110081 0.035068404 -0.44020885 -0.20169905 0.074010625
0.18276623 0.056755677 -0.29636964 -0.13995445 -0.46896842 0.0101165045 -0.016774392 0.094153285
-0.03356416 0.3432133 -0.2679407 -0.12167231 -0.14628352 -0.10202764 -0.09791024 -0.38330653
-0.16744378 -0.13201253 0.104594 0.11151497 -0.15960982 -0.10841634 -0.48196253 -0.0044305883
-0.29772636 -0.068043895 -0.3190537 0.06634396 0.27008903 -0.22189635 -0.15645286 0.11033584
00000000: 5023 8d3d f520 db3d 547e 883e f415 9e3d
00000010: 08d0 633e cbed a63d c057 09be f6fa 6e3e
00000020: 782b 1d3e 5ba5 1abd 3f6a 963d 5601 8339
00000030: 39cb 51bc a420 30be e862 2f3e 9034 90bc
00000040: f28d 343e 81be 2e3e 25d3 983e 5645 b23d
00000050: e932 0bbe 5a01 0cbb 3d70 1abe 6b13 41be
00000060: 8a92 a03d f107 903e 3b39 9c3e 9f59 c93e
00000070: 2c4a 063e 0d2d c63d e128 6ebe 5e83 0fbe
00000080: 4de8 3abe 2df5 483e 301c ea3d a494 0e3e
00000090: 44de 3ebe e055 0c3b 0263 9e3d 50a7 e3bc
000000a0: bcc6 3d3e 3a76 88be b29b 3dbd a631 a63d
000000b0: afc3 85bd 2012 093e 53e7 903e 6d57 0b3e
000000c0: 5da6 15be dd8e 813d 7643 c63d 6c89 1c3d
000000d0: 840e e53b f59f 943c 5064 31be d016 0ebe
000000e0: ebc3 093e 6477 47bd a94c 133e d45f 3fbd
000000f0: 1d33 38bd a09a 283e 8a67 c63b 8d2f 9f3d
00000100: f8b3 2a3e 6650 aebc c17a c1bd 7931 043e
00000110: d797 5e3e 587f 393e 55ed bd3e b724 8f3e
00000120: c258 dc3d df0f fb3d 12ca a83c 51d0 53be
00000130: f2fb f63d 189e 0bbd 86a8 073e 9bcc 8a3d
00000140: 0bf6 2bbe 38cb bdbc ad03 aabc 6995 943d
00000150: b9e9 9ebd beaf d5bd d208 23be 0a55 0bbe
00000160: 0c8b 983e d71c 91bd 8b59 803e 657d 0c3e
00000170: 82f6 1ebe fc66 b23d c0b4 873e ee58 353e
00000180: 4fb4 933d cdfc 673e d2a7 503e 6a59 0c3e
00000190: 921a 433e 1d69 9cbd fc53 fabd c779 313e
000001a0: 591b 03be 9622 56be 2479 82bd c1fe 2a3e
000001b0: ba2f 663e 5574 b73d 8009 013d 315c d83d
000001c0: 2906 f33d 18d9 97bb ac60 3cbe d961 9bbd
000001d0: b3eb 00be 7a78 bd3a a6d2 903e b3dd 973e
000001e0: c70e 903d b0ab b53e 6cf9 8c3e c435 213d
000001f0: d935 243d b46c 8f3e e76b 573e 5976 39bd
00000200: 585e 4a3d df3a 25bb 2707 78be 4328 eb3c
00000210: d1b3 7c3e fed1 12be d5e2 843d e172 9abd
00000220: 7c7a 6e3d 1db0 503e e952 7dbd 1950 413e
00000230: 8a9c 16bd a81c 04bf b859 b5bd 2db8 f8bd
00000240: e3de ab3c a6a7 343e 90eb eebe e17c 56be
00000250: 009a 04be 22b3 c2be db7c 6fbd 2402 fabc
00000260: ee80 503a 9ddb 89bd 8723 503d 4ae3 fbbc
00000270: 585a 1bbc 1016 bd3d 395f 9b3e 4f22 823e
00000280: 891a 05be 8d98 6ebd 1ab7 f33d fe0e f2be
00000290: c7d7 563e a14d bf3d 824a adbe 60ce 61be
000002a0: da21 f1bd 3f01 e33d a5db ff3c 3963 7ebd
000002b0: ce50 4e3e 8c62 93be 425d 11be 4b0c deba
000002c0: 936c 403e c163 c8bd 30d8 013c a303 cdbe
000002d0: 3e71 033c b3d1 5dbe aa48 69bd 91fa 073e
000002e0: bc14 90be 1682 ac3d 6585 b9be 89a9 d13d
000002f0: 5ae6 4e3a c950 453e 0207 043e 6f81 81bd
00000300: 4f38 67be f4f8 9cbd b04c 143f c47d a3be
00000310: 4593 803d b62c 99be 757b c2bd 84c5 1abf
00000320: 6c3a c8bd 0247 40be 08ee 843d 27d4 203c
00000330: e9a3 a33d add0 b7be 7e4c 91be b5d0 c0be
00000340: 0340 58be 0ae9 c53e c3f9 f73d 10a4 89be
00000350: 80c9 853c 5954 853d 8dd6 0d3e 815b e13e
00000360: 04cd 33be 8faa 0f3e 5064 743e 1093 babd
00000370: e3a3 0f3d 0e63 e1be 328a 4ebe e292 973d
00000380: 1227 3b3e a478 683d c3bd 97be 3850 0fbe
00000390: a11c f0be b2bf 253c 736a 89bc 70d3 c03d
000003a0: 937a 09bd a7b9 af3e 862f 89be 552f f9bd
000003b0: 59cb 15be def3 d0bd 2a85 c8bd c140 c4be
000003c0: 6276 2bbe 4b2e 07be 6135 d63d f661 e43d
000003d0: c270 23be 6309 debd cbc3 f6be 782e 91bb
000003e0: 976f 98be 995a 8bbd 025b a3be 58df 873d
000003f0: 1c49 8a3e cc38 63be 2e35 20be c2f7 e13d

lstm.weight_hh_l0 f4 [512, 128]
-0.013601541 0.04436448 -0.018363718 0.00031875714 0.20616849 0.075265676 0.05642208 -0.016966557
0.026191676 -0.14277644 0.015571692 -0.07839567 0.011622142 -0.015086861 -0.085202724 0.090362504
0.002518313 0.0022177 -0.053157132 0.13985448 -0.04287687 -0.050455865 -0.008916169 0.122218914
-0.030977042 -0.13793294 0.13216917 0.1299939 -0.006603323 0.07066655 -0.08244068 0.030655297
-0.033231147 0.031236043 0.008987975 0.10024034 -0.111134864 -0.0531238 -0.059404 0.017527958
-0.07472277 0.048991755 -0.016986983 0.098533556 0.01021399 -0.1293092 0.15238883 -0.06828374
0.14081384 0.11420752 -0.17382549 -0.072910376 0.13720055 -0.11777403 0.17695692 -0.14143445
-0.07383721 -0.081811644 -0.058466718 -0.13191701 0.051443644 -0.13731809 0.03928021 0.12355106
0.051729023 -0.0375737 0.11855771 0.030830892 0.08980799 0.03466844 -0.2213891 0.12002516
-0.031341832 -0.045302007 -0.04966176 -0.07307537 -0.0078724725 -0.09675576 0.12025286 0.031369735
0.08699881 -0.189643 0.061642878 0.031857274 -0.04271532 -0.047195684 0.051251505 -0.039766453
-0.09062112 -0.059525523 0.08096149 -0.009646327 0.062241897 -0.114218146 0.11313581 0.095020525
-0.07360104 0.08728156 -0.15344582 -0.053567834 -0.26946852 -0.015080045 -0.0642637 0.06893321
0.048733972 -0.08240248 -0.013856042 -0.012416545 -0.030532807 -0.07063421 0.10148094 -0.22486737
-0.19061634 -0.12798622 -0.08530931 0.02871813 0.011507561 0.15300493 0.07799562 -0.05094367
-0.083663285 0.0010688772 0.07996733 0.017678278 -0.08076173 0.17520143 0.07390591 0.055013273
0.0574386 -0.10090216 -0.07247857 -0.047162566 -0.085972 0.13333671 -0.022036921 0.0032630176
0.059597924 -0.09414128 0.09527677 0.019582286 0.03447721 0.0050906944 -0.0051057455 0.048336603
0.10118674 -0.02448099 -0.1879454 0.057340495 0.036815513 -0.025994578 0.030393219 0.09929838
-0.05307462 0.03801127 -0.024519298 0.17891003 0.08271831 0.08886587 0.083954506 -0.0017195332
0.08029854 0.062469143 0.044906843 0.036760546 -0.008913523 -0.1323811 -0.04784669 0.046541322
-0.044948544 0.135751 -0.06946244 -0.02324814 -0.04365891 -0.016444696 0.016727643 0.042067856
-0.11242605 0.05972419 0.058891546 0.040403195 0.062592596 -0.12032704 0.017154926 0.0014552526
0.020279378 -0.11923112 -0.11219026 0.034981728 0.10628389 -0.036287934 0.004771699 0.14345577
0.042608738 0.017365078 -0.0054797977 0.19222972 0.14184044 -0.061082356 -0.11902909 0.2403844
-0.045899417 -0.14364249 -0.06141553 -0.011744361 0.0010783391 -0.16187057 0.19288677 -0.04416542
0.11416497 -0.12032153 0.062234752 -0.013590608 -0.0783416 0.006762778 0.14771783 -0.24372764
0.018957047 -0.06978946 0.13600098 0.06268716 0.018778143 -0.05671586 0.05333269 -0.033265587
0.14203383 -0.08216731 -0.028664188 -0.13243204 -0.12517907 -0.12348777 0.046305325 -0.060653
0.11145089 -0.041233286 0.07194142 0.021851208 0.00600342 -0.096621804 0.09428848 -0.14910863
-0.105206475 -0.09343381 0.051736776 0.07125954 0.1342844 -0.0024730626 0.17487927 -0.016002974
-0.2549905 0.024873015 0.11075716 -0.07891631 -0.0734071 0.13356462 0.096617326 0.13437892
00000000: ffd8 5ebc 87b7 353d 826f 96bc dc1e a739
00000010: d51d 533e e424 9a3d d71a 673d 73fd 8abc
00000020: ed8f d63c fd33 12be 6920 7f3c e98d a0bd
00000030: cc6a 3e3c e22e 77bc c47e aebd fa0f b93d
00000040: 480a 253b d556 113b 4bbb 59bd 0336 0f3e
00000050: a89f 2fbd cfaa 4ebd 2015 12bc e94d fa3d
00000060: 91c3 fdbc 4b3e 0dbe 5b57 073e 1f1d 053e
00000070: b060 d8bb a0b9 903d a9d6 a8bd d120 fb3c
00000080: 621d 08bd bbe2 ff3c 4d42 133c cf4a cd3d
00000090: ad9a e3bd 5798 59bd 9c51 73bd cb96 8f3c
000000a0: 4008 99bd 94ab 483d 4928 8bbc f6cb c93d
000000b0: 9458 273c a269 04be d10b 1c3e 58d8 8bbd
000000c0: 8131 103e a2e5 e93d 4fff 31be 0952 95bd
000000d0: 4d7e 0c3e 8333 f1bd 3234 353e 31d4 10be
000000e0: f737 97bd dd8c a7bd cc7a 6fbd 4115 07be
000000f0: 92b6 523d 1d9d 0cbe 49e4 203d 5708 fd3d
00000100: d0e1 533d e1e6 19bd 62ce f23d 1191 fc3c
00000110: 40ed b73d 7f00 0e3d d3b3 62be c0cf f53d
00000120: 4b60 00bd 998e 39bd 216a 4bbd 8aa8 95bd
00000130: 8bfb 00bc e227 c6bd 2247 f63d 8d7d 003d
00000140: 6f2c b23d c631 42be 3e7d 7c3d c67c 023d
00000150: 42f6 2ebd 4350 41bd 19ed 513d 26e2 22bd
00000160: 9197 b9bd 09d1 73bd 23cf a53d a10b 1ebc
00000170: 5cf1 7e3d 34eb e9bd bfb3 e73d 1f9a c23d
00000180: 24bc 96bd adc0 b23d e720 1dbe f269 5bbd
00000190: c7f7 89be 4b12 77bc b09c 83bd db2c 8d3d
000001a0: 469d 473d a2c2 a8bd 7404 63bc c46e 4bbc
000001b0: f01f fabc aba8 90bd 3dd5 cf3d a243 66be
000001c0: ee30 43be d20e 03be a6b6 aebd 4942 eb3c
000001d0: 368a 3c3c 53ad 1c3e 2bbc 9f3d 4faa 50bd
000001e0: a857 abbd 9119 8c3a e9c5 a33d 09d2 903c
000001f0: 6866 a5bd 0168 333e fb5b 973d 9955 613d
00000200: bd44 6b3d cba5 cebd a56f 94bd 892d 41bd
00000210: 1712 b0bd 6b89 083e c686 b4bc 5ad8 553b
00000220: f41c 743d 25cd c0bd 7820 c33d 086b a03c
00000230: fa37 0d3d d7cf a63b 194e a7bb 9afc 453d
00000240: fe3a cf3d 5b8c c8bc c274 40be dedd 6a3d
00000250: ddcb 163d 95f2 d4bc 33fb f83c f35c cb3d
00000260: c664 59bd b5b1 1b3d b2dc c8bc 3134 373e
00000270: 3868 a93d 4fff b53d 57f0 ab3d f661 e1ba
00000280: 9073 a43d a5df 7f3d 3df0 373d 3a92 163d
00000290: 060a 12bc e98e 07be e4fa 43bd 1da2 3e3d
000002a0: f71b 38bd 4f02 0b3e 5342 8ebd e272 bebc
000002b0: afd3 32bd 07b7 86bc 6908 893c 584f 2c3d
000002c0: a13f e6bd 5aa1 743d 4338 713d d27d 253d
000002d0: 8c30 803d 066e f6bd 7d88 8c3c 2dbe be3a
000002e0: f020 a63c 722f f4bd 02c4 e5bd 0049 0f3d
000002f0: 5eab d93d a8a2 14bd ea5b 9c3b 12e6 123e
00000300: 8086 2e3d 3541 8e3c e08f b3bb ded7 443e
00000310: 9f3e 113e 7e31 7abd 86c5 f3bd 5427 763e
00000320: 0701 3cbd 0417 13be da8e 7bbd 6c6b 40bc
00000330: 0e57 8d3a 66c1 25be 1c84 453e cde6 34bd
00000340: 53cf e93d 226b f6bd dee9 7e3d 24ab 5ebc
00000350: 9071 a0bd 4b9a dd3b 5843 173e bd93 79be
00000360: cf4b 9b3c c7ed 8ebd d743 0b3e 2062 803d
00000370: 9fd4 993c e44e 68bd 6173 5a3d 7f41 08bd
00000380: 5171 113e 5647 a8bd 29d1 eabc 449c 07be
00000390: f12e 00be 28e7 fcbd a7aa 3d3d 486f 78bd
000003a0: 5d40 e43d 3ce4 28bd 0656 933d 4e01 b33c
000003b0: 56b8 c43b a7e1 c5bd 521a c13d efaf 18be
000003c0: 7e76 d7bd 3a5a bfbd f1e9 533d 86f0 913d
000003d0: da81 093e 1b13 22bb 8d13 333e ab18 83bc
000003e0: 1d8e 82be 7ec2 cb3c a6d4 e23d e09e a1bd
000003f0: 7656 96bd 2ac5 083e 4edf c53d a19a 093e

lstm.bias_ih_l0 f4 [512]
-0.018881975 -0.057861242 -0.23310159 -0.016545633 -0.22243768 0.12506592 0.15756343 -0.12587631
0.028013162 0.09202022 0.0050758384 -0.041425373 -0.078688234 0.08811872 -0.028702546 -0.014086328
0.047154613 -0.099592336 0.21995106 -0.12595017 -0.14365351 -0.03195526 -0.23175757 -0.033673283
-0.094430074 -0.1166652 -0.20904498 0.025252098 -0.026702398 -0.13862911 0.10652041 0.076827414
0.13109092 -0.0013716213 0.023807345 0.032935735 -0.04545063 0.03764842 -0.08263547 -0.100182265
-0.10273706 -0.025873823 -0.09018521 -0.027532421 0.13560954 0.006030786 0.03335392 -0.040108234
0.03182165 -0.068952136 -0.012790521 -0.09266486 -0.11564079 -0.09958255 0.004808832 -0.15376095
-0.078873634 -0.19002222 -0.051747892 -0.10840311 -0.013622032 -0.11832988 -0.025403475 -0.059078
0.04604561 -0.14482611 0.07703855 0.06131621 0.09207874 0.0018033987 0.052073188 0.091169335
0.06414855 -0.0071441033 0.045247577 0.10038207 0.115484394 -0.07353531 0.039393224 -0.0643464
-0.0701788 0.12456744 0.031509288 -0.17099135 -0.45815367 -0.01147764 0.029888658 -0.022498075
-0.06574828 0.18230663 0.16761686 -0.08028072 0.10911925 -0.0664092 -0.2034278 -0.05961331
-0.2329205 -0.07937381 -0.13872083 0.010865995 0.19769356 -0.07321954 -0.09256286 -0.05873717
-0.07512497 0.027079772 -0.07297586 -0.011821092 0.08149811 -0.096130066 -0.09056714 0.099755816
-0.0076501137 -0.07728668 -0.08000089 -0.0047150217 0.1407946 0.02209533 0.08652751 -0.11383029
0.07074088 -0.12713513 -0.12429472 0.067815125 -0.04450178 0.082392804 -0.09526477 -0.09809176
0.11499841 0.105437405 -0.07624538 0.08091097 -0.07307396 -0.041022535 0.035254467 0.005543838
-0.17257848 0.043874048 0.058290448 -0.0020669862 -0.05308704 -0.17867112 -0.012393662 -0.047734376
-0.19065706 -0.03631081 0.04189599 0.10613378 -0.0715803 0.0474368 -0.19033645 -0.1958223
-0.2723695 -0.34259284 -0.10070113 -0.1334619 0.07611615 -0.12386653 0.12630853 0.021917056
-0.046253603 -0.07542712 -0.11342027 -0.11528949 0.0028026127 0.10254194 -0.18018413 -0.29510224
-0.12892205 -0.024254931 0.06267863 -0.21114862 0.06359953 0.077211745 -0.05014969 0.055593833
-0.04349084 0.004681075 0.07563358 0.012809906 -0.046068218 0.05165536 -0.083225645 -0.23407859
-0.19754553 -0.027637249 -0.09333946 0.0697433 -0.011659098 0.08242258 0.12437844 -0.02459433
-0.011769124 0.034322318 0.15176442 -0.2372398 -0.39729044 -0.04595119 0.1003563 -0.0404427
-0.29036456 -0.22192979 0.13726357 0.13493524 -0.1336068 -0.0440409 -0.17148627 -0.02037408
-0.15883635 -0.16622095 0.14992253 -0.08129851 -0.06704603 -0.036110263 0.09684625 -0.017826337
-0.02232494 0.04263272 0.12386301 -0.022635322 -0.17095435 -0.10835525 -0.26958987 0.008784687
-0.12316207 0.13847569 -0.08983043 0.00960447 -0.029612552 -0.1706907 -0.019375145 0.0537158
-0.104650535 0.15077086 0.007500009 -0.08120357 0.0053506996 -0.16809344 0.023122631 0.08885707
-0.010642856 0.028937181 -0.029114949 0.13872153 -0.21667123 -0.15006438 0.12072769 -0.18575057
-0.11107784 -0.0012681534 -0.15739283 0.10936841 0.07762775 -0.21765937 0.08960276 -0.15030798
00000000: 5fae 9abc e9ff 6cbd 2fb2 6ebe b58a 87bc
00000010: b4c6 63be 4811 003e 4f58 213e b8e5 00be
00000020: dc7b e53c 1975 bc3d 3853 a63b a7ad 29bd
00000030: 4c27 a1bd 9677 b43d 9a21 ebbc 58ca 66bc
00000040: 3225 413d 11f7 cbbd da3a 613e 15f9 00be
00000050: e819 13be 85e3 02bd db51 6dbe ffec 09bd
00000060: 8e64 c1bd 2aee eebd e30f 56be 7ddd ce3c
00000070: fdbe dabc caf4 0dbe 5f27 da3d b157 9d3d
00000080: b33c 063e f9c7 b3ba 9f07 c33c 9fe7 063d
00000090: 712a 3abd 3b35 1a3d c93c a9bd 5c2c cdbd
000000a0: cf67 d2bd 57f5 d3bc 06b3 b8bd ac8b e1bc
000000b0: 3add 0a3e e69d c53b 1f9e 083d 8848 24bd
000000c0: 6b57 023d c736 8dbd 558f 51bc 13c7 bdbd
000000d0: 14d5 ecbd f0f1 cbbd 6893 9d3b 8373 1dbe
000000e0: 8088 a1bd 2f95 42be 99f5 53bd 7302 debd
000000f0: f12e 5fbc f056 f2bd f31a d0bc c6fb 71bd
00000100: 529a 3c3d 4c4d 14be 63c6 9d3d b526 7b3d
00000110: c793 bc3d 0560 ec3a b24a 553d fdb6 ba3d
00000120: 5160 833d 1519 eabb 8655 393d 1d95 cd3d
00000130: 1583 ec3d ae99 96bd ca5a 213d 0cc8 83bd
00000140: e7b9 8fbd 371d ff3d e20f 013d 5b18 2fbe
00000150: 1e93 eabe b60c 3cbc 0fd9 f43c e24d b8bc
00000160: 09a7 86bd 97ae 3a3e c1a3 2b3e 386a a4bd
00000170: ea79 df3d 8c01 88bd 614f 50be 162d 74bd
00000180: b682 6ebe bc8e a2bd d50c 0ebe 4907 323c
00000190: 2e70 4a3e 20f4 95bd 9991 bdbd 6396 70bd
000001a0: 1fdb 99bd 66d6 dd3c 5e74 95bd 41ad 41bc
000001b0: 7be8 a63d d7df c4bd 447b b9bd c74c cc3d
000001c0: cead fabb 7b48 9ebd 82d7 a3bd 7880 9abb
000001d0: 762c 103e 4401 b53c 5635 b13d db1f e9bd
000001e0: 98e0 903d b62f 02be 3b8e febd a8e2 8a3d
000001f0: 8047 36bd 8fbd a83d 2d1a c3bd 55e4 c8bd
00000200: 4984 eb3d 91ef d73d 8a26 9cbd a7b4 a53d
00000210: cda7 95bd 3f07 28bd fd66 103d 15a9 b53b
00000220: 6ab8 30be 46b5 333d f7c1 6e3d 4676 07bb
00000230: cc71 59bd 90f5 36be c90e 4bbc 1f85 43bd
00000240: 9b3b 43be a5ba 14bd 219b 2b3d ab5c d93d
00000250: b198 92bd 174d 423d 8fe7 42be a485 48be
00000260: 0474 8bbe 5468 afbe 653c cebd 3caa 08be
00000270: c9e2 9b3d bcad fdbd 0657 013e 668b b33c
00000280: 6b74 3dbd 8979 9abd e348 e8bd e51c ecbd
00000290: 0aac 373b 8201 d23d 3082 38be a417 97be
000002a0: 2404 04be 47b2 c6bc a75d 803d 5837 58be
000002b0: 7840 823d 3121 9e3d c369 4dbd 5cb6 633d
000002c0: 7323 32bd b463 993b c7e5 9a3d a4e0 513c
000002d0: 07b2 3cbd 9294 533d 3572 aabd 4cb2 6fbe
000002e0: 6049 4abe 8367 e2bc c228 bfbd 93d5 8e3d
000002f0: cd05 3fbc 2bcd a83d 20ba fe3d 0c7a c9bc
00000300: 49d3 40bc 8f95 0c3d 2268 1b3e fdee 72be
00000310: a769 cbbe 5137 3cbd 9b87 cd3d 3fa7 25bd
00000320: aaaa 94be 9041 63be d28e 0c3e 772c 0a3e
00000330: 39d0 08be 3b64 34bd 199a 2fbe 8be7 a6bc
00000340: ffa5 22be d335 2abe 4b85 193e d57f a6bd
00000350: 6e4f 89bd 5be8 13bd 5457 c63d 8a08 92bc
00000360: cbe2 b6bc a69f 2e3d e4ab fd3d b66d b9bc
00000370: a80e 2fbe 5be9 ddbd af07 8abe a6ed 0f3c
00000380: 653c fcbd 92cc 0d3e 04f9 b7bd 115c 1d3c
00000390: 0696 f2bc 8bc9 2ebe a0b8 9ebc 1905 5c3d
000003a0: 0553 d6bd ad63 1a3e a3c2 f53b 0f4e a6bd
000003b0: ec54 af3b b020 2cbe ac6b bd3c b2fa b53d
000003c0: 605f 2ebc ab0d ed3c 7982 eebc 040d 0e3e
000003d0: 10df 5dbe 7aaa 19be 1440 f73d 6635 3ebe
000003e0: c77c e3bd 2b38 a6ba 962b 21be 8cfc df3d
000003f0: 4cfb 9e3d 19e2 5ebe a781 b73d 56ea 19be

lstm.bias_hh_l0 f4 [512]
0.123014644 0.018260408 -0.23359089 -0.026324334 -0.07471312 0.115312174 0.16383825 -0.052620318
0.053974293 0.116434716 -0.029127564 -0.028666692 -0.0796151 0.007310386 -0.05703722 -0.038812753
0.05752866 -0.07065406 0.24547482 -0.122551404 -0.06276518 -0.13631341 -0.2559472 -0.0010128225
-0.22919331 -0.14696248 -0.0568804 -0.053482525 0.028653838 -0.14827043 -0.05194746 -0.022648042
0.008292051 -0.10471894 0.022960907 -0.06643673 -0.056392673 0.050947923 0.05496918 -0.10882498
-0.12135167 0.043786354 0.027196607 -0.14951229 0.094005436 -0.023815863 0.06584689 -0.05007097
-0.02934329 -0.01783455 0.0022423775 -0.13838409 -0.06376147 -0.039299175 -0.03650575 -0.22019099
-0.078349784 -0.13387464 -0.061809395 -0.098720275 0.07316848 -0.06359217 0.01080946 -0.023708643
0.047216393 0.020345507 -0.06708277 0.13536891 0.010047253 -0.07236199 0.028399622 0.15997429
0.12465731 0.111044064 0.16253269 0.09140513 0.113194056 -0.046775315 -0.006569705 -0.07438387
-0.03860263 0.11606429 0.012814365 -0.101815194 -0.41225863 -0.0001129959 0.15197282 -0.020684551
-0.048415992 0.19586016 0.1341924 -0.02703355 0.03799792 -0.09373367 -0.29132977 -0.07268602
-0.19728619 0.060992964 -0.16029029 -0.07128643 0.18147078 -0.13746071 -0.049737107 -0.11583742
-0.020318422 0.0755948 -0.11690828 -0.008655253 -0.053662125 -0.15357652 -0.038794134 0.109477706
-0.07621444 -0.2038937 -0.103313416 -0.0028947114 0.038522925 0.0006325883 0.098585576 -0.2015534
0.19528434 -0.081792235 0.026861832 0.13837364 0.10876134 -0.011499932 -0.030762862 -0.12837526
0.042693287 -0.054027278 -0.118658505 0.036118526 0.045411713 -0.066098765 -0.010185882 -0.066143684
-0.29011875 0.022772942 0.03042806 0.08622676 -0.01081665 -0.23532987 -0.02854557 0.023479896
-0.13119452 -0.05055559 0.09505142 -0.0419066 -0.0100723235 -0.01957988 -0.19813128 -0.029810285
-0.24564004 -0.31498045 -0.06590726 -0.15006226 0.12511958 -0.05416748 0.15660718 0.0639978
-0.13149391 -0.10404947 -0.202032 -0.12026427 -0.04257456 0.109825656 -0.17053571 -0.28060317
-0.15473439 -0.05887106 0.1004292 -0.11221047 0.11359477 0.043607622 -0.009402691 0.08880282
0.034961935 0.0051981662 -0.022329109 -0.021374453 -0.013611127 -0.051871374 -0.18063909 -0.1623432
-0.11307377 -0.1473592 -0.101141706 0.009459094 -0.08617709 0.0034784789 -0.013547956 0.03640941
0.063598245 0.12516057 0.005730005 -0.17377155 -0.31022623 0.01979006 0.14820583 0.043100882
-0.17857912 -0.12155937 0.15874377 -0.0057114223 -0.14128946 -0.028341198 -0.2408364 0.085934475
-0.10150668 -0.2143236 0.0257985 -0.17630008 -0.06801522 -0.073758334 0.20125034 0.021448974
0.034610208 0.05353234 0.065946594 0.03903616 -0.3319536 -0.089193635 -0.2641992 -0.026588833
-0.20218453 0.056737002 -0.13575546 0.07344554 -0.15516865 -0.039294295 0.018760446 -0.04218055
-0.17889287 0.13142331 -0.14986183 -0.12565798 0.04014346 -0.15357581 0.014806843 -0.0090985745
-0.17414054 0.07460158 0.12625383 0.08710573 -0.13551372 -0.18931979 0.04154051 -0.04899264
-0.15623383 0.102942556 -0.11712058 0.11898303 0.061209835 -0.22831367 -0.074385785 -0.0012722854
00000000: 1aef fb3d da96 953c 7332 6fbe 21a6 d7bc
00000010: 3103 99bd ca28 ec3d 37c5 273e 6788 57bd
00000020: 2614 5d3d 5375 ee3d ee9c eebc 69d6 eabc
00000030: 3e0d a3bd f68b ef3b dc9f 69bd 1ffa 1ebd
00000040: 2ca3 6b3d 13b3 90bd c05d 7b3e 3bfc fabd
00000050: 088b 80bd be95 0bbe 830b 83be afc0 84ba
00000060: a7b1 6abe 557d 16be 6cfb 68bd 7e10 5bbd
00000070: 74bb ea3c 34d4 17be dcc6 54bd 6388 b9bc
00000080: 62db 073c e276 d6bd 8318 bc3c fb0f 88bd
00000090: 01fc 66bd c5ae 503d 5d27 613d a2df debd
000000a0: 3987 f8bd 5259 333d 6bcb de3c c019 19be
000000b0: ec85 c03d 7c19 c3bc bcda 863d 3817 4dbd
000000c0: 5761 f0bc c319 92bc daf4 123b 8fb4 0dbe
000000d0: 6095 82bd 2cf8 20bd 0e87 15bd bf79 61be
000000e0: da75 a0bd 6f16 09be d92b 7dbd db2d cabd
000000f0: 5bd9 953d 9d3c 82bd 291a 313c a138 c2bc
00000100: fa65 413d 9fab a63c b162 89bd 269e 0a3e
00000110: 3c9d 243c 8632 94bd 53a6 e83c 4dd0 233e
00000120: 554c ff3d 126b e33d f86e 263e 9d32 bb3d
00000130: 49d2 e73d 7997 3fbd ae46 d7bb 9256 98bd
00000140: cb1d 1ebd 1db3 ed3d 58f3 513c 7c84 d0bd
00000150: 9013 d3be 36f8 ecb8 c39e 1b3e a672 a9bc
00000160: d94f 46bd 918f 483e bc69 093e 7775 ddbc
00000170: b5a3 1b3d 70f7 bfbd 2d29 95be 68dc 94bd
00000180: 6405 4abe c2d3 793d 2323 24be 9ffe 91bd
00000190: 7ad3 393e 80c2 0cbe 23b9 4bbd 2b3c edbd
000001a0: d272 a6bc 72d1 9a3d 9c6d efbd c3ce 0dbc
000001b0: d1cc 5bbd 2a43 1dbe 99e6 1ebd d935 e03d
000001c0: 5116 9cbd 83c9 50be fc95 d3bd 33b5 3dbb
000001d0: 37ca 1d3d 48d4 253a 3ce7 c93d 0464 4ebe
000001e0: 9ef8 473e b082 a7bd 580d dc3c d2b1 0d3e
000001f0: 44be de3d 366a 3cbc 6602 fcbc ce74 03be
00000200: 28df 2e3d b54b 5dbd 3b03 f3bd 05f1 133d
00000210: a201 3a3d ca5e 87bd b0e2 26bc 5776 87bd
00000220: 728a 94be 528e ba3c 4444 f93c a897 b03d
00000230: 5238 31bc 50fa 70be 66d8 e9bc e958 c03c
00000240: db57 06be 6113 4fbd 52aa c23d 41a6 2bbd
00000250: 6306 25bc fc65 a0bc ede2 4abe b334 f4bc
00000260: 1089 7bbe 1e45 a1be 63fa 86bd eca9 19be
00000270: 591f 003e b8de 5dbd a25d 203e 4711 833d
00000280: 57a6 06be e317 d5bd 7ae1 4ebe 1d4d f6bd
00000290: a962 2ebd 46ec e03d eaa0 2ebe 38ab 8fbe
000002a0: b172 1ebe c822 71bd d3ad cd3d 9ace e5bd
000002b0: 60a4 e83d e89d 323d bf0d 1abc 41de b53d
000002c0: 3f34 0f3d 6155 aa3b 89eb b6bc 7a19 afbc
000002d0: 3401 5fbc 1477 54bd 74f9 38be 4c3d 26be
000002e0: 3993 e7bd 55e5 16be 6223 cfbd 51fa 1a3c
000002f0: 9d7d b0bd 31f7 633b 3ff8 5dbc 0922 153d
00000300: cc3f 823d 182a 003e c4c2 bb3b 2bf1 31be
00000310: f9d5 9ebe c41e a23c 45c3 173e 8d8a 303d
00000320: 72dd 36be 1ef4 f8bd ba8d 223e e226 bbbb
00000330: 2fae 10be cd2b e8bc d19d 76be 6afe af3d
00000340: bce2 cfbd a577 5bbe 6057 d33c 0288 34be
00000350: 904b 8bbd 9c0e 97bd 9214 4e3e c2b5 af3c
00000360: 6fc3 0d3d ba44 5b3d 020f 873d 61e4 1f3d
00000370: d2f5 a9be 27ab b6bd 1e45 87be d3d0 d9bc
00000380: 7609 4fbe 0f65 683d 7b03 0bbe 9e6a 963d
00000390: 88e4 1ebe 0ef3 20bd 82af 993c 83c5 2cbd
000003a0: b12f 37be d593 063e 6175 19be 7cac 00be
000003b0: 786d 243d fa42 1dbe 6798 723c 3012 15bc
000003c0: e651 32be b7c8 983d af48 013e 7d64 b23d
000003d0: 1cc4 0abe 0cdd 41be 6226 2a3d 82ac 48bd
000003e0: c3fb 1fbe 8cd3 d23d eadc efbd 60ad f33d
000003f0: 2ab7 7a3d 0fcb 69be 9357 98bd d0c2 a6ba

lstm.weight_ih_l1 f4 [512, 128]
-0.19512117 0.1559475 -0.056997187 -0.1579993 -0.023363477 0.089028485 -0.2000081 -0.012631454
0.23788105 -0.07006483 -0.15821145 -0.1302422 -0.14418077 -0.032969598 0.2865538 -0.218581
0.07664274 0.14023632 -0.34242424 0.036558326 0.0019215009 -0.16506293 -0.029844476 0.022370247
-0.15329514 0.19591446 0.0056389016 0.1817175 -0.22824098 -0.115946576 0.08742729 -0.047045656
0.04362087 -0.12907393 -0.22324409 0.10989666 0.0281782 -0.19849995 -0.08792673 -0.0341483
-0.023368532 0.09381137 0.036272164 -0.2600599 -0.121900305 0.025281178 -0.27616307 -0.1448785
-0.113745846 -0.22249463 0.023175834 0.045287535 0.20872346 0.21452254 -0.19135734 -0.17631046
-0.11100037 0.18129599 -0.035356116 -0.11388017 -0.038296305 0.008950737 0.15236376 -0.37301618
-0.13190134 0.06296236 -0.14310645 0.093815416 0.24448583 -0.12942457 -0.13690102 0.16760182
-0.10838781 -0.103205554 -0.14700177 -0.17788003 0.15479149 -0.10779014 -0.07662306 -0.012076486
0.0951102 0.15201555 -0.10660592 -0.23427269 0.14281307 -0.059566483 -0.12456244 -0.0068507516
0.09589569 0.06871739 -0.3307129 -0.32723606 -0.055722225 -0.07161199 0.27316767 -0.22474663
-0.2911003 0.06941249 0.15752274 0.2243561 0.14927661 0.07975468 0.14184791 0.06188973
-0.25459442 -0.14698206 -0.033697456 -0.22374114 0.18765788 -0.1597804 0.01496318 0.034519635
0.17074841 0.09684168 -0.092803106 0.21838833 -0.0025504674 -0.099616714 0.13744016 0.043995067
-0.26881513 0.057043795 0.0865247 -0.10970647 0.007931108 0.21228555 -0.11417647 -0.10256521
0.07415951 -0.054649033 -0.04038171 0.011016051 -0.046089724 0.12149199 -0.121839896 0.03758769
0.08159279 0.055720188 0.057625927 0.11252392 0.09399035 -0.040006403 0.0028543528 0.0120914
0.017454298 0.06599815 0.00251478 0.059849303 0.009763294 0.054494638 -0.13562082 0.004355314
0.09653995 0.08899606 -0.089527994 0.04989368 -0.08013231 0.08750476 -0.02141683 0.017545318
0.0020635948 -0.053405922 -0.1772088 0.08363845 0.010021212 -0.06114486 -0.008833218 -0.05802411
0.11380862 -0.034636702 -0.0057646832 0.0017186354 -0.09236194 -0.058952723 -0.12251001 0.11801076
0.03669011 -0.026638819 -0.024635455 0.0055099768 0.041539725 0.110045865 0.06595355 -0.003631594
-0.15290636 0.046398964 0.01734684 -0.12445715 -0.011365949 -0.010963218 0.03833583 -0.07669258
-0.02496362 0.0071804416 0.040601492 0.13432418 0.10149243 -0.026345657 -0.047411297 0.02889984
-0.04727066 0.0070064226 -0.018604482 -0.021292904 -0.047235616 -0.01568504 -0.040983096 -0.07180764
-0.011235812 0.13052776 0.07443003 0.026915956 0.08150607 -0.12787065 -0.06715735 0.033444516
-0.054190017 -0.02450336 0.1028867 -0.009133518 0.045870364 -0.032430176 0.047028344 -0.05711479
-0.14628273 -0.102975294 0.064391054 0.008128964 -0.08946652 -0.034312088 0.008458886 -0.16003154
0.030597998 -0.11882717 0.00016700005 -0.07465885 -0.026626047 -0.016649827 0.03778576 -0.101186536
-0.037312526 -0.0022540796 -0.05313175 0.017523656 -0.10863817 0.12682666 0.11868027 -0.088973366
-0.13228951 0.015636168 0.13610405 -0.056953415 -0.014005317 0.054671112 0.012513819 0.033865497
00000000: d8cd 47be b4b0 1f3e e275 69bd 92ca 21be
00000010: c364 bfbc 9154 b63d ecce 4cbe 28f4 4ebc
00000020: 1797 733e 267e 8fbd 2f02 22be 365e 05be
00000030: 20a4 13be 210b 07bd 2eb7 923e b3d3 5fbe
00000040: def6 9c3d 1c9a 0f3e 3b52 afbe 2fbe 153d
00000050: dfda fb3a 4206 29be 677c f4bc cf41 b73c
00000060: 67f9 1cbe cd9d 483e 89c6 b83b 2714 3a3e
00000070: 01b8 69be 6675 edbd 140d b33d f2b2 40bd
00000080: ccab 323d f52b 04be 199a 64be 8011 e13d
00000090: f8d5 e63c 9243 4bbe ee12 b4bd 16df 0bbd
000000a0: 5d6f bfbc 2d20 c03d 1f92 143d 9226 85be
000000b0: dea6 f9bd 791a cf3c 3f65 8dbe 085b 14be
000000c0: 95f3 e8bd a2d5 63be 3fdb bd3c 6c7f 393d
000000d0: 9abb 553e ccab 5b3e 2ef3 43be bb8a 34be
000000e0: 2954 e3bd a8a5 393e 93d1 10bd 023a e9bd
000000f0: 96dc 1cbd 1da6 123c 3f05 1c3e fafb bebe
00000100: 2511 07be 69f2 803d 7f8a 12be 4c22 c03d
00000110: 7e5a 7a3e e087 04be c82f 0cbe d09f 2b3e
00000120: 6efa ddbd 6f5d d3bd a287 16be 2f26 36be
00000130: a981 1e3e 14c1 dcbd 8dec 9cbd 74dc 45bc
00000140: 23c9 c23d f7a9 1b3e 3454 dabd 2ee5 6fbe
00000150: 973d 123e fcfb 73bd 981a ffbd 457c e0bb
00000160: f664 c43d b4bb 8c3d 3453 a9be 7c8b a7be
00000170: fd3c 64bd 4fa9 92bd a2dc 8b3e fb23 66be
00000180: 190b 95be 2328 8e3d a44d 213e 9bbd 653e
00000190: f8db 183e 6c56 a33d 9440 113e 1680 7d3d
000001a0: 335a 82be 7782 16be 5806 0abd 661c 65be
000001b0: 6329 403e 799d 23be 2028 753c 7664 0d3d
000001c0: acd8 2e3e ee54 c63d 8e0f bebd 31a1 5f3e
000001d0: be25 27bb d903 ccbd 1dbd 0c3e 2c34 343d
000001e0: 23a2 89be c1a6 693d dd33 b13d c9ad e0bd
000001f0: 7af1 013c 6261 593e 5ad5 e9bd b50d d2bd
00000200: f1e0 973d aad7 5fbd 4b67 25bd ab7c 343c
00000210: 94c8 3cbd cbd0 f83d 3287 f9bd 8df5 193d
00000220: 1f1a a73d da3a 643d 2a09 6c3d f172 e63d
00000230: 037e c03d c1dd 23bd 1810 3b3b 021b 463c
00000240: 51fc 8e3c 0a2a 873d 02cf 243b 8b24 753d
00000250: 39f6 1f3c c535 5f3d 2fe0 0abe 06b7 8e3b
00000260: bdb6 c53d 9143 b63d 745a b7bd 515d 4c3d
00000270: 691c a4bd b235 b33d 5972 afbc 33bb 8f3c
00000280: 603d 073b 2bc0 5abd 3976 35be a34a ab3d
00000290: 0230 243c 0873 7abd 34b9 10bc b0aa 6dbd
000002a0: 7e14 e93d 37df 0dbd abe5 bcbb d643 e13a
000002b0: 4228 bdbd 6978 71bd 87e6 fabd a0af f13d
000002c0: 5e48 163d a739 dabc 4bd0 c9bc 098d b43b
000002d0: 8f25 2a3d ba5f e13d a812 873d 0900 6ebb
000002e0: 7c93 1cbe d70c 3e3d f61a 8e3c 64e3 febd
000002f0: 3f38 3abc 129f 33bc 0806 1d3d 0011 9dbd
00000300: 8180 ccbc e949 eb3b c04d 263d 478c 093e
00000310: 43db cf3d d9d2 d7bc 5932 42bd 5bbf ec3c
00000320: e19e 41bd 2296 e53b 6d68 98bc 756e aebc
00000330: 227a 41bd ea7d 80bc e4dd 27bd e20f 93bd
00000340: 6916 38bc 12a9 053e c66e 983d da7e dc3c
00000350: a8ec a63d 86f0 02be cb89 89bd 1efd 083d
00000360: 5af6 5dbd 45bb c8bc 43b6 d23d c0a4 15bc
00000370: 90e2 3b3d 81d5 04bd cba0 403d 33f1 69bd
00000380: 24cb 15be b6e4 d2bd 75df 833d 592f 053c
00000390: 393a b7bd d58a 0cbd 2497 0a3c 4fdf 23be
000003a0: a7a8 fa3c a95b f3bd bc1c 2f39 bde6 98bd
000003b0: de1e dabc 3865 88bc 3ec5 1a3d e33a cfbd
000003c0: 05d5 18bd 2eb9 13bb aea0 59bd c58d 8f3c
000003d0: b07d debd d9de 013e a40e f33d ab37 b6bd
000003e0: e776 07be 6c17 803c dc5e 0b3e fc47 69bd
000003f0: 8f76 65bc d1ee 5f3d c306 4d3c 8cb6 0a3d

lstm.weight_hh_l1 f4 [512, 128]
0.11207062 0.092337415 -0.17399377 0.22454076 -0.09033175 0.14340666 0.21574621 -0.24842189
-0.12254214 -0.052116245 -0.1308936 0.100000724 -0.07502154 -0.12157273 -0.098597445 -0.12188935
-0.09969478 -0.15432589 -0.18204582 -0.13609262 9.104672e-05 0.18467219 -0.111294895 0.2401739
0.28958353 0.08781335 0.0320013 0.041415345 -0.29526708 -0.16133106 -0.11228332 -0.17366898
0.055680178 0.18603104 0.0060671326 -0.0821892 -0.030731091 -0.09813877 0.07134931 0.2944055
-0.015301512 -0.038696356 0.08572346 -0.1725763 -0.014374381 -0.26677275 -0.020809 -0.07997125
-0.091390096 0.11806926 -0.24970882 0.18425298 -0.06521465 0.11241869 0.1047257 0.010535252
-0.13209836 -0.020551302 -0.06279232 0.11143194 -0.11724253 -0.24353835 -0.011605678 0.0333806
-0.0061424715 -0.069563694 -0.1480352 -0.02521128 -0.060137678 0.012584687 0.28581604 -0.1648714
-0.03308092 -0.31194538 0.212768 -0.13884325 -0.12452577 0.14090866 -0.025780084 0.17880516
0.030764697 -0.1671079 0.15376958 0.18766832 -0.107525535 -0.42857236 -0.23361653 0.0023999217
-0.10588715 -0.083948344 -0.13411771 -0.055784095 0.11610779 -0.05826767 -0.092029326 0.107787035
-0.09049912 -0.10644229 0.0019913232 0.17175007 0.0015994689 -0.0100922985 0.018112648 -0.050473753
0.14841947 -0.22151166 0.11154319 -0.21371827 -0.16403663 -0.14116283 -0.03544338 0.14291528
-0.017916476 0.008576261 0.038475297 0.05684068 -0.22146085 -0.16003539 -0.046133555 0.033732127
0.07053752 -0.07909491 -0.08310191 0.19761483 0.056167368 0.09414156 -0.035081733 -0.20897202
0.0022877692 -0.0042249304 0.17522523 0.10068308 0.14905268 0.03679604 0.22699335 0.024093227
-0.06588392 -0.1392818 0.17862189 0.15458931 0.056793943 0.010775622 0.14110605 -0.24434783
0.06820147 0.16418195 0.021917671 0.01186066 -0.09688706 -0.014222289 -0.2168751 0.02081775
0.05812066 -0.12442101 -0.009150196 -0.19044997 0.13908274 -0.083681084 -0.03916713 0.022649266
-0.023670807 -0.026666025 0.072443664 0.13894069 0.048031297 0.2784274 0.08343957 -0.005337081
-0.14008631 -0.035845615 0.14821547 0.14027038 -0.07533223 -0.15631206 -0.30392444 -0.049291633
-0.0059839785 -0.089828596 0.10381116 -0.15522227 0.11971131 0.09827513 -0.043276712 0.1895876
0.016625809 0.1020176 0.0887571 -0.04305186 -0.026335062 0.116538115 0.05227295 0.2739315
-0.04505346 0.24298596 0.0032428033 0.07607763 -0.06702015 -0.020605227 -0.05590311 -0.06914121
0.0070054587 -0.106158495 -0.1600716 0.15922907 -0.0678603 -0.06793755 -0.057516795 0.14877835
0.18549559 0.14905058 -0.055066027 0.019898444 0.09902107 -0.11316839 -0.20663649 -0.34222123
-0.09648221 0.34717056 -0.16611722 -0.056951087 0.032453857 -0.0032475628 -0.06579512 0.16935313
-0.12612578 0.24424903 0.16792123 0.057902638 -0.037361577 0.069243535 -0.19838402 -0.007549792
-0.053015985 -0.10774952 0.10751973 -0.11277665 0.042254582 -0.00558198 -0.17495126 -0.020852124
0.13756539 0.12222607 -0.14986947 -0.017323807 -0.16190076 -0.07790613 0.17630477 -0.018476978
0.20766456 0.059942074 -0.0019512037 0.174381 -0.08331746 -0.0582491 -0.17489025 -0.025871908
00000000: 4885 e53d 661b bd3d 6c2b 32be 03ee 653e
00000010: daff b8bd 32d9 123e 93ec 5c3e 4f62 7ebe
00000020: 60f7 fabd d877 55bd f908 06be 2ecd cc3d
00000030: e5a4 99bd 20fb f8bd 75ed c9bd 20a1 f9bd
00000040: c72c ccbd 9b07 1ebe 386a 3abe dd5b 0bbe
00000050: 56f0 be38 b51a 3d3e 94ee e3bd 26f0 753e
00000060: 4b44 943e 7cd7 b33d cc13 033d 23a3 293d
00000070: 3f2d 97be f833 25be ccf4 e5bd 48d6 31be
00000080: e610 643d ec7e 3e3e ccce c63b d052 a8bd
00000090: c5bf fbbc fbfc c8bd 961f 923d 51bc 963e
000000a0: 31b3 7abc 1280 1ebd c88f af3d d7b7 30be
000000b0: 8682 6bbc 7096 88be a377 aabc f7c7 a3bd
000000c0: bb2a bbbd 4cce f13d abb3 7fbe d0ac 3c3e
000000d0: 428f 85bd c53b e63d 6e7a d63d 0d9c 2c3c
000000e0: cb44 07be 345b a8bc 4399 80bd 6e36 e43d
000000f0: da1c f0bd 1e62 79be be25 3ebc 19ba 083d
00000100: c946 c9bb 6977 8ebd 8a96 17be e387 cebc
00000110: ed52 76bd 0130 4e3c 7b56 923e 0cd4 28be
00000120: dc7f 07bd 4eb7 9fbe dbdf 593e ed2c 0ebe
00000130: 5e07 ffbd 5c4a 103e c130 d3bc b318 373e
00000140: 3f06 fc3c 551e 2bbe c675 1d3e 202c 403e
00000150: 5936 dcbd d66d dbbe 2c39 6fbe 0148 1d3b
00000160: 5ddb d8bd 1ced abbd 2756 09be dd7d 64bd
00000170: ecc9 ed3d 15aa 6ebd df79 bcbd 73bf dc3d
00000180: 9a57 b9bd 6afe d9bd dc80 023b 40df 2f3e
00000190: 45a5 d13a 2b5a 25bc fa60 943c 91bd 4ebd
000001a0: 46fb 173e f4d3 62be c270 e43d f6d8 5abe
000001b0: 38f9 27be fd8c 10be 142d 11bd 6258 123e
000001c0: 93c5 92bc 7283 0c3c 4698 1d3d c6d1 683d
000001d0: a2c6 62be 51e0 23be 8af6 3cbd b32a 0a3d
000001e0: fa75 903d 83fc a1bd 5631 aabd 8b5b 4a3e
000001f0: c10f 663d 4acd c03d ddb1 0fbd c3fc 55be
00000200: 66ee 153b 4971 8abb 3e6e 333e ee32 ce3d
00000210: 44a1 183e 72b7 163d f270 683e 295f c53c
00000220: 26ee 86bd e39f 0ebe a8e8 363e a94c 1e3e
00000230: c4a0 683d 3c8c 303c 1b7e 103e 5136 7abe
00000240: 36ad 8b3d 501f 283e b08c b33c 3753 423c
00000250: b96c c6bd 9b04 69bc 8214 5ebe fc89 aa3c
00000260: ee0f 6e3d 71d0 febd b4ea 15bc 5105 43be
00000270: b56b 0e3e fd60 abbd b66d 20bd f48a b93c
00000280: 48e9 c1bc b572 dabc 585d 943d 7846 0e3e
00000290: 77bc 443d 098e 8e3e 5ee2 aa3d aee2 aebb
000002a0: c972 0fbe dad2 12bd ccc5 173e 0aa3 0f3e
000002b0: c947 9abd 4510 20be fc9b 9bbe 06e6 49bd
000002c0: 4015 c4bb 0ef8 b7bd f29a d43d 96f2 1ebe
000002d0: 342b f53d 7944 c93d ec42 31bd 4023 423e
000002e0: d932 883c 9aee d03d 48c6 b53d 2657 30bd
000002f0: a1bc d7bc 89ab ee3d 291c 563d c040 8c3e
00000300: fa89 38bd 50d1 783e 3685 543b 97ce 9b3d
00000310: dc41 89bd 4bcc a8bc a9fa 64bd e899 8dbd
00000320: 0c8e e53b a069 d9bd cfe9 23be f20c 233e
00000330: 57fa 8abd d822 8bbd bb96 6bbd 5a59 183e
00000340: 8ef2 3d3e b7a0 183e ea8c 61bd 1002 a33c
00000350: 8fcb ca3d d4c4 e7bd 8498 53be 9f37 afbe
00000360: 7798 c5bd 57c0 b13e a21a 2abe 8b45 69bd
00000370: 56ee 043d 10d5 54bb 98bf 86bd e86a 2d3e
00000380: 1e27 01be 6b1c 7a3e 8bf3 2b3e 512b 6d3d
00000390: 7408 19bd 8ecf 8d3d 2e25 4bbe 3f64 f7bb
000003a0: 4a27 59bd c8ab dcbd 4e33 dc3d 72f7 e6bd
000003b0: 2413 2d3d 0be9 b6bb 6c26 33be 13d2 aabc
000003c0: f1dd 0c3e a951 fa3d 6277 19be a8ea 8dbc
000003d0: 50c9 25be 408d 9fbd 3d89 343e 085d 97bc
000003e0: 05a6 543e d285 753d 88bf ffba ef90 323e
000003f0: 58a2 aabd 9c96 6ebd 6e16 33be 53f1 d3bc

lstm.bias_ih_l1 f4 [512]
-0.09583243 -0.2065274 0.16740361 -0.013360722 -0.06056595 -0.18749352 0.087515645 -0.023182886
-0.0671755 -0.066034295 -0.11204642 -0.09726223 -0.11781653 0.07105201 -0.027817657 0.1632934
0.071244 -0.09147184 0.04269013 0.094333634 0.068479456 -0.012505366 0.114886805 -0.08545051
0.1651734 -0.07350879 0.029274983 -0.054969452 -0.094318345 -0.02612349 -0.14605758 -0.021992838
-0.1632655 0.085720785 0.024376385 -0.106731944 0.1142834 -0.10653368 0.010491234 -0.04792919
-0.04303791 -0.023004217 -0.009484762 -0.094539344 -0.12846762 0.09981408 0.020409387 0.042052936
0.01871321 -0.00017632164 0.039208144 -0.07254965 0.11777214 0.0144509 -0.032202497 0.10909185
-0.079084665 -0.03614804 -0.1327127 -0.08809294 0.018659847 -0.11667299 -0.09017645 -0.013299207
-0.07407049 0.13712685 0.10685545 -0.083157375 0.008243575 0.08628656 0.07970716 -0.0876129
-0.023516662 0.036974933 -0.13324314 -0.10180277 0.038856883 0.07584736 0.07831595 0.24978465
-0.0761741 0.004844602 0.0069555 -0.15746512 0.08257789 -0.17963463 -0.08277508 -0.012581107
0.11774425 0.110609815 -0.01695554 0.09671882 -0.025047356 -0.17777634 0.1898654 0.055507336
-0.18299508 -0.009303888 0.016319728 -0.13443856 0.055777352 -0.07429583 -0.12883428 0.18429516
-0.0007130645 0.0996842 0.06946283 0.10870394 -0.23971838 -0.0059153293 -0.074667186 -0.07340027
-0.036263086 -0.0438055 0.08375679 -0.044837248 0.08807989 0.10432698 -0.046705283 0.054440416
0.07297546 -0.08523873 -0.041449152 0.047773838 0.06633485 -0.041439407 -0.062419783 0.033559326
-0.049793176 -0.091096014 0.0017692707 -0.0050079618 0.035308886 -0.049715176 0.049554016 -0.054312225
0.052604076 -0.082813255 -0.07844233 -0.03990072 -0.05808489 -0.19134896 -0.052763272 0.077682
-0.028830947 0.04851005 0.013141163 -0.07400794 0.0009095142 0.11232582 0.05395047 -0.09307544
-0.16335401 0.019115873 -0.032297324 0.0070300703 -0.04817111 -0.051454008 -0.14740917 -0.04186293
0.0053223926 0.0072820317 -0.13397193 -0.017141145 -0.0072915014 -0.057706498 -0.03142234 -0.10020636
-0.099729225 0.0019477024 0.10383068 0.062838726 -0.07426575 -0.11378171 0.013849599 -0.058576494
-0.12086384 -0.09960971 -0.049834833 -0.10509235 0.01626151 -0.07028076 0.027700577 0.04073577
0.0044716434 0.024426924 0.034565497 0.025725864 -0.06119959 -0.0011112085 0.0031551716 0.044128552
0.0147094345 -0.009549916 -0.20101218 0.030640189 0.008224258 0.04776395 0.04721136 -0.14053783
-0.13244228 -0.14350791 -0.0875647 -0.014035985 0.04145637 0.035494614 0.0065153795 0.118276484
-0.07041288 -0.052695215 0.051061492 0.00043249072 -0.08878297 -0.100040525 -0.013659137 0.010092277
-0.020514147 -0.06434138 -0.047973756 -0.027727148 0.063164175 0.015687862 0.10928411 0.031370737
-0.15369776 -0.017005488 -0.013446174 -0.077219844 0.039545823 -0.043213475 -0.065566234 0.07650916
-0.019396111 -0.01022614 0.029813582 -0.059419416 -0.024222692 0.057959206 -0.047093406 -0.102101184
0.050447542 -0.037009064 -0.012884866 0.06621732 0.019492174 0.015134561 0.08773598 -0.004252449
0.075553775 -0.020756375 0.16287252 -0.018178886 0.063311726 -0.13632517 -0.025384512 0.04469179
00000000: cb43 c4bd eb7b 53be da6b 2b3e eee6 5abc
00000010: 0014 78bd 4dfe 3fbe 673b b33d 09ea bdbc
00000020: 4f93 89bd fd3c 87bd 9878 e5bd 6c31 c7bd
00000030: cb49 f1bd b783 913d dbe1 e3bc 6336 273e
00000040: 60e8 913d 9755 bbbd d9db 2e3d fe31 c13d
00000050: f53e 8c3d 4ee3 4cbc c649 eb3d ad00 afbd
00000060: 3723 293e c78b 96bd 17d2 ef3c a627 61bd
00000070: fa29 c1bd ee00 d6bc 1e90 15be 532a b4bc
00000080: 122f 27be 618e af3d fcb0 c73c 4796 dabd
00000090: 6a0d ea3d 542e dabd 6de3 2b3c 6651 44bd
000000a0: 8548 30bd 5773 bcbc fa65 1bbc d89d c1bd
000000b0: 048d 03be 536b cc3d 9631 a73c b33f 2c3d
000000c0: 724c 993c fbe2 38b9 b898 203d e994 94bd
000000d0: 8532 f13d 78c3 6c3c c4e6 03bd 8c6b df3d
000000e0: 24f7 a1bd f80f 14bd d7e5 07be 126a b4bd
000000f0: 89dc 983c 40f2 eebd 6eae b8bd ebe4 59bc
00000100: 45b2 97bd fb6a 0c3e 08d7 da3d 6a4e aabd
00000110: 0f10 073c 02b7 b03d 823d a33d 646e b3bd
00000120: 04a6 c0bc 0773 173d e470 08be f87d d0bd
00000130: 6528 1f3d dc55 9b3d 1d64 a03d 8cc7 7f3e
00000140: 2b01 9cbd 78bf 9e3b f7ea e33b 893e 21be
00000150: 991e a93d 24f2 37be fb85 a9bd fd20 4ebc
00000160: e623 f13d 6687 e23d 58e6 8abc 8414 c63d
00000170: 1d30 cdbc 000b 36be 136c 423e a95b 633d
00000180: 1063 3bbe 566f 18bc f3b0 853c 43aa 09be
00000190: cb76 643d 6a28 98bd 22ed 03be dfb7 3c3e
000001a0: f3ec 3aba 3b27 cc3d 8742 8e3d 2ca0 de3d
000001b0: bc78 75be 61d5 c1bb 1ceb 98bd e152 96bd
000001c0: 9a88 14bd 656d 33bd ae88 ab3d 43a7 37bd
000001d0: 3b63 b43d 62a9 d53d 0a4e 3fbd eafc 5e3d
000001e0: 2874 953d a591 aebd 96c6 29bd 80ae 433d
000001f0: 91da 873d 5ebc 29bd e3ab 7fbd 8175 093d
00000200: eef3 4bbd 8c90 babd e0e6 e73a d419 a4bb
00000210: 0da0 103d 24a2 4bbd 27f9 4a3d 7f76 5ebd
00000220: 5f77 573d ff99 a9bd 5fa6 a0bd f06e 23bd
00000230: 6cea 6dbd fbf0 43be 4d1e 58bd be17 9f3d
00000240: e12e ecbc 79b2 463d 084e 573c 7a91 97bd
00000250: 776c 6e3a 140b e63d 2bfb 5c3d 569e bebd
00000260: 4646 27be e498 9c3c 334a 04bd 815c e63b
00000270: 124f 45bd 70c1 52bd 6ef2 16be 7778 2bbd
00000280: 7767 ae3b 1c9e ee3b f02f 09be 966b 8cbc
00000290: 8ced eebb a65d 6cbd b6b4 00bd fe38 cdbd
000002a0: d63e ccbd 0c4a ff3a 2ea5 d43d 97b1 803d
000002b0: a418 98bd 6306 e9bd 6ee9 623c e8ed 6fbd
000002c0: 7687 f7bd 2d00 ccbd 9c1f 4cbd a83a d7bd
000002d0: dc36 853c 5cef 8fbd 52ec e23c 8dda 263d
000002e0: dd86 923b f91a c83c 8d94 0d3d 0cbf d23c
000002f0: 6cac 7abd f8a5 91ba ffc6 4e3b 24c0 343d
00000300: d7ff 703c 4077 1cbc 23d6 4dbe 2201 fb3c
00000310: 0abf 063c 22a4 433d b360 413d 26e9 0fbe
00000320: f39e 07be bdf3 12be 1f55 b3bd 30f7 65bc
00000330: 28ce 293d cd62 113d f77e d53b f13a f23d
00000340: a134 90bd f0d6 57bd db25 513d ecbf e239
00000350: d9d3 b5bd 0ce2 ccbd 93ca 5fbc 145a 253c
00000360: 490d a8bc 6ac5 83bd 2180 44bd 0b24 e3bc
00000370: 385c 813d d583 803c 59d0 df3d 9a7e 003d
00000380: f262 1dbe 184f 8bbc 574d 5cbc 7025 9ebd
00000390: cdfa 213d 9d00 31bd 9747 86bd d6b0 9c3d
000003a0: 98e4 9ebc 8a8b 27bc 9d3b f43c c661 73bd
000003b0: ab6e c6bc a266 6d3d 04e5 40bd 6d1a d1bd
000003c0: 15a2 4e3d d196 17bd 0c1b 53bc f29c 873d
000003d0: 0dae 9f3c f3f6 773c ecae b33d 2158 8bbb
000003e0: f0bb 9a3d 4609 aabc 0ec8 263e e3eb 94bc
000003f0: 94a9 813d d398 0bbe 2ef3 cfbc bd0e 373d

lstm.bias_hh_l1 f4 [512]
-0.10750962 -0.18338417 0.1599139 0.044957723 -0.06656435 -0.049027473 0.15710145 0.06902919
0.019513901 -0.0038249784 0.01548207 -0.18611991 -0.03135778 0.19597463 0.028375212 0.20844926
0.09647165 0.048683953 0.057135243 0.07986131 0.07041334 0.11875091 0.075742126 -0.0895114
0.18287879 -0.13992763 -0.03988923 -0.0149495 -0.00013346116 0.06813374 -0.116604626 0.09371118
-0.15068528 0.0017874357 0.0424792 -0.055692554 0.06438214 -0.08007735 -0.007126631 0.10167214
-0.063417174 0.042591978 -0.06027565 -0.056351133 -0.14877295 0.0037000119 -0.01976649 -0.07927135
0.044084508 0.058005854 0.040689148 -0.14408498 -0.0043321177 -0.031698655 -0.0730737 0.16273539
-0.035616502 -0.030461794 -0.12400665 -0.053468954 -0.056754857 -0.1562084 -0.11044006 -0.015919464
-0.1735558 0.022517335 0.10358411 -0.015550566 -0.0034113207 0.034952465 0.09747517 -0.22665395
0.03319674 0.018516574 -0.12744753 -0.12138099 0.041262094 0.08840661 0.09617195 0.12571988
-0.08101217 0.05420081 -0.038914096 -0.18157257 0.083718084 -0.18019748 -0.03151876 -0.030230477
0.11425407 0.07173407 -0.08075375 0.10352142 0.074983194 -0.25546765 0.26652592 0.061449733
-0.2803149 -0.043697886 0.14742127 -0.15566291 -0.015968107 0.06747573 -0.14492764 0.26745042
-0.024878787 0.029221652 0.220422 0.10201833 -0.08525846 0.08713746 -0.029453216 -0.053540315
0.036521234 -0.013393641 0.078628436 -0.05411609 0.12355588 0.12771997 0.016262842 0.09686132
0.084028974 -0.1459016 0.07903505 0.045342475 0.062491383 -0.05627962 0.034431186 0.16883095
0.042279847 -0.088555634 0.032013692 -0.11372955 0.018336251 -0.03403368 -0.025178071 0.088261895
-0.06486631 0.06385672 0.041985624 -0.0461154 -0.09548339 -0.147247 -0.08324269 0.11777143
0.033836193 -0.043053724 0.11185072 -0.021099558 0.060430184 -0.031479508 0.045124475 -0.055780835
-0.11641841 0.07742889 -0.060997974 -0.037950985 -0.03586028 -0.078298576 -0.19956729 0.018319633
-0.10691893 0.01426228 -0.08051982 0.0019926163 0.06530776 -0.026251256 0.05850161 -0.125112
-0.016401818 -0.014358365 -0.028492605 -0.008885652 0.043328147 -0.23748626 0.08715878 -0.14266434
-0.016252998 0.008413787 -0.05166412 -0.06959635 0.09914466 -0.21755297 -0.031122044 0.054640952
0.16060223 0.050718673 0.023863932 0.015900912 -0.0035077394 -0.06891142 0.10908773 -0.03293044
0.04327602 -0.09456913 -0.04110072 -0.018281259 -0.055256628 -0.0343455 -0.053773 -0.017872611
-0.08840632 -0.087176815 -0.053731717 -0.026601616 0.025517931 0.008834782 0.10218402 0.11376328
0.031250317 -0.02034529 -0.09001782 -0.11170657 -0.09902959 -0.05562791 -0.050937943 -0.0016151797
-0.064879 -0.052096706 -0.04156186 0.0072841393 0.09589849 -0.10714728 0.10209914 0.0063549066
-0.16132377 0.063037865 -0.17264113 -0.08272655 -0.0072562257 0.06552152 0.0056206607 0.1169383
-0.04195713 -0.060068958 -0.06408707 -0.18376328 -0.09722616 0.030279608 0.006799889 -0.20205233
0.014293867 -0.122260705 0.13106424 -0.05549905 0.08818219 0.0118121365 0.12137218 0.046462055
-0.014133699 -0.09625436 0.05077526 -0.0010396498 0.090849005 -0.21000679 -0.038795784 -0.08574792
00000000: 012e dcbd 0fc9 3bbe 78c0 233e 9725 383d
00000010: e452 88bd 08d1 48bd 34df 203e 2d5f 8d3d
00000020: 9edb 9f3c 7dac 7abb 82a8 7d3c 3896 3ebe
00000030: 0471 00bd 93ad 483e 2273 e83c b973 553e
00000040: ee92 c53d d368 473d a506 6a3d 548e a33d
00000050: df34 903d ad33 f33d b01e 9b3d c151 b7bd
00000060: 9444 3b3e 3049 0fbe e462 23bd bfee 74bc
00000070: b5f1 0bb9 b489 8b3d 68ce eebd a6eb bf3d
00000080: 3e4d 1abe 6448 ea3a abfe 2d3d e01d 64bd
00000090: c9da 833d 98ff a3bd 8486 e9bb 7c39 d03d
000000a0: dde0 81bd ed74 2e3d 9ae3 76bd 72d0 66bd
000000b0: f057 18be e67b 723b 56ed a1bc 0459 a2bd
000000c0: f591 343d 8c97 6d3d aaa9 263d 038b 13be
000000d0: 70f4 8dbb 73d6 01bd aaa7 95bd 1ba4 263e
000000e0: 9ce2 11bd 038b f9bc 33f7 fdbd 4302 5bbd
000000f0: c877 68bd 18f5 1fbe 662e e2bd 8969 82bc
00000100: 9db8 31be 4676 b83c e823 d43d cdc7 7ebc
00000110: 7790 5fbb 512a 0f3d 10a1 c73d f917 68be
00000120: 4ef9 073d 12b0 973c 9b81 02be 9996 f8bd
00000130: 7102 293d 860e b53d cdf5 c43d b6bc 003e
00000140: b5e9 a5bd ab01 5e3d 6364 1fbd 29ee 39be
00000150: 6374 ab3d b085 38be d119 01bd e8a5 f7bc
00000160: 0afe e93d 50e9 923d 3962 a5bd 0a03 d43d
00000170: ca90 993d a8cc 82be 1676 883e b7b2 7b3d
00000180: 6f85 8fbe 8efc 32bd 9af5 163e 1966 1fbe
00000190: 8ccf 82bc b730 8a3d e967 14be 43ef 883e
000001a0: 99ce cbbc 3f62 ef3c 4eb6 613e fcee d03d
000001b0: fd9b aebd 2075 b23d df47 f1bc 174d 5bbd
000001c0: 4a97 153d 0171 5bbc f207 a13d d5a8 5dbd
000001d0: dd0a fd3d 06c9 023e a739 853c 3a5f c63d
000001e0: 6217 ac3d 3b67 15be 21dd a13d 08b9 393d
000001f0: f7f6 7f3d 7585 66bd b707 0d3d 05e2 2c3e
00000200: a22d 2d3d a85c b5bd ca20 033d 0aeb e8bd
00000210: e835 963c e666 0bbd 3e42 cebc a7c2 b43d
00000220: a1d8 84bd 50c7 823d 1ef9 2b3d 80e3 3cbd
00000230: cc8c c3bd ebc7 16be 257b aabd 2632 f13d
00000240: d297 0a3d 1a59 30bd fe11 e53d fbd8 acbc
00000250: a485 773d a8f0 00bd 71d4 383d 727a 64bd
00000260: c66c eebd 0a93 9e3d 03d9 79bd 7e72 1bbd
00000270: 3be2 12bd 015b a0bd 5e5b 4cbe 0e13 963c
00000280: 50f8 dabd 57ac 693c 93e7 a4bd 8e96 023b
00000290: 13c0 853d e00c d7bc 629f 6f3d 5c1d 00be
000002a0: 1b5d 86bc 593f 6bbc 5369 e9bc 2095 11bc
000002b0: db78 313d 992f 73be 4d80 b23d 9a16 12be
000002c0: 0225 85bc fbd9 093c c29d 53bd 8888 8ebd
000002d0: 5b0c cb3d 35c6 5ebe a8f3 febc 31cf 5f3d
000002e0: e974 243e 62be 4f3d 4b7e c33c a142 823c
000002f0: 1ae2 65bb 6e21 8dbd 6369 df3d 12e2 06bd
00000300: 3242 313d 76ad c1bd 3b59 28bd 94c2 95bc
00000310: c654 62bd dead 0cbd 1441 5cbd 9569 92bc
00000320: 5f0e b5bd c289 b2bd ca15 5cbd a2eb d9bc
00000330: fb0a d13c c3bf 103c db45 d13d b9fc e83d
00000340: 5500 003d 2aab a6bc 435b b8bd 6ac6 e4bd
00000350: 07d0 cabd 17da 63bd 4ea4 50bd 70b4 d3ba
00000360: 48df 84bd 5b63 55bd c53c 2abd caaf ee3b
00000370: 6d66 c43d 0870 dbbd 5b19 d13d d23c d03b
00000380: 0f32 25be ff19 813d d6c8 30be 8a6c a9bd
00000390: a2c5 edbb 2630 863d 852d b83b 597d ef3d
000003a0: 3ddb 2bbd de0a 76bd 1540 83bd 712c 3cbe
000003b0: 821e c7bd f10c f83c 9ad1 de3b cee6 4ebe
000003c0: d330 6a3c d263 fabd b435 063e f952 63bd
000003d0: dd98 b43d b187 413c fa91 f83d ff4e 3e3d
000003e0: 0891 67bc 0221 c5bd b8f9 4f3d dc44 88ba
000003f0: 0b0f ba3d 050c 57be 54e8 1ebd 9b9c afbd
